{"format": "graph-model", "generatedBy": "2.18.0", "convertedBy": "TensorFlow.js Converter v4.13.0", "signature": {"inputs": {"inputs": {"name": "inputs:0", "dtype": "DT_FLOAT", "tensorShape": {"dim": [{"size": "-1"}, {"size": "48"}, {"size": "1662"}]}}}, "outputs": {"output_0": {"name": "Identity:0", "dtype": "DT_FLOAT", "tensorShape": {"dim": [{"size": "-1"}, {"size": "104"}]}}}}, "modelTopology": {"node": [{"name": "StatefulPartitionedCall/ISL_BiLSTM_Attn_1/bidirectional_1_2/forward_lstm_1_1/TensorArrayV2Stack/TensorListStack/element_shape", "op": "Const", "attr": {"value": {"tensor": {"dtype": "DT_INT32", "tensorShape": {"dim": [{"size": "2"}]}}}, "dtype": {"type": "DT_INT32"}}}, {"name": "StatefulPartitionedCall/ISL_BiLSTM_Attn_1/bidirectional_1_2/forward_lstm_1_1/transpose_1/perm", "op": "Const", "attr": {"value": {"tensor": {"dtype": "DT_INT32", "tensorShape": {"dim": [{"size": "3"}]}}}, "dtype": {"type": "DT_INT32"}}}, {"name": "StatefulPartitionedCall/ISL_BiLSTM_Attn_1/bidirectional_1_2/backward_lstm_1_1/TensorArrayV2Stack/TensorListStack/element_shape", "op": "Const", "attr": {"value": {"tensor": {"dtype": "DT_INT32", "tensorShape": {"dim": [{"size": "2"}]}}}, "dtype": {"type": "DT_INT32"}}}, {"name": "StatefulPartitionedCall/ISL_BiLSTM_Attn_1/bidirectional_1_2/backward_lstm_1_1/transpose_1/perm", "op": "Const", "attr": {"value": {"tensor": {"dtype": "DT_INT32", "tensorShape": {"dim": [{"size": "3"}]}}}, "dtype": {"type": "DT_INT32"}}}, {"name": "StatefulPartitionedCall/ISL_BiLSTM_Attn_1/bidirectional_1_2/ReverseV2/axis", "op": "Const", "attr": {"value": {"tensor": {"dtype": "DT_INT32", "tensorShape": {"dim": [{"size": "1"}]}}}, "dtype": {"type": "DT_INT32"}}}, {"name": "StatefulPartitionedCall/ISL_BiLSTM_Attn_1/bidirectional_1_2/concat/axis", "op": "Const", "attr": {"value": {"tensor": {"dtype": "DT_INT32", "tensorShape": {}}}, "dtype": {"type": "DT_INT32"}}}, {"name": "StatefulPartitionedCall/ISL_BiLSTM_Attn_1/temporal_attention_1/dense_6_1/Cast/ReadVariableOp", "op": "Const", "attr": {"value": {"tensor": {"dtype": "DT_FLOAT", "tensorShape": {"dim": [{"size": "128"}, {"size": "128"}]}}}, "dtype": {"type": "DT_FLOAT"}}}, {"name": "StatefulPartitionedCall/ISL_BiLSTM_Attn_1/temporal_attention_1/dense_6_1/BiasAdd/ReadVariableOp", "op": "Const", "attr": {"value": {"tensor": {"dtype": "DT_FLOAT", "tensorShape": {"dim": [{"size": "128"}]}}}, "dtype": {"type": "DT_FLOAT"}}}, {"name": "StatefulPartitionedCall/ISL_BiLSTM_Attn_1/temporal_attention_1/dense_7_1/Cast/ReadVariableOp", "op": "Const", "attr": {"value": {"tensor": {"dtype": "DT_FLOAT", "tensorShape": {"dim": [{"size": "128"}, {"size": "1"}]}}}, "dtype": {"type": "DT_FLOAT"}}}, {"name": "StatefulPartitionedCall/ISL_BiLSTM_Attn_1/temporal_attention_1/dense_7_1/Add/ReadVariableOp", "op": "Const", "attr": {"value": {"tensor": {"dtype": "DT_FLOAT", "tensorShape": {"dim": [{"size": "1"}]}}}, "dtype": {"type": "DT_FLOAT"}}}, {"name": "StatefulPartitionedCall/ISL_BiLSTM_Attn_1/temporal_attention_1/softmax_1_1/concat", "op": "Const", "attr": {"value": {"tensor": {"dtype": "DT_INT32", "tensorShape": {"dim": [{"size": "3"}]}}}, "dtype": {"type": "DT_INT32"}}}, {"name": "StatefulPartitionedCall/ISL_BiLSTM_Attn_1/temporal_attention_1/softmax_1_1/concat_1", "op": "Const", "attr": {"value": {"tensor": {"dtype": "DT_INT32", "tensorShape": {"dim": [{"size": "3"}]}}}, "dtype": {"type": "DT_INT32"}}}, {"name": "StatefulPartitionedCall/ISL_BiLSTM_Attn_1/temporal_attention_1/Sum/reduction_indices", "op": "Const", "attr": {"value": {"tensor": {"dtype": "DT_INT32", "tensorShape": {}}}, "dtype": {"type": "DT_INT32"}}}, {"name": "StatefulPartitionedCall/ISL_BiLSTM_Attn_1/dense_3_1/Cast/ReadVariableOp", "op": "Const", "attr": {"value": {"tensor": {"dtype": "DT_FLOAT", "tensorShape": {"dim": [{"size": "128"}, {"size": "256"}]}}}, "dtype": {"type": "DT_FLOAT"}}}, {"name": "StatefulPartitionedCall/ISL_BiLSTM_Attn_1/dense_3_1/BiasAdd/ReadVariableOp", "op": "Const", "attr": {"value": {"tensor": {"dtype": "DT_FLOAT", "tensorShape": {"dim": [{"size": "256"}]}}}, "dtype": {"type": "DT_FLOAT"}}}, {"name": "StatefulPartitionedCall/ISL_BiLSTM_Attn_1/batch_normalization_1_2/batchnorm/mul", "op": "Const", "attr": {"value": {"tensor": {"dtype": "DT_FLOAT", "tensorShape": {"dim": [{"size": "256"}]}}}, "dtype": {"type": "DT_FLOAT"}}}, {"name": "StatefulPartitionedCall/ISL_BiLSTM_Attn_1/batch_normalization_1_2/batchnorm/sub", "op": "Const", "attr": {"value": {"tensor": {"dtype": "DT_FLOAT", "tensorShape": {"dim": [{"size": "256"}]}}}, "dtype": {"type": "DT_FLOAT"}}}, {"name": "StatefulPartitionedCall/ISL_BiLSTM_Attn_1/dense_4_1/Cast/ReadVariableOp", "op": "Const", "attr": {"value": {"tensor": {"dtype": "DT_FLOAT", "tensorShape": {"dim": [{"size": "256"}, {"size": "128"}]}}}, "dtype": {"type": "DT_FLOAT"}}}, {"name": "StatefulPartitionedCall/ISL_BiLSTM_Attn_1/dense_4_1/BiasAdd/ReadVariableOp", "op": "Const", "attr": {"value": {"tensor": {"dtype": "DT_FLOAT", "tensorShape": {"dim": [{"size": "128"}]}}}, "dtype": {"type": "DT_FLOAT"}}}, {"name": "StatefulPartitionedCall/ISL_BiLSTM_Attn_1/batch_normalization_2_1/batchnorm/mul", "op": "Const", "attr": {"value": {"tensor": {"dtype": "DT_FLOAT", "tensorShape": {"dim": [{"size": "128"}]}}}, "dtype": {"type": "DT_FLOAT"}}}, {"name": "StatefulPartitionedCall/ISL_BiLSTM_Attn_1/batch_normalization_2_1/batchnorm/sub", "op": "Const", "attr": {"value": {"tensor": {"dtype": "DT_FLOAT", "tensorShape": {"dim": [{"size": "128"}]}}}, "dtype": {"type": "DT_FLOAT"}}}, {"name": "StatefulPartitionedCall/ISL_BiLSTM_Attn_1/dense_5_1/Cast/ReadVariableOp", "op": "Const", "attr": {"value": {"tensor": {"dtype": "DT_FLOAT", "tensorShape": {"dim": [{"size": "128"}, {"size": "104"}]}}}, "dtype": {"type": "DT_FLOAT"}}}, {"name": "StatefulPartitionedCall/ISL_BiLSTM_Attn_1/dense_5_1/BiasAdd/ReadVariableOp", "op": "Const", "attr": {"value": {"tensor": {"dtype": "DT_FLOAT", "tensorShape": {"dim": [{"size": "104"}]}}}, "dtype": {"type": "DT_FLOAT"}}}, {"name": "StatefulPartitionedCall/ISL_BiLSTM_Attn_1/bidirectional_1_2/forward_lstm_1_1/Max", "op": "Const", "attr": {"value": {"tensor": {"dtype": "DT_INT32", "tensorShape": {}}}, "dtype": {"type": "DT_INT32"}}}, {"name": "StatefulPartitionedCall/ISL_BiLSTM_Attn_1/bidirectional_1_2/forward_lstm_1_1/while/loop_counter", "op": "Const", "attr": {"value": {"tensor": {"dtype": "DT_INT32", "tensorShape": {}}}, "_has_manual_control_dependencies": {"b": true}, "dtype": {"type": "DT_INT32"}}}, {"name": "StatefulPartitionedCall/ISL_BiLSTM_Attn_1/bidirectional_1_2/forward_lstm_1_1/time", "op": "Const", "attr": {"value": {"tensor": {"dtype": "DT_INT32", "tensorShape": {}}}, "_has_manual_control_dependencies": {"b": true}, "dtype": {"type": "DT_INT32"}}}, {"name": "Func/StatefulPartitionedCall/input/_13", "op": "Const", "attr": {"value": {"tensor": {"dtype": "DT_FLOAT", "tensorShape": {"dim": [{"size": "256"}, {"size": "256"}]}}}, "dtype": {"type": "DT_FLOAT"}}}, {"name": "Func/StatefulPartitionedCall/input/_14", "op": "Const", "attr": {"value": {"tensor": {"dtype": "DT_FLOAT", "tensorShape": {"dim": [{"size": "64"}, {"size": "256"}]}}}, "dtype": {"type": "DT_FLOAT"}}}, {"name": "Func/StatefulPartitionedCall/input/_15", "op": "Const", "attr": {"value": {"tensor": {"dtype": "DT_FLOAT", "tensorShape": {"dim": [{"size": "256"}]}}}, "dtype": {"type": "DT_FLOAT"}}}, {"name": "StatefulPartitionedCall/ISL_BiLSTM_Attn_1/bidirectional_1_2/forward_lstm_1_1/transpose/perm", "op": "Const", "attr": {"value": {"tensor": {"dtype": "DT_INT32", "tensorShape": {"dim": [{"size": "3"}]}}}, "dtype": {"type": "DT_INT32"}}}, {"name": "StatefulPartitionedCall/ISL_BiLSTM_Attn_1/bidirectional_1_2/forward_lstm_1_1/TensorArrayUnstack/TensorListFromTensor/element_shape", "op": "Const", "attr": {"value": {"tensor": {"dtype": "DT_INT32", "tensorShape": {"dim": [{"size": "2"}]}}}, "dtype": {"type": "DT_INT32"}}}, {"name": "StatefulPartitionedCall/ISL_BiLSTM_Attn_1/bidirectional_1_2/forward_lstm_1_1/TensorArrayV2_1/element_shape", "op": "Const", "attr": {"value": {"tensor": {"dtype": "DT_INT32", "tensorShape": {"dim": [{"size": "2"}]}}}, "dtype": {"type": "DT_INT32"}}}, {"name": "StatefulPartitionedCall/ISL_BiLSTM_Attn_1/bidirectional_1_2/forward_lstm_1_1/TensorArrayV2_1/num_elements", "op": "Const", "attr": {"value": {"tensor": {"dtype": "DT_INT32", "tensorShape": {}}}, "dtype": {"type": "DT_INT32"}}}, {"name": "StatefulPartitionedCall/ISL_BiLSTM_Attn_1/bidirectional_1_2/forward_lstm_1_1/zeros/packed/1", "op": "Const", "attr": {"value": {"tensor": {"dtype": "DT_INT32", "tensorShape": {}}}, "dtype": {"type": "DT_INT32"}}}, {"name": "StatefulPartitionedCall/ISL_BiLSTM_Attn_1/bidirectional_1_2/forward_lstm_1_1/zeros/Const", "op": "Const", "attr": {"value": {"tensor": {"dtype": "DT_FLOAT", "tensorShape": {}}}, "dtype": {"type": "DT_FLOAT"}}}, {"name": "StatefulPartitionedCall/ISL_BiLSTM_Attn_1/bidirectional_1_2/forward_lstm_1_1/strided_slice/stack", "op": "Const", "attr": {"value": {"tensor": {"dtype": "DT_INT32", "tensorShape": {"dim": [{"size": "1"}]}}}, "dtype": {"type": "DT_INT32"}}}, {"name": "StatefulPartitionedCall/ISL_BiLSTM_Attn_1/bidirectional_1_2/forward_lstm_1_1/strided_slice/stack_1", "op": "Const", "attr": {"value": {"tensor": {"dtype": "DT_INT32", "tensorShape": {"dim": [{"size": "1"}]}}}, "dtype": {"type": "DT_INT32"}}}, {"name": "StatefulPartitionedCall/ISL_BiLSTM_Attn_1/bidirectional_1_2/forward_lstm_1_1/strided_slice/stack_2", "op": "Const", "attr": {"value": {"tensor": {"dtype": "DT_INT32", "tensorShape": {"dim": [{"size": "1"}]}}}, "dtype": {"type": "DT_INT32"}}}, {"name": "StatefulPartitionedCall/ISL_BiLSTM_Attn_1/bidirectional_1_2/forward_lstm_1_1/zeros_1/packed/1", "op": "Const", "attr": {"value": {"tensor": {"dtype": "DT_INT32", "tensorShape": {}}}, "dtype": {"type": "DT_INT32"}}}, {"name": "StatefulPartitionedCall/ISL_BiLSTM_Attn_1/bidirectional_1_2/forward_lstm_1_1/zeros_1/Const", "op": "Const", "attr": {"value": {"tensor": {"dtype": "DT_FLOAT", "tensorShape": {}}}, "dtype": {"type": "DT_FLOAT"}}}, {"name": "StatefulPartitionedCall/ISL_BiLSTM_Attn_1/bidirectional_1_2/backward_lstm_1_1/while/loop_counter", "op": "Const", "attr": {"value": {"tensor": {"dtype": "DT_INT32", "tensorShape": {}}}, "_has_manual_control_dependencies": {"b": true}, "dtype": {"type": "DT_INT32"}}}, {"name": "StatefulPartitionedCall/ISL_BiLSTM_Attn_1/bidirectional_1_2/backward_lstm_1_1/Max", "op": "Const", "attr": {"value": {"tensor": {"dtype": "DT_INT32", "tensorShape": {}}}, "dtype": {"type": "DT_INT32"}}}, {"name": "StatefulPartitionedCall/ISL_BiLSTM_Attn_1/bidirectional_1_2/backward_lstm_1_1/time", "op": "Const", "attr": {"value": {"tensor": {"dtype": "DT_INT32", "tensorShape": {}}}, "_has_manual_control_dependencies": {"b": true}, "dtype": {"type": "DT_INT32"}}}, {"name": "Func/StatefulPartitionedCall/input/_16", "op": "Const", "attr": {"value": {"tensor": {"dtype": "DT_FLOAT", "tensorShape": {"dim": [{"size": "256"}, {"size": "256"}]}}}, "dtype": {"type": "DT_FLOAT"}}}, {"name": "Func/StatefulPartitionedCall/input/_17", "op": "Const", "attr": {"value": {"tensor": {"dtype": "DT_FLOAT", "tensorShape": {"dim": [{"size": "64"}, {"size": "256"}]}}}, "dtype": {"type": "DT_FLOAT"}}}, {"name": "Func/StatefulPartitionedCall/input/_18", "op": "Const", "attr": {"value": {"tensor": {"dtype": "DT_FLOAT", "tensorShape": {"dim": [{"size": "256"}]}}}, "dtype": {"type": "DT_FLOAT"}}}, {"name": "StatefulPartitionedCall/ISL_BiLSTM_Attn_1/bidirectional_1_2/backward_lstm_1_1/transpose/perm", "op": "Const", "attr": {"value": {"tensor": {"dtype": "DT_INT32", "tensorShape": {"dim": [{"size": "3"}]}}}, "dtype": {"type": "DT_INT32"}}}, {"name": "StatefulPartitionedCall/ISL_BiLSTM_Attn_1/bidirectional_1_2/backward_lstm_1_1/ReverseV2/axis", "op": "Const", "attr": {"value": {"tensor": {"dtype": "DT_INT32", "tensorShape": {"dim": [{"size": "1"}]}}}, "dtype": {"type": "DT_INT32"}}}, {"name": "StatefulPartitionedCall/ISL_BiLSTM_Attn_1/bidirectional_1_2/backward_lstm_1_1/TensorArrayUnstack/TensorListFromTensor/element_shape", "op": "Const", "attr": {"value": {"tensor": {"dtype": "DT_INT32", "tensorShape": {"dim": [{"size": "2"}]}}}, "dtype": {"type": "DT_INT32"}}}, {"name": "StatefulPartitionedCall/ISL_BiLSTM_Attn_1/bidirectional_1_2/backward_lstm_1_1/TensorArrayV2_1/element_shape", "op": "Const", "attr": {"value": {"tensor": {"dtype": "DT_INT32", "tensorShape": {"dim": [{"size": "2"}]}}}, "dtype": {"type": "DT_INT32"}}}, {"name": "StatefulPartitionedCall/ISL_BiLSTM_Attn_1/bidirectional_1_2/backward_lstm_1_1/TensorArrayV2_1/num_elements", "op": "Const", "attr": {"value": {"tensor": {"dtype": "DT_INT32", "tensorShape": {}}}, "dtype": {"type": "DT_INT32"}}}, {"name": "StatefulPartitionedCall/ISL_BiLSTM_Attn_1/bidirectional_1_2/backward_lstm_1_1/zeros/packed/1", "op": "Const", "attr": {"value": {"tensor": {"dtype": "DT_INT32", "tensorShape": {}}}, "dtype": {"type": "DT_INT32"}}}, {"name": "StatefulPartitionedCall/ISL_BiLSTM_Attn_1/bidirectional_1_2/backward_lstm_1_1/zeros/Const", "op": "Const", "attr": {"value": {"tensor": {"dtype": "DT_FLOAT", "tensorShape": {}}}, "dtype": {"type": "DT_FLOAT"}}}, {"name": "StatefulPartitionedCall/ISL_BiLSTM_Attn_1/bidirectional_1/forward_lstm_1/Max", "op": "Const", "attr": {"value": {"tensor": {"dtype": "DT_INT32", "tensorShape": {}}}, "dtype": {"type": "DT_INT32"}}}, {"name": "StatefulPartitionedCall/ISL_BiLSTM_Attn_1/bidirectional_1/forward_lstm_1/while/loop_counter", "op": "Const", "attr": {"value": {"tensor": {"dtype": "DT_INT32", "tensorShape": {}}}, "_has_manual_control_dependencies": {"b": true}, "dtype": {"type": "DT_INT32"}}}, {"name": "StatefulPartitionedCall/ISL_BiLSTM_Attn_1/bidirectional_1/forward_lstm_1/time", "op": "Const", "attr": {"value": {"tensor": {"dtype": "DT_INT32", "tensorShape": {}}}, "_has_manual_control_dependencies": {"b": true}, "dtype": {"type": "DT_INT32"}}}, {"name": "Func/StatefulPartitionedCall/input/_7", "op": "Const", "attr": {"value": {"tensor": {"dtype": "DT_FLOAT", "tensorShape": {"dim": [{"size": "512"}, {"size": "512"}]}}}, "dtype": {"type": "DT_FLOAT"}}}, {"name": "Func/StatefulPartitionedCall/input/_8", "op": "Const", "attr": {"value": {"tensor": {"dtype": "DT_FLOAT", "tensorShape": {"dim": [{"size": "128"}, {"size": "512"}]}}}, "dtype": {"type": "DT_FLOAT"}}}, {"name": "Func/StatefulPartitionedCall/input/_9", "op": "Const", "attr": {"value": {"tensor": {"dtype": "DT_FLOAT", "tensorShape": {"dim": [{"size": "512"}]}}}, "dtype": {"type": "DT_FLOAT"}}}, {"name": "StatefulPartitionedCall/ISL_BiLSTM_Attn_1/bidirectional_1/forward_lstm_1/transpose/perm", "op": "Const", "attr": {"value": {"tensor": {"dtype": "DT_INT32", "tensorShape": {"dim": [{"size": "3"}]}}}, "dtype": {"type": "DT_INT32"}}}, {"name": "StatefulPartitionedCall/ISL_BiLSTM_Attn_1/bidirectional_1/forward_lstm_1/TensorArrayUnstack/TensorListFromTensor/element_shape", "op": "Const", "attr": {"value": {"tensor": {"dtype": "DT_INT32", "tensorShape": {"dim": [{"size": "2"}]}}}, "dtype": {"type": "DT_INT32"}}}, {"name": "StatefulPartitionedCall/ISL_BiLSTM_Attn_1/bidirectional_1/forward_lstm_1/TensorArrayV2_1/element_shape", "op": "Const", "attr": {"value": {"tensor": {"dtype": "DT_INT32", "tensorShape": {"dim": [{"size": "2"}]}}}, "dtype": {"type": "DT_INT32"}}}, {"name": "StatefulPartitionedCall/ISL_BiLSTM_Attn_1/bidirectional_1/forward_lstm_1/TensorArrayV2_1/num_elements", "op": "Const", "attr": {"value": {"tensor": {"dtype": "DT_INT32", "tensorShape": {}}}, "dtype": {"type": "DT_INT32"}}}, {"name": "StatefulPartitionedCall/ISL_BiLSTM_Attn_1/bidirectional_1/forward_lstm_1/zeros/packed/1", "op": "Const", "attr": {"value": {"tensor": {"dtype": "DT_INT32", "tensorShape": {}}}, "dtype": {"type": "DT_INT32"}}}, {"name": "StatefulPartitionedCall/ISL_BiLSTM_Attn_1/bidirectional_1/forward_lstm_1/zeros/Const", "op": "Const", "attr": {"value": {"tensor": {"dtype": "DT_FLOAT", "tensorShape": {}}}, "dtype": {"type": "DT_FLOAT"}}}, {"name": "StatefulPartitionedCall/ISL_BiLSTM_Attn_1/bidirectional_1/forward_lstm_1/strided_slice/stack", "op": "Const", "attr": {"value": {"tensor": {"dtype": "DT_INT32", "tensorShape": {"dim": [{"size": "1"}]}}}, "dtype": {"type": "DT_INT32"}}}, {"name": "StatefulPartitionedCall/ISL_BiLSTM_Attn_1/bidirectional_1/forward_lstm_1/strided_slice/stack_1", "op": "Const", "attr": {"value": {"tensor": {"dtype": "DT_INT32", "tensorShape": {"dim": [{"size": "1"}]}}}, "dtype": {"type": "DT_INT32"}}}, {"name": "StatefulPartitionedCall/ISL_BiLSTM_Attn_1/bidirectional_1/forward_lstm_1/strided_slice/stack_2", "op": "Const", "attr": {"value": {"tensor": {"dtype": "DT_INT32", "tensorShape": {"dim": [{"size": "1"}]}}}, "dtype": {"type": "DT_INT32"}}}, {"name": "StatefulPartitionedCall/ISL_BiLSTM_Attn_1/bidirectional_1/forward_lstm_1/zeros_1/packed/1", "op": "Const", "attr": {"value": {"tensor": {"dtype": "DT_INT32", "tensorShape": {}}}, "dtype": {"type": "DT_INT32"}}}, {"name": "StatefulPartitionedCall/ISL_BiLSTM_Attn_1/bidirectional_1/forward_lstm_1/zeros_1/Const", "op": "Const", "attr": {"value": {"tensor": {"dtype": "DT_FLOAT", "tensorShape": {}}}, "dtype": {"type": "DT_FLOAT"}}}, {"name": "StatefulPartitionedCall/ISL_BiLSTM_Attn_1/bidirectional_1/forward_lstm_1/TensorArrayV2Stack/TensorListStack/element_shape", "op": "Const", "attr": {"value": {"tensor": {"dtype": "DT_INT32", "tensorShape": {"dim": [{"size": "2"}]}}}, "dtype": {"type": "DT_INT32"}}}, {"name": "StatefulPartitionedCall/ISL_BiLSTM_Attn_1/bidirectional_1/forward_lstm_1/transpose_1/perm", "op": "Const", "attr": {"value": {"tensor": {"dtype": "DT_INT32", "tensorShape": {"dim": [{"size": "3"}]}}}, "dtype": {"type": "DT_INT32"}}}, {"name": "StatefulPartitionedCall/ISL_BiLSTM_Attn_1/bidirectional_1/backward_lstm_1/Max", "op": "Const", "attr": {"value": {"tensor": {"dtype": "DT_INT32", "tensorShape": {}}}, "dtype": {"type": "DT_INT32"}}}, {"name": "StatefulPartitionedCall/ISL_BiLSTM_Attn_1/bidirectional_1/backward_lstm_1/while/loop_counter", "op": "Const", "attr": {"value": {"tensor": {"dtype": "DT_INT32", "tensorShape": {}}}, "_has_manual_control_dependencies": {"b": true}, "dtype": {"type": "DT_INT32"}}}, {"name": "StatefulPartitionedCall/ISL_BiLSTM_Attn_1/bidirectional_1/backward_lstm_1/time", "op": "Const", "attr": {"value": {"tensor": {"dtype": "DT_INT32", "tensorShape": {}}}, "_has_manual_control_dependencies": {"b": true}, "dtype": {"type": "DT_INT32"}}}, {"name": "Func/StatefulPartitionedCall/input/_10", "op": "Const", "attr": {"value": {"tensor": {"dtype": "DT_FLOAT", "tensorShape": {"dim": [{"size": "512"}, {"size": "512"}]}}}, "dtype": {"type": "DT_FLOAT"}}}, {"name": "Func/StatefulPartitionedCall/input/_11", "op": "Const", "attr": {"value": {"tensor": {"dtype": "DT_FLOAT", "tensorShape": {"dim": [{"size": "128"}, {"size": "512"}]}}}, "dtype": {"type": "DT_FLOAT"}}}, {"name": "Func/StatefulPartitionedCall/input/_12", "op": "Const", "attr": {"value": {"tensor": {"dtype": "DT_FLOAT", "tensorShape": {"dim": [{"size": "512"}]}}}, "dtype": {"type": "DT_FLOAT"}}}, {"name": "StatefulPartitionedCall/ISL_BiLSTM_Attn_1/bidirectional_1/backward_lstm_1/transpose/perm", "op": "Const", "attr": {"value": {"tensor": {"dtype": "DT_INT32", "tensorShape": {"dim": [{"size": "3"}]}}}, "dtype": {"type": "DT_INT32"}}}, {"name": "StatefulPartitionedCall/ISL_BiLSTM_Attn_1/bidirectional_1/backward_lstm_1/ReverseV2/axis", "op": "Const", "attr": {"value": {"tensor": {"dtype": "DT_INT32", "tensorShape": {"dim": [{"size": "1"}]}}}, "dtype": {"type": "DT_INT32"}}}, {"name": "StatefulPartitionedCall/ISL_BiLSTM_Attn_1/bidirectional_1/backward_lstm_1/TensorArrayUnstack/TensorListFromTensor/element_shape", "op": "Const", "attr": {"value": {"tensor": {"dtype": "DT_INT32", "tensorShape": {"dim": [{"size": "2"}]}}}, "dtype": {"type": "DT_INT32"}}}, {"name": "StatefulPartitionedCall/ISL_BiLSTM_Attn_1/bidirectional_1/backward_lstm_1/TensorArrayV2_1/element_shape", "op": "Const", "attr": {"value": {"tensor": {"dtype": "DT_INT32", "tensorShape": {"dim": [{"size": "2"}]}}}, "dtype": {"type": "DT_INT32"}}}, {"name": "StatefulPartitionedCall/ISL_BiLSTM_Attn_1/bidirectional_1/backward_lstm_1/TensorArrayV2_1/num_elements", "op": "Const", "attr": {"value": {"tensor": {"dtype": "DT_INT32", "tensorShape": {}}}, "dtype": {"type": "DT_INT32"}}}, {"name": "StatefulPartitionedCall/ISL_BiLSTM_Attn_1/bidirectional_1/backward_lstm_1/zeros/packed/1", "op": "Const", "attr": {"value": {"tensor": {"dtype": "DT_INT32", "tensorShape": {}}}, "dtype": {"type": "DT_INT32"}}}, {"name": "StatefulPartitionedCall/ISL_BiLSTM_Attn_1/bidirectional_1/backward_lstm_1/zeros/Const", "op": "Const", "attr": {"value": {"tensor": {"dtype": "DT_FLOAT", "tensorShape": {}}}, "dtype": {"type": "DT_FLOAT"}}}, {"name": "StatefulPartitionedCall/ISL_BiLSTM_Attn_1/dense_1/Cast/ReadVariableOp", "op": "Const", "attr": {"value": {"tensor": {"dtype": "DT_FLOAT", "tensorShape": {"dim": [{"size": "1662"}, {"size": "512"}]}}}, "dtype": {"type": "DT_FLOAT"}}}, {"name": "StatefulPartitionedCall/ISL_BiLSTM_Attn_1/dense_1/BiasAdd/ReadVariableOp", "op": "Const", "attr": {"value": {"tensor": {"dtype": "DT_FLOAT", "tensorShape": {"dim": [{"size": "512"}]}}}, "dtype": {"type": "DT_FLOAT"}}}, {"name": "StatefulPartitionedCall/ISL_BiLSTM_Attn_1/batch_normalization_1/batchnorm/mul", "op": "Const", "attr": {"value": {"tensor": {"dtype": "DT_FLOAT", "tensorShape": {"dim": [{"size": "512"}]}}}, "dtype": {"type": "DT_FLOAT"}}}, {"name": "StatefulPartitionedCall/ISL_BiLSTM_Attn_1/batch_normalization_1/batchnorm/sub", "op": "Const", "attr": {"value": {"tensor": {"dtype": "DT_FLOAT", "tensorShape": {"dim": [{"size": "512"}]}}}, "dtype": {"type": "DT_FLOAT"}}}, {"name": "StatefulPartitionedCall/ISL_BiLSTM_Attn_1/bidirectional_1/backward_lstm_1/strided_slice/stack", "op": "Const", "attr": {"value": {"tensor": {"dtype": "DT_INT32", "tensorShape": {"dim": [{"size": "1"}]}}}, "dtype": {"type": "DT_INT32"}}}, {"name": "StatefulPartitionedCall/ISL_BiLSTM_Attn_1/bidirectional_1/backward_lstm_1/strided_slice/stack_1", "op": "Const", "attr": {"value": {"tensor": {"dtype": "DT_INT32", "tensorShape": {"dim": [{"size": "1"}]}}}, "dtype": {"type": "DT_INT32"}}}, {"name": "StatefulPartitionedCall/ISL_BiLSTM_Attn_1/bidirectional_1/backward_lstm_1/strided_slice/stack_2", "op": "Const", "attr": {"value": {"tensor": {"dtype": "DT_INT32", "tensorShape": {"dim": [{"size": "1"}]}}}, "dtype": {"type": "DT_INT32"}}}, {"name": "StatefulPartitionedCall/ISL_BiLSTM_Attn_1/bidirectional_1/backward_lstm_1/zeros_1/packed/1", "op": "Const", "attr": {"value": {"tensor": {"dtype": "DT_INT32", "tensorShape": {}}}, "dtype": {"type": "DT_INT32"}}}, {"name": "StatefulPartitionedCall/ISL_BiLSTM_Attn_1/bidirectional_1/backward_lstm_1/zeros_1/Const", "op": "Const", "attr": {"value": {"tensor": {"dtype": "DT_FLOAT", "tensorShape": {}}}, "dtype": {"type": "DT_FLOAT"}}}, {"name": "StatefulPartitionedCall/ISL_BiLSTM_Attn_1/bidirectional_1/backward_lstm_1/TensorArrayV2Stack/TensorListStack/element_shape", "op": "Const", "attr": {"value": {"tensor": {"dtype": "DT_INT32", "tensorShape": {"dim": [{"size": "2"}]}}}, "dtype": {"type": "DT_INT32"}}}, {"name": "StatefulPartitionedCall/ISL_BiLSTM_Attn_1/bidirectional_1/backward_lstm_1/transpose_1/perm", "op": "Const", "attr": {"value": {"tensor": {"dtype": "DT_INT32", "tensorShape": {"dim": [{"size": "3"}]}}}, "dtype": {"type": "DT_INT32"}}}, {"name": "StatefulPartitionedCall/ISL_BiLSTM_Attn_1/bidirectional_1/ReverseV2/axis", "op": "Const", "attr": {"value": {"tensor": {"dtype": "DT_INT32", "tensorShape": {"dim": [{"size": "1"}]}}}, "dtype": {"type": "DT_INT32"}}}, {"name": "StatefulPartitionedCall/ISL_BiLSTM_Attn_1/bidirectional_1/concat/axis", "op": "Const", "attr": {"value": {"tensor": {"dtype": "DT_INT32", "tensorShape": {}}}, "dtype": {"type": "DT_INT32"}}}, {"name": "StatefulPartitionedCall/ISL_BiLSTM_Attn_1/bidirectional_1_2/backward_lstm_1_1/strided_slice/stack", "op": "Const", "attr": {"value": {"tensor": {"dtype": "DT_INT32", "tensorShape": {"dim": [{"size": "1"}]}}}, "dtype": {"type": "DT_INT32"}}}, {"name": "StatefulPartitionedCall/ISL_BiLSTM_Attn_1/bidirectional_1_2/backward_lstm_1_1/strided_slice/stack_1", "op": "Const", "attr": {"value": {"tensor": {"dtype": "DT_INT32", "tensorShape": {"dim": [{"size": "1"}]}}}, "dtype": {"type": "DT_INT32"}}}, {"name": "StatefulPartitionedCall/ISL_BiLSTM_Attn_1/bidirectional_1_2/backward_lstm_1_1/strided_slice/stack_2", "op": "Const", "attr": {"value": {"tensor": {"dtype": "DT_INT32", "tensorShape": {"dim": [{"size": "1"}]}}}, "dtype": {"type": "DT_INT32"}}}, {"name": "StatefulPartitionedCall/ISL_BiLSTM_Attn_1/bidirectional_1_2/backward_lstm_1_1/zeros_1/packed/1", "op": "Const", "attr": {"value": {"tensor": {"dtype": "DT_INT32", "tensorShape": {}}}, "dtype": {"type": "DT_INT32"}}}, {"name": "StatefulPartitionedCall/ISL_BiLSTM_Attn_1/bidirectional_1_2/backward_lstm_1_1/zeros_1/Const", "op": "Const", "attr": {"value": {"tensor": {"dtype": "DT_FLOAT", "tensorShape": {}}}, "dtype": {"type": "DT_FLOAT"}}}, {"name": "inputs", "op": "Placeholder", "attr": {"shape": {"shape": {"dim": [{"size": "-1"}, {"size": "48"}, {"size": "1662"}]}}, "dtype": {"type": "DT_FLOAT"}}}, {"name": "StatefulPartitionedCall/ISL_BiLSTM_Attn_1/bidirectional_1_2/forward_lstm_1_1/TensorArrayV2_1", "op": "TensorListReserve", "input": ["StatefulPartitionedCall/ISL_BiLSTM_Attn_1/bidirectional_1_2/forward_lstm_1_1/TensorArrayV2_1/element_shape", "StatefulPartitionedCall/ISL_BiLSTM_Attn_1/bidirectional_1_2/forward_lstm_1_1/TensorArrayV2_1/num_elements"], "attr": {"shape_type": {"type": "DT_INT32"}, "_has_manual_control_dependencies": {"b": true}, "element_dtype": {"type": "DT_FLOAT"}}, "experimentalType": {"typeId": "TFT_PRODUCT", "args": [{"typeId": "TFT_ARRAY", "args": [{"typeId": "TFT_TENSOR", "args": [{"typeId": "TFT_FLOAT"}]}]}]}}, {"name": "StatefulPartitionedCall/ISL_BiLSTM_Attn_1/bidirectional_1_2/backward_lstm_1_1/TensorArrayV2_1", "op": "TensorListReserve", "input": ["StatefulPartitionedCall/ISL_BiLSTM_Attn_1/bidirectional_1_2/backward_lstm_1_1/TensorArrayV2_1/element_shape", "StatefulPartitionedCall/ISL_BiLSTM_Attn_1/bidirectional_1_2/backward_lstm_1_1/TensorArrayV2_1/num_elements"], "attr": {"shape_type": {"type": "DT_INT32"}, "_has_manual_control_dependencies": {"b": true}, "element_dtype": {"type": "DT_FLOAT"}}, "experimentalType": {"typeId": "TFT_PRODUCT", "args": [{"typeId": "TFT_ARRAY", "args": [{"typeId": "TFT_TENSOR", "args": [{"typeId": "TFT_FLOAT"}]}]}]}}, {"name": "StatefulPartitionedCall/ISL_BiLSTM_Attn_1/bidirectional_1/forward_lstm_1/TensorArrayV2_1", "op": "TensorListReserve", "input": ["StatefulPartitionedCall/ISL_BiLSTM_Attn_1/bidirectional_1/forward_lstm_1/TensorArrayV2_1/element_shape", "StatefulPartitionedCall/ISL_BiLSTM_Attn_1/bidirectional_1/forward_lstm_1/TensorArrayV2_1/num_elements"], "attr": {"shape_type": {"type": "DT_INT32"}, "_has_manual_control_dependencies": {"b": true}, "element_dtype": {"type": "DT_FLOAT"}}, "experimentalType": {"typeId": "TFT_PRODUCT", "args": [{"typeId": "TFT_ARRAY", "args": [{"typeId": "TFT_TENSOR", "args": [{"typeId": "TFT_FLOAT"}]}]}]}}, {"name": "StatefulPartitionedCall/ISL_BiLSTM_Attn_1/bidirectional_1/backward_lstm_1/TensorArrayV2_1", "op": "TensorListReserve", "input": ["StatefulPartitionedCall/ISL_BiLSTM_Attn_1/bidirectional_1/backward_lstm_1/TensorArrayV2_1/element_shape", "StatefulPartitionedCall/ISL_BiLSTM_Attn_1/bidirectional_1/backward_lstm_1/TensorArrayV2_1/num_elements"], "attr": {"shape_type": {"type": "DT_INT32"}, "_has_manual_control_dependencies": {"b": true}, "element_dtype": {"type": "DT_FLOAT"}}, "experimentalType": {"typeId": "TFT_PRODUCT", "args": [{"typeId": "TFT_ARRAY", "args": [{"typeId": "TFT_TENSOR", "args": [{"typeId": "TFT_FLOAT"}]}]}]}}, {"name": "StatefulPartitionedCall/ISL_BiLSTM_Attn_1/dense_1/MatMul", "op": "BatchMatMulV2", "input": ["inputs", "StatefulPartitionedCall/ISL_BiLSTM_Attn_1/dense_1/Cast/ReadVariableOp"], "attr": {"adj_x": {"b": false}, "T": {"type": "DT_FLOAT"}, "adj_y": {"b": false}}}, {"name": "StatefulPartitionedCall/ISL_BiLSTM_Attn_1/dense_1/BiasAdd", "op": "BiasAdd", "input": ["StatefulPartitionedCall/ISL_BiLSTM_Attn_1/dense_1/MatMul", "StatefulPartitionedCall/ISL_BiLSTM_Attn_1/dense_1/BiasAdd/ReadVariableOp"], "attr": {"data_format": {"s": "TkhXQw=="}, "T": {"type": "DT_FLOAT"}, "_input_shapes": {"list": {"shape": [{"unknownRank": true}, {"dim": [{"size": "512"}]}]}}}}, {"name": "StatefulPartitionedCall/ISL_BiLSTM_Attn_1/batch_normalization_1/batchnorm/mul_1", "op": "Mul", "input": ["StatefulPartitionedCall/ISL_BiLSTM_Attn_1/dense_1/BiasAdd", "StatefulPartitionedCall/ISL_BiLSTM_Attn_1/batch_normalization_1/batchnorm/mul"], "attr": {"T": {"type": "DT_FLOAT"}}}, {"name": "StatefulPartitionedCall/ISL_BiLSTM_Attn_1/batch_normalization_1/batchnorm/add_1", "op": "AddV2", "input": ["StatefulPartitionedCall/ISL_BiLSTM_Attn_1/batch_normalization_1/batchnorm/mul_1", "StatefulPartitionedCall/ISL_BiLSTM_Attn_1/batch_normalization_1/batchnorm/sub"], "attr": {"T": {"type": "DT_FLOAT"}}}, {"name": "StatefulPartitionedCall/ISL_BiLSTM_Attn_1/activation_1/Relu", "op": "Relu", "input": ["StatefulPartitionedCall/ISL_BiLSTM_Attn_1/batch_normalization_1/batchnorm/add_1"], "attr": {"T": {"type": "DT_FLOAT"}}}, {"name": "StatefulPartitionedCall/ISL_BiLSTM_Attn_1/bidirectional_1/forward_lstm_1/transpose", "op": "Transpose", "input": ["StatefulPartitionedCall/ISL_BiLSTM_Attn_1/activation_1/Relu", "StatefulPartitionedCall/ISL_BiLSTM_Attn_1/bidirectional_1/forward_lstm_1/transpose/perm"], "attr": {"Tperm": {"type": "DT_INT32"}, "_input_shapes": {"list": {"shape": [{"dim": [{"size": "-3"}, {"size": "-15"}, {"size": "512"}]}, {"dim": [{"size": "3"}]}]}}, "T": {"type": "DT_FLOAT"}}}, {"name": "StatefulPartitionedCall/ISL_BiLSTM_Attn_1/bidirectional_1/forward_lstm_1/Shape", "op": "Shape", "input": ["StatefulPartitionedCall/ISL_BiLSTM_Attn_1/activation_1/Relu"], "attr": {"T": {"type": "DT_FLOAT"}, "out_type": {"type": "DT_INT32"}}, "experimentalType": {"typeId": "TFT_PRODUCT", "args": [{"typeId": "TFT_SHAPE_TENSOR", "args": [{"typeId": "TFT_INT32"}]}]}}, {"name": "StatefulPartitionedCall/ISL_BiLSTM_Attn_1/bidirectional_1/backward_lstm_1/transpose", "op": "Transpose", "input": ["StatefulPartitionedCall/ISL_BiLSTM_Attn_1/activation_1/Relu", "StatefulPartitionedCall/ISL_BiLSTM_Attn_1/bidirectional_1/backward_lstm_1/transpose/perm"], "attr": {"Tperm": {"type": "DT_INT32"}, "_input_shapes": {"list": {"shape": [{"dim": [{"size": "-3"}, {"size": "-15"}, {"size": "512"}]}, {"dim": [{"size": "3"}]}]}}, "T": {"type": "DT_FLOAT"}}}, {"name": "StatefulPartitionedCall/ISL_BiLSTM_Attn_1/bidirectional_1/backward_lstm_1/Shape", "op": "Shape", "input": ["StatefulPartitionedCall/ISL_BiLSTM_Attn_1/activation_1/Relu"], "attr": {"T": {"type": "DT_FLOAT"}, "out_type": {"type": "DT_INT32"}}, "experimentalType": {"typeId": "TFT_PRODUCT", "args": [{"typeId": "TFT_SHAPE_TENSOR", "args": [{"typeId": "TFT_INT32"}]}]}}, {"name": "StatefulPartitionedCall/ISL_BiLSTM_Attn_1/bidirectional_1/forward_lstm_1/TensorArrayUnstack/TensorListFromTensor", "op": "TensorListFromTensor", "input": ["StatefulPartitionedCall/ISL_BiLSTM_Attn_1/bidirectional_1/forward_lstm_1/transpose", "StatefulPartitionedCall/ISL_BiLSTM_Attn_1/bidirectional_1/forward_lstm_1/TensorArrayUnstack/TensorListFromTensor/element_shape"], "attr": {"shape_type": {"type": "DT_INT32"}, "_has_manual_control_dependencies": {"b": true}, "element_dtype": {"type": "DT_FLOAT"}}, "experimentalType": {"typeId": "TFT_PRODUCT", "args": [{"typeId": "TFT_ARRAY", "args": [{"typeId": "TFT_TENSOR", "args": [{"typeId": "TFT_FLOAT"}]}]}]}}, {"name": "StatefulPartitionedCall/ISL_BiLSTM_Attn_1/bidirectional_1/forward_lstm_1/strided_slice", "op": "StridedSlice", "input": ["StatefulPartitionedCall/ISL_BiLSTM_Attn_1/bidirectional_1/forward_lstm_1/Shape", "StatefulPartitionedCall/ISL_BiLSTM_Attn_1/bidirectional_1/forward_lstm_1/strided_slice/stack", "StatefulPartitionedCall/ISL_BiLSTM_Attn_1/bidirectional_1/forward_lstm_1/strided_slice/stack_1", "StatefulPartitionedCall/ISL_BiLSTM_Attn_1/bidirectional_1/forward_lstm_1/strided_slice/stack_2"], "attr": {"shrink_axis_mask": {"i": "1"}, "new_axis_mask": {"i": "0"}, "Index": {"type": "DT_INT32"}, "begin_mask": {"i": "0"}, "T": {"type": "DT_INT32"}, "end_mask": {"i": "0"}, "ellipsis_mask": {"i": "0"}}}, {"name": "StatefulPartitionedCall/ISL_BiLSTM_Attn_1/bidirectional_1/backward_lstm_1/ReverseV2", "op": "ReverseV2", "input": ["StatefulPartitionedCall/ISL_BiLSTM_Attn_1/bidirectional_1/backward_lstm_1/transpose", "StatefulPartitionedCall/ISL_BiLSTM_Attn_1/bidirectional_1/backward_lstm_1/ReverseV2/axis"], "attr": {"T": {"type": "DT_FLOAT"}, "Tidx": {"type": "DT_INT32"}}}, {"name": "StatefulPartitionedCall/ISL_BiLSTM_Attn_1/bidirectional_1/backward_lstm_1/strided_slice", "op": "StridedSlice", "input": ["StatefulPartitionedCall/ISL_BiLSTM_Attn_1/bidirectional_1/backward_lstm_1/Shape", "StatefulPartitionedCall/ISL_BiLSTM_Attn_1/bidirectional_1/backward_lstm_1/strided_slice/stack", "StatefulPartitionedCall/ISL_BiLSTM_Attn_1/bidirectional_1/backward_lstm_1/strided_slice/stack_1", "StatefulPartitionedCall/ISL_BiLSTM_Attn_1/bidirectional_1/backward_lstm_1/strided_slice/stack_2"], "attr": {"shrink_axis_mask": {"i": "1"}, "new_axis_mask": {"i": "0"}, "Index": {"type": "DT_INT32"}, "begin_mask": {"i": "0"}, "T": {"type": "DT_INT32"}, "end_mask": {"i": "0"}, "ellipsis_mask": {"i": "0"}}}, {"name": "StatefulPartitionedCall/ISL_BiLSTM_Attn_1/bidirectional_1/forward_lstm_1/zeros/packed", "op": "Pack", "input": ["StatefulPartitionedCall/ISL_BiLSTM_Attn_1/bidirectional_1/forward_lstm_1/strided_slice", "StatefulPartitionedCall/ISL_BiLSTM_Attn_1/bidirectional_1/forward_lstm_1/zeros/packed/1"], "attr": {"N": {"i": "2"}, "axis": {"i": "0"}, "T": {"type": "DT_INT32"}}}, {"name": "StatefulPartitionedCall/ISL_BiLSTM_Attn_1/bidirectional_1/forward_lstm_1/zeros_1/packed", "op": "Pack", "input": ["StatefulPartitionedCall/ISL_BiLSTM_Attn_1/bidirectional_1/forward_lstm_1/strided_slice", "StatefulPartitionedCall/ISL_BiLSTM_Attn_1/bidirectional_1/forward_lstm_1/zeros_1/packed/1"], "attr": {"N": {"i": "2"}, "axis": {"i": "0"}, "T": {"type": "DT_INT32"}}}, {"name": "StatefulPartitionedCall/ISL_BiLSTM_Attn_1/bidirectional_1/backward_lstm_1/TensorArrayUnstack/TensorListFromTensor", "op": "TensorListFromTensor", "input": ["StatefulPartitionedCall/ISL_BiLSTM_Attn_1/bidirectional_1/backward_lstm_1/ReverseV2", "StatefulPartitionedCall/ISL_BiLSTM_Attn_1/bidirectional_1/backward_lstm_1/TensorArrayUnstack/TensorListFromTensor/element_shape"], "attr": {"shape_type": {"type": "DT_INT32"}, "_has_manual_control_dependencies": {"b": true}, "element_dtype": {"type": "DT_FLOAT"}}, "experimentalType": {"typeId": "TFT_PRODUCT", "args": [{"typeId": "TFT_ARRAY", "args": [{"typeId": "TFT_TENSOR", "args": [{"typeId": "TFT_FLOAT"}]}]}]}}, {"name": "StatefulPartitionedCall/ISL_BiLSTM_Attn_1/bidirectional_1/backward_lstm_1/zeros/packed", "op": "Pack", "input": ["StatefulPartitionedCall/ISL_BiLSTM_Attn_1/bidirectional_1/backward_lstm_1/strided_slice", "StatefulPartitionedCall/ISL_BiLSTM_Attn_1/bidirectional_1/backward_lstm_1/zeros/packed/1"], "attr": {"N": {"i": "2"}, "axis": {"i": "0"}, "T": {"type": "DT_INT32"}}}, {"name": "StatefulPartitionedCall/ISL_BiLSTM_Attn_1/bidirectional_1/backward_lstm_1/zeros_1/packed", "op": "Pack", "input": ["StatefulPartitionedCall/ISL_BiLSTM_Attn_1/bidirectional_1/backward_lstm_1/strided_slice", "StatefulPartitionedCall/ISL_BiLSTM_Attn_1/bidirectional_1/backward_lstm_1/zeros_1/packed/1"], "attr": {"N": {"i": "2"}, "axis": {"i": "0"}, "T": {"type": "DT_INT32"}}}, {"name": "StatefulPartitionedCall/ISL_BiLSTM_Attn_1/bidirectional_1/forward_lstm_1/zeros", "op": "Fill", "input": ["StatefulPartitionedCall/ISL_BiLSTM_Attn_1/bidirectional_1/forward_lstm_1/zeros/packed", "StatefulPartitionedCall/ISL_BiLSTM_Attn_1/bidirectional_1/forward_lstm_1/zeros/Const"], "attr": {"_has_manual_control_dependencies": {"b": true}, "T": {"type": "DT_FLOAT"}, "index_type": {"type": "DT_INT32"}}}, {"name": "StatefulPartitionedCall/ISL_BiLSTM_Attn_1/bidirectional_1/forward_lstm_1/zeros_1", "op": "Fill", "input": ["StatefulPartitionedCall/ISL_BiLSTM_Attn_1/bidirectional_1/forward_lstm_1/zeros_1/packed", "StatefulPartitionedCall/ISL_BiLSTM_Attn_1/bidirectional_1/forward_lstm_1/zeros_1/Const"], "attr": {"_has_manual_control_dependencies": {"b": true}, "T": {"type": "DT_FLOAT"}, "index_type": {"type": "DT_INT32"}}}, {"name": "StatefulPartitionedCall/ISL_BiLSTM_Attn_1/bidirectional_1/backward_lstm_1/zeros", "op": "Fill", "input": ["StatefulPartitionedCall/ISL_BiLSTM_Attn_1/bidirectional_1/backward_lstm_1/zeros/packed", "StatefulPartitionedCall/ISL_BiLSTM_Attn_1/bidirectional_1/backward_lstm_1/zeros/Const"], "attr": {"_has_manual_control_dependencies": {"b": true}, "T": {"type": "DT_FLOAT"}, "index_type": {"type": "DT_INT32"}}}, {"name": "StatefulPartitionedCall/ISL_BiLSTM_Attn_1/bidirectional_1/backward_lstm_1/zeros_1", "op": "Fill", "input": ["StatefulPartitionedCall/ISL_BiLSTM_Attn_1/bidirectional_1/backward_lstm_1/zeros_1/packed", "StatefulPartitionedCall/ISL_BiLSTM_Attn_1/bidirectional_1/backward_lstm_1/zeros_1/Const"], "attr": {"_has_manual_control_dependencies": {"b": true}, "T": {"type": "DT_FLOAT"}, "index_type": {"type": "DT_INT32"}}}, {"name": "StatefulPartitionedCall/ISL_BiLSTM_Attn_1/bidirectional_1/forward_lstm_1/while/LoopControlInputs/_51", "op": "NoOp", "input": ["^StatefulPartitionedCall/ISL_BiLSTM_Attn_1/bidirectional_1/forward_lstm_1/TensorArrayUnstack/TensorListFromTensor", "^StatefulPartitionedCall/ISL_BiLSTM_Attn_1/bidirectional_1/forward_lstm_1/TensorArrayV2_1", "^StatefulPartitionedCall/ISL_BiLSTM_Attn_1/bidirectional_1/forward_lstm_1/zeros", "^StatefulPartitionedCall/ISL_BiLSTM_Attn_1/bidirectional_1/forward_lstm_1/zeros_1"], "attr": {"_has_manual_control_dependencies": {"b": true}}}, {"name": "StatefulPartitionedCall/ISL_BiLSTM_Attn_1/bidirectional_1/backward_lstm_1/while/LoopControlInputs/_95", "op": "NoOp", "input": ["^StatefulPartitionedCall/ISL_BiLSTM_Attn_1/bidirectional_1/backward_lstm_1/TensorArrayUnstack/TensorListFromTensor", "^StatefulPartitionedCall/ISL_BiLSTM_Attn_1/bidirectional_1/backward_lstm_1/TensorArrayV2_1", "^StatefulPartitionedCall/ISL_BiLSTM_Attn_1/bidirectional_1/backward_lstm_1/zeros", "^StatefulPartitionedCall/ISL_BiLSTM_Attn_1/bidirectional_1/backward_lstm_1/zeros_1"], "attr": {"_has_manual_control_dependencies": {"b": true}}}, {"name": "StatefulPartitionedCall/ISL_BiLSTM_Attn_1/bidirectional_1/forward_lstm_1/while/enter/_44", "op": "Enter", "input": ["StatefulPartitionedCall/ISL_BiLSTM_Attn_1/bidirectional_1/forward_lstm_1/TensorArrayV2_1", "^StatefulPartitionedCall/ISL_BiLSTM_Attn_1/bidirectional_1/forward_lstm_1/while/LoopControlInputs/_51"], "attr": {"is_constant": {"b": false}, "frame_name": {"s": "U3RhdGVmdWxQYXJ0aXRpb25lZENhbGwvSVNMX0JpTFNUTV9BdHRuXzEvYmlkaXJlY3Rpb25hbF8xL2ZvcndhcmRfbHN0bV8xL3doaWxl"}, "T": {"type": "DT_VARIANT"}, "parallel_iterations": {"i": "32"}}}, {"name": "StatefulPartitionedCall/ISL_BiLSTM_Attn_1/bidirectional_1/forward_lstm_1/while/enter/_47", "op": "Enter", "input": ["StatefulPartitionedCall/ISL_BiLSTM_Attn_1/bidirectional_1/forward_lstm_1/TensorArrayUnstack/TensorListFromTensor", "^StatefulPartitionedCall/ISL_BiLSTM_Attn_1/bidirectional_1/forward_lstm_1/while/LoopControlInputs/_51"], "attr": {"is_constant": {"b": false}, "frame_name": {"s": "U3RhdGVmdWxQYXJ0aXRpb25lZENhbGwvSVNMX0JpTFNUTV9BdHRuXzEvYmlkaXJlY3Rpb25hbF8xL2ZvcndhcmRfbHN0bV8xL3doaWxl"}, "T": {"type": "DT_VARIANT"}, "parallel_iterations": {"i": "32"}}}, {"name": "StatefulPartitionedCall/ISL_BiLSTM_Attn_1/bidirectional_1/forward_lstm_1/while/enter/_42", "op": "Enter", "input": ["StatefulPartitionedCall/ISL_BiLSTM_Attn_1/bidirectional_1/forward_lstm_1/Max", "^StatefulPartitionedCall/ISL_BiLSTM_Attn_1/bidirectional_1/forward_lstm_1/while/LoopControlInputs/_51"], "attr": {"is_constant": {"b": false}, "frame_name": {"s": "U3RhdGVmdWxQYXJ0aXRpb25lZENhbGwvSVNMX0JpTFNUTV9BdHRuXzEvYmlkaXJlY3Rpb25hbF8xL2ZvcndhcmRfbHN0bV8xL3doaWxl"}, "T": {"type": "DT_INT32"}, "parallel_iterations": {"i": "32"}}}, {"name": "StatefulPartitionedCall/ISL_BiLSTM_Attn_1/bidirectional_1/forward_lstm_1/while/enter/_41", "op": "Enter", "input": ["StatefulPartitionedCall/ISL_BiLSTM_Attn_1/bidirectional_1/forward_lstm_1/while/loop_counter", "^StatefulPartitionedCall/ISL_BiLSTM_Attn_1/bidirectional_1/forward_lstm_1/while/LoopControlInputs/_51"], "attr": {"is_constant": {"b": false}, "frame_name": {"s": "U3RhdGVmdWxQYXJ0aXRpb25lZENhbGwvSVNMX0JpTFNUTV9BdHRuXzEvYmlkaXJlY3Rpb25hbF8xL2ZvcndhcmRfbHN0bV8xL3doaWxl"}, "T": {"type": "DT_INT32"}, "parallel_iterations": {"i": "32"}}}, {"name": "StatefulPartitionedCall/ISL_BiLSTM_Attn_1/bidirectional_1/forward_lstm_1/while/enter/_45", "op": "Enter", "input": ["StatefulPartitionedCall/ISL_BiLSTM_Attn_1/bidirectional_1/forward_lstm_1/zeros", "^StatefulPartitionedCall/ISL_BiLSTM_Attn_1/bidirectional_1/forward_lstm_1/while/LoopControlInputs/_51"], "attr": {"is_constant": {"b": false}, "frame_name": {"s": "U3RhdGVmdWxQYXJ0aXRpb25lZENhbGwvSVNMX0JpTFNUTV9BdHRuXzEvYmlkaXJlY3Rpb25hbF8xL2ZvcndhcmRfbHN0bV8xL3doaWxl"}, "T": {"type": "DT_FLOAT"}, "parallel_iterations": {"i": "32"}}}, {"name": "StatefulPartitionedCall/ISL_BiLSTM_Attn_1/bidirectional_1/forward_lstm_1/while/enter/_46", "op": "Enter", "input": ["StatefulPartitionedCall/ISL_BiLSTM_Attn_1/bidirectional_1/forward_lstm_1/zeros_1", "^StatefulPartitionedCall/ISL_BiLSTM_Attn_1/bidirectional_1/forward_lstm_1/while/LoopControlInputs/_51"], "attr": {"is_constant": {"b": false}, "frame_name": {"s": "U3RhdGVmdWxQYXJ0aXRpb25lZENhbGwvSVNMX0JpTFNUTV9BdHRuXzEvYmlkaXJlY3Rpb25hbF8xL2ZvcndhcmRfbHN0bV8xL3doaWxl"}, "T": {"type": "DT_FLOAT"}, "parallel_iterations": {"i": "32"}}}, {"name": "StatefulPartitionedCall/ISL_BiLSTM_Attn_1/bidirectional_1/forward_lstm_1/while/enter/_43", "op": "Enter", "input": ["StatefulPartitionedCall/ISL_BiLSTM_Attn_1/bidirectional_1/forward_lstm_1/time", "^StatefulPartitionedCall/ISL_BiLSTM_Attn_1/bidirectional_1/forward_lstm_1/while/LoopControlInputs/_51"], "attr": {"is_constant": {"b": false}, "frame_name": {"s": "U3RhdGVmdWxQYXJ0aXRpb25lZENhbGwvSVNMX0JpTFNUTV9BdHRuXzEvYmlkaXJlY3Rpb25hbF8xL2ZvcndhcmRfbHN0bV8xL3doaWxl"}, "T": {"type": "DT_INT32"}, "parallel_iterations": {"i": "32"}}}, {"name": "StatefulPartitionedCall/ISL_BiLSTM_Attn_1/bidirectional_1/forward_lstm_1/while/enter/_48", "op": "Enter", "input": ["Func/StatefulPartitionedCall/input/_7", "^StatefulPartitionedCall/ISL_BiLSTM_Attn_1/bidirectional_1/forward_lstm_1/while/LoopControlInputs/_51"], "attr": {"is_constant": {"b": true}, "_has_manual_control_dependencies": {"b": true}, "T": {"type": "DT_FLOAT"}, "frame_name": {"s": "U3RhdGVmdWxQYXJ0aXRpb25lZENhbGwvSVNMX0JpTFNUTV9BdHRuXzEvYmlkaXJlY3Rpb25hbF8xL2ZvcndhcmRfbHN0bV8xL3doaWxl"}, "parallel_iterations": {"i": "32"}}}, {"name": "StatefulPartitionedCall/ISL_BiLSTM_Attn_1/bidirectional_1/forward_lstm_1/while/enter/_49", "op": "Enter", "input": ["Func/StatefulPartitionedCall/input/_8", "^StatefulPartitionedCall/ISL_BiLSTM_Attn_1/bidirectional_1/forward_lstm_1/while/LoopControlInputs/_51"], "attr": {"is_constant": {"b": true}, "_has_manual_control_dependencies": {"b": true}, "T": {"type": "DT_FLOAT"}, "frame_name": {"s": "U3RhdGVmdWxQYXJ0aXRpb25lZENhbGwvSVNMX0JpTFNUTV9BdHRuXzEvYmlkaXJlY3Rpb25hbF8xL2ZvcndhcmRfbHN0bV8xL3doaWxl"}, "parallel_iterations": {"i": "32"}}}, {"name": "StatefulPartitionedCall/ISL_BiLSTM_Attn_1/bidirectional_1/forward_lstm_1/while/enter/_50", "op": "Enter", "input": ["Func/StatefulPartitionedCall/input/_9", "^StatefulPartitionedCall/ISL_BiLSTM_Attn_1/bidirectional_1/forward_lstm_1/while/LoopControlInputs/_51"], "attr": {"is_constant": {"b": true}, "frame_name": {"s": "U3RhdGVmdWxQYXJ0aXRpb25lZENhbGwvSVNMX0JpTFNUTV9BdHRuXzEvYmlkaXJlY3Rpb25hbF8xL2ZvcndhcmRfbHN0bV8xL3doaWxl"}, "T": {"type": "DT_FLOAT"}, "_has_manual_control_dependencies": {"b": true}, "parallel_iterations": {"i": "32"}}}, {"name": "StatefulPartitionedCall/ISL_BiLSTM_Attn_1/bidirectional_1/backward_lstm_1/while/enter/_88", "op": "Enter", "input": ["StatefulPartitionedCall/ISL_BiLSTM_Attn_1/bidirectional_1/backward_lstm_1/TensorArrayV2_1", "^StatefulPartitionedCall/ISL_BiLSTM_Attn_1/bidirectional_1/backward_lstm_1/while/LoopControlInputs/_95"], "attr": {"is_constant": {"b": false}, "frame_name": {"s": "U3RhdGVmdWxQYXJ0aXRpb25lZENhbGwvSVNMX0JpTFNUTV9BdHRuXzEvYmlkaXJlY3Rpb25hbF8xL2JhY2t3YXJkX2xzdG1fMS93aGlsZQ=="}, "T": {"type": "DT_VARIANT"}, "parallel_iterations": {"i": "32"}}}, {"name": "StatefulPartitionedCall/ISL_BiLSTM_Attn_1/bidirectional_1/backward_lstm_1/while/enter/_86", "op": "Enter", "input": ["StatefulPartitionedCall/ISL_BiLSTM_Attn_1/bidirectional_1/backward_lstm_1/Max", "^StatefulPartitionedCall/ISL_BiLSTM_Attn_1/bidirectional_1/backward_lstm_1/while/LoopControlInputs/_95"], "attr": {"is_constant": {"b": false}, "frame_name": {"s": "U3RhdGVmdWxQYXJ0aXRpb25lZENhbGwvSVNMX0JpTFNUTV9BdHRuXzEvYmlkaXJlY3Rpb25hbF8xL2JhY2t3YXJkX2xzdG1fMS93aGlsZQ=="}, "T": {"type": "DT_INT32"}, "parallel_iterations": {"i": "32"}}}, {"name": "StatefulPartitionedCall/ISL_BiLSTM_Attn_1/bidirectional_1/backward_lstm_1/while/enter/_85", "op": "Enter", "input": ["StatefulPartitionedCall/ISL_BiLSTM_Attn_1/bidirectional_1/backward_lstm_1/while/loop_counter", "^StatefulPartitionedCall/ISL_BiLSTM_Attn_1/bidirectional_1/backward_lstm_1/while/LoopControlInputs/_95"], "attr": {"is_constant": {"b": false}, "frame_name": {"s": "U3RhdGVmdWxQYXJ0aXRpb25lZENhbGwvSVNMX0JpTFNUTV9BdHRuXzEvYmlkaXJlY3Rpb25hbF8xL2JhY2t3YXJkX2xzdG1fMS93aGlsZQ=="}, "T": {"type": "DT_INT32"}, "parallel_iterations": {"i": "32"}}}, {"name": "StatefulPartitionedCall/ISL_BiLSTM_Attn_1/bidirectional_1/backward_lstm_1/while/enter/_89", "op": "Enter", "input": ["StatefulPartitionedCall/ISL_BiLSTM_Attn_1/bidirectional_1/backward_lstm_1/zeros", "^StatefulPartitionedCall/ISL_BiLSTM_Attn_1/bidirectional_1/backward_lstm_1/while/LoopControlInputs/_95"], "attr": {"is_constant": {"b": false}, "frame_name": {"s": "U3RhdGVmdWxQYXJ0aXRpb25lZENhbGwvSVNMX0JpTFNUTV9BdHRuXzEvYmlkaXJlY3Rpb25hbF8xL2JhY2t3YXJkX2xzdG1fMS93aGlsZQ=="}, "T": {"type": "DT_FLOAT"}, "parallel_iterations": {"i": "32"}}}, {"name": "StatefulPartitionedCall/ISL_BiLSTM_Attn_1/bidirectional_1/backward_lstm_1/while/enter/_90", "op": "Enter", "input": ["StatefulPartitionedCall/ISL_BiLSTM_Attn_1/bidirectional_1/backward_lstm_1/zeros_1", "^StatefulPartitionedCall/ISL_BiLSTM_Attn_1/bidirectional_1/backward_lstm_1/while/LoopControlInputs/_95"], "attr": {"is_constant": {"b": false}, "frame_name": {"s": "U3RhdGVmdWxQYXJ0aXRpb25lZENhbGwvSVNMX0JpTFNUTV9BdHRuXzEvYmlkaXJlY3Rpb25hbF8xL2JhY2t3YXJkX2xzdG1fMS93aGlsZQ=="}, "T": {"type": "DT_FLOAT"}, "parallel_iterations": {"i": "32"}}}, {"name": "StatefulPartitionedCall/ISL_BiLSTM_Attn_1/bidirectional_1/backward_lstm_1/while/enter/_91", "op": "Enter", "input": ["StatefulPartitionedCall/ISL_BiLSTM_Attn_1/bidirectional_1/backward_lstm_1/TensorArrayUnstack/TensorListFromTensor", "^StatefulPartitionedCall/ISL_BiLSTM_Attn_1/bidirectional_1/backward_lstm_1/while/LoopControlInputs/_95"], "attr": {"is_constant": {"b": false}, "frame_name": {"s": "U3RhdGVmdWxQYXJ0aXRpb25lZENhbGwvSVNMX0JpTFNUTV9BdHRuXzEvYmlkaXJlY3Rpb25hbF8xL2JhY2t3YXJkX2xzdG1fMS93aGlsZQ=="}, "T": {"type": "DT_VARIANT"}, "parallel_iterations": {"i": "32"}}}, {"name": "StatefulPartitionedCall/ISL_BiLSTM_Attn_1/bidirectional_1/backward_lstm_1/while/enter/_87", "op": "Enter", "input": ["StatefulPartitionedCall/ISL_BiLSTM_Attn_1/bidirectional_1/backward_lstm_1/time", "^StatefulPartitionedCall/ISL_BiLSTM_Attn_1/bidirectional_1/backward_lstm_1/while/LoopControlInputs/_95"], "attr": {"is_constant": {"b": false}, "frame_name": {"s": "U3RhdGVmdWxQYXJ0aXRpb25lZENhbGwvSVNMX0JpTFNUTV9BdHRuXzEvYmlkaXJlY3Rpb25hbF8xL2JhY2t3YXJkX2xzdG1fMS93aGlsZQ=="}, "T": {"type": "DT_INT32"}, "parallel_iterations": {"i": "32"}}}, {"name": "StatefulPartitionedCall/ISL_BiLSTM_Attn_1/bidirectional_1/backward_lstm_1/while/enter/_92", "op": "Enter", "input": ["Func/StatefulPartitionedCall/input/_10", "^StatefulPartitionedCall/ISL_BiLSTM_Attn_1/bidirectional_1/backward_lstm_1/while/LoopControlInputs/_95"], "attr": {"is_constant": {"b": true}, "frame_name": {"s": "U3RhdGVmdWxQYXJ0aXRpb25lZENhbGwvSVNMX0JpTFNUTV9BdHRuXzEvYmlkaXJlY3Rpb25hbF8xL2JhY2t3YXJkX2xzdG1fMS93aGlsZQ=="}, "T": {"type": "DT_FLOAT"}, "_has_manual_control_dependencies": {"b": true}, "parallel_iterations": {"i": "32"}}}, {"name": "StatefulPartitionedCall/ISL_BiLSTM_Attn_1/bidirectional_1/backward_lstm_1/while/enter/_93", "op": "Enter", "input": ["Func/StatefulPartitionedCall/input/_11", "^StatefulPartitionedCall/ISL_BiLSTM_Attn_1/bidirectional_1/backward_lstm_1/while/LoopControlInputs/_95"], "attr": {"is_constant": {"b": true}, "frame_name": {"s": "U3RhdGVmdWxQYXJ0aXRpb25lZENhbGwvSVNMX0JpTFNUTV9BdHRuXzEvYmlkaXJlY3Rpb25hbF8xL2JhY2t3YXJkX2xzdG1fMS93aGlsZQ=="}, "T": {"type": "DT_FLOAT"}, "_has_manual_control_dependencies": {"b": true}, "parallel_iterations": {"i": "32"}}}, {"name": "StatefulPartitionedCall/ISL_BiLSTM_Attn_1/bidirectional_1/backward_lstm_1/while/enter/_94", "op": "Enter", "input": ["Func/StatefulPartitionedCall/input/_12", "^StatefulPartitionedCall/ISL_BiLSTM_Attn_1/bidirectional_1/backward_lstm_1/while/LoopControlInputs/_95"], "attr": {"is_constant": {"b": true}, "_has_manual_control_dependencies": {"b": true}, "T": {"type": "DT_FLOAT"}, "frame_name": {"s": "U3RhdGVmdWxQYXJ0aXRpb25lZENhbGwvSVNMX0JpTFNUTV9BdHRuXzEvYmlkaXJlY3Rpb25hbF8xL2JhY2t3YXJkX2xzdG1fMS93aGlsZQ=="}, "parallel_iterations": {"i": "32"}}}, {"name": "StatefulPartitionedCall/ISL_BiLSTM_Attn_1/bidirectional_1/forward_lstm_1/while/merge/_55", "op": "Merge", "input": ["StatefulPartitionedCall/ISL_BiLSTM_Attn_1/bidirectional_1/forward_lstm_1/while/enter/_44", "StatefulPartitionedCall/ISL_BiLSTM_Attn_1/bidirectional_1/forward_lstm_1/while/next_iteration/_79"], "attr": {"N": {"i": "2"}, "_has_manual_control_dependencies": {"b": true}, "T": {"type": "DT_VARIANT"}}}, {"name": "StatefulPartitionedCall/ISL_BiLSTM_Attn_1/bidirectional_1/forward_lstm_1/while/merge/_58", "op": "Merge", "input": ["StatefulPartitionedCall/ISL_BiLSTM_Attn_1/bidirectional_1/forward_lstm_1/while/enter/_47", "StatefulPartitionedCall/ISL_BiLSTM_Attn_1/bidirectional_1/forward_lstm_1/while/next_iteration/_82"], "attr": {"N": {"i": "2"}, "_has_manual_control_dependencies": {"b": true}, "T": {"type": "DT_VARIANT"}}}, {"name": "StatefulPartitionedCall/ISL_BiLSTM_Attn_1/bidirectional_1/forward_lstm_1/while/merge/_53", "op": "Merge", "input": ["StatefulPartitionedCall/ISL_BiLSTM_Attn_1/bidirectional_1/forward_lstm_1/while/enter/_42", "StatefulPartitionedCall/ISL_BiLSTM_Attn_1/bidirectional_1/forward_lstm_1/while/next_iteration/_77"], "attr": {"N": {"i": "2"}, "_has_manual_control_dependencies": {"b": true}, "T": {"type": "DT_INT32"}}}, {"name": "StatefulPartitionedCall/ISL_BiLSTM_Attn_1/bidirectional_1/forward_lstm_1/while/merge/_52", "op": "Merge", "input": ["StatefulPartitionedCall/ISL_BiLSTM_Attn_1/bidirectional_1/forward_lstm_1/while/enter/_41", "StatefulPartitionedCall/ISL_BiLSTM_Attn_1/bidirectional_1/forward_lstm_1/while/next_iteration/_76"], "attr": {"N": {"i": "2"}, "T": {"type": "DT_INT32"}}}, {"name": "StatefulPartitionedCall/ISL_BiLSTM_Attn_1/bidirectional_1/forward_lstm_1/while/merge/_56", "op": "Merge", "input": ["StatefulPartitionedCall/ISL_BiLSTM_Attn_1/bidirectional_1/forward_lstm_1/while/enter/_45", "StatefulPartitionedCall/ISL_BiLSTM_Attn_1/bidirectional_1/forward_lstm_1/while/next_iteration/_80"], "attr": {"N": {"i": "2"}, "_has_manual_control_dependencies": {"b": true}, "T": {"type": "DT_FLOAT"}}}, {"name": "StatefulPartitionedCall/ISL_BiLSTM_Attn_1/bidirectional_1/forward_lstm_1/while/merge/_57", "op": "Merge", "input": ["StatefulPartitionedCall/ISL_BiLSTM_Attn_1/bidirectional_1/forward_lstm_1/while/enter/_46", "StatefulPartitionedCall/ISL_BiLSTM_Attn_1/bidirectional_1/forward_lstm_1/while/next_iteration/_81"], "attr": {"N": {"i": "2"}, "_has_manual_control_dependencies": {"b": true}, "T": {"type": "DT_FLOAT"}}}, {"name": "StatefulPartitionedCall/ISL_BiLSTM_Attn_1/bidirectional_1/forward_lstm_1/while/merge/_54", "op": "Merge", "input": ["StatefulPartitionedCall/ISL_BiLSTM_Attn_1/bidirectional_1/forward_lstm_1/while/enter/_43", "StatefulPartitionedCall/ISL_BiLSTM_Attn_1/bidirectional_1/forward_lstm_1/while/next_iteration/_78"], "attr": {"N": {"i": "2"}, "_has_manual_control_dependencies": {"b": true}, "T": {"type": "DT_INT32"}}}, {"name": "StatefulPartitionedCall/ISL_BiLSTM_Attn_1/bidirectional_1/backward_lstm_1/while/merge/_99", "op": "Merge", "input": ["StatefulPartitionedCall/ISL_BiLSTM_Attn_1/bidirectional_1/backward_lstm_1/while/enter/_88", "StatefulPartitionedCall/ISL_BiLSTM_Attn_1/bidirectional_1/backward_lstm_1/while/next_iteration/_123"], "attr": {"N": {"i": "2"}, "_has_manual_control_dependencies": {"b": true}, "T": {"type": "DT_VARIANT"}}}, {"name": "StatefulPartitionedCall/ISL_BiLSTM_Attn_1/bidirectional_1/backward_lstm_1/while/merge/_97", "op": "Merge", "input": ["StatefulPartitionedCall/ISL_BiLSTM_Attn_1/bidirectional_1/backward_lstm_1/while/enter/_86", "StatefulPartitionedCall/ISL_BiLSTM_Attn_1/bidirectional_1/backward_lstm_1/while/next_iteration/_121"], "attr": {"N": {"i": "2"}, "_has_manual_control_dependencies": {"b": true}, "T": {"type": "DT_INT32"}}}, {"name": "StatefulPartitionedCall/ISL_BiLSTM_Attn_1/bidirectional_1/backward_lstm_1/while/merge/_96", "op": "Merge", "input": ["StatefulPartitionedCall/ISL_BiLSTM_Attn_1/bidirectional_1/backward_lstm_1/while/enter/_85", "StatefulPartitionedCall/ISL_BiLSTM_Attn_1/bidirectional_1/backward_lstm_1/while/next_iteration/_120"], "attr": {"N": {"i": "2"}, "T": {"type": "DT_INT32"}}}, {"name": "StatefulPartitionedCall/ISL_BiLSTM_Attn_1/bidirectional_1/backward_lstm_1/while/merge/_100", "op": "Merge", "input": ["StatefulPartitionedCall/ISL_BiLSTM_Attn_1/bidirectional_1/backward_lstm_1/while/enter/_89", "StatefulPartitionedCall/ISL_BiLSTM_Attn_1/bidirectional_1/backward_lstm_1/while/next_iteration/_124"], "attr": {"N": {"i": "2"}, "_has_manual_control_dependencies": {"b": true}, "T": {"type": "DT_FLOAT"}}}, {"name": "StatefulPartitionedCall/ISL_BiLSTM_Attn_1/bidirectional_1/backward_lstm_1/while/merge/_101", "op": "Merge", "input": ["StatefulPartitionedCall/ISL_BiLSTM_Attn_1/bidirectional_1/backward_lstm_1/while/enter/_90", "StatefulPartitionedCall/ISL_BiLSTM_Attn_1/bidirectional_1/backward_lstm_1/while/next_iteration/_125"], "attr": {"N": {"i": "2"}, "_has_manual_control_dependencies": {"b": true}, "T": {"type": "DT_FLOAT"}}}, {"name": "StatefulPartitionedCall/ISL_BiLSTM_Attn_1/bidirectional_1/backward_lstm_1/while/merge/_102", "op": "Merge", "input": ["StatefulPartitionedCall/ISL_BiLSTM_Attn_1/bidirectional_1/backward_lstm_1/while/enter/_91", "StatefulPartitionedCall/ISL_BiLSTM_Attn_1/bidirectional_1/backward_lstm_1/while/next_iteration/_126"], "attr": {"N": {"i": "2"}, "_has_manual_control_dependencies": {"b": true}, "T": {"type": "DT_VARIANT"}}}, {"name": "StatefulPartitionedCall/ISL_BiLSTM_Attn_1/bidirectional_1/backward_lstm_1/while/merge/_98", "op": "Merge", "input": ["StatefulPartitionedCall/ISL_BiLSTM_Attn_1/bidirectional_1/backward_lstm_1/while/enter/_87", "StatefulPartitionedCall/ISL_BiLSTM_Attn_1/bidirectional_1/backward_lstm_1/while/next_iteration/_122"], "attr": {"N": {"i": "2"}, "_has_manual_control_dependencies": {"b": true}, "T": {"type": "DT_INT32"}}}, {"name": "Func/StatefulPartitionedCall/ISL_BiLSTM_Attn_1/bidirectional_1/forward_lstm_1/while/cond/_39/input_control_node/_215", "op": "NoOp", "input": ["^StatefulPartitionedCall/ISL_BiLSTM_Attn_1/bidirectional_1/forward_lstm_1/while/enter/_48", "^StatefulPartitionedCall/ISL_BiLSTM_Attn_1/bidirectional_1/forward_lstm_1/while/enter/_49", "^StatefulPartitionedCall/ISL_BiLSTM_Attn_1/bidirectional_1/forward_lstm_1/while/enter/_50", "^StatefulPartitionedCall/ISL_BiLSTM_Attn_1/bidirectional_1/forward_lstm_1/while/merge/_52", "^StatefulPartitionedCall/ISL_BiLSTM_Attn_1/bidirectional_1/forward_lstm_1/while/merge/_53", "^StatefulPartitionedCall/ISL_BiLSTM_Attn_1/bidirectional_1/forward_lstm_1/while/merge/_54", "^StatefulPartitionedCall/ISL_BiLSTM_Attn_1/bidirectional_1/forward_lstm_1/while/merge/_55", "^StatefulPartitionedCall/ISL_BiLSTM_Attn_1/bidirectional_1/forward_lstm_1/while/merge/_56", "^StatefulPartitionedCall/ISL_BiLSTM_Attn_1/bidirectional_1/forward_lstm_1/while/merge/_57", "^StatefulPartitionedCall/ISL_BiLSTM_Attn_1/bidirectional_1/forward_lstm_1/while/merge/_58"], "attr": {"_has_manual_control_dependencies": {"b": true}}}, {"name": "Func/StatefulPartitionedCall/ISL_BiLSTM_Attn_1/bidirectional_1/backward_lstm_1/while/cond/_83/input_control_node/_249", "op": "NoOp", "input": ["^StatefulPartitionedCall/ISL_BiLSTM_Attn_1/bidirectional_1/backward_lstm_1/while/enter/_92", "^StatefulPartitionedCall/ISL_BiLSTM_Attn_1/bidirectional_1/backward_lstm_1/while/enter/_93", "^StatefulPartitionedCall/ISL_BiLSTM_Attn_1/bidirectional_1/backward_lstm_1/while/enter/_94", "^StatefulPartitionedCall/ISL_BiLSTM_Attn_1/bidirectional_1/backward_lstm_1/while/merge/_100", "^StatefulPartitionedCall/ISL_BiLSTM_Attn_1/bidirectional_1/backward_lstm_1/while/merge/_101", "^StatefulPartitionedCall/ISL_BiLSTM_Attn_1/bidirectional_1/backward_lstm_1/while/merge/_102", "^StatefulPartitionedCall/ISL_BiLSTM_Attn_1/bidirectional_1/backward_lstm_1/while/merge/_96", "^StatefulPartitionedCall/ISL_BiLSTM_Attn_1/bidirectional_1/backward_lstm_1/while/merge/_97", "^StatefulPartitionedCall/ISL_BiLSTM_Attn_1/bidirectional_1/backward_lstm_1/while/merge/_98", "^StatefulPartitionedCall/ISL_BiLSTM_Attn_1/bidirectional_1/backward_lstm_1/while/merge/_99"], "attr": {"_has_manual_control_dependencies": {"b": true}}}, {"name": "StatefulPartitionedCall/ISL_BiLSTM_Attn_1/bidirectional_1/forward_lstm_1/while/cond/_39/ISL_BiLSTM_Attn_1/bidirectional_1/forward_lstm_1/while/Less_1", "op": "Less", "input": ["StatefulPartitionedCall/ISL_BiLSTM_Attn_1/bidirectional_1/forward_lstm_1/while/merge/_52", "StatefulPartitionedCall/ISL_BiLSTM_Attn_1/bidirectional_1/forward_lstm_1/while/merge/_53", "^Func/StatefulPartitionedCall/ISL_BiLSTM_Attn_1/bidirectional_1/forward_lstm_1/while/cond/_39/input_control_node/_215"], "attr": {"T": {"type": "DT_INT32"}}}, {"name": "StatefulPartitionedCall/ISL_BiLSTM_Attn_1/bidirectional_1/forward_lstm_1/while/cond/_39/ISL_BiLSTM_Attn_1/bidirectional_1/forward_lstm_1/while/Less/y", "op": "Const", "input": ["^Func/StatefulPartitionedCall/ISL_BiLSTM_Attn_1/bidirectional_1/forward_lstm_1/while/cond/_39/input_control_node/_215"], "attr": {"value": {"tensor": {"dtype": "DT_INT32", "tensorShape": {}}}, "dtype": {"type": "DT_INT32"}}}, {"name": "StatefulPartitionedCall/ISL_BiLSTM_Attn_1/bidirectional_1/backward_lstm_1/while/cond/_83/ISL_BiLSTM_Attn_1/bidirectional_1/backward_lstm_1/while/Less_1", "op": "Less", "input": ["StatefulPartitionedCall/ISL_BiLSTM_Attn_1/bidirectional_1/backward_lstm_1/while/merge/_96", "StatefulPartitionedCall/ISL_BiLSTM_Attn_1/bidirectional_1/backward_lstm_1/while/merge/_97", "^Func/StatefulPartitionedCall/ISL_BiLSTM_Attn_1/bidirectional_1/backward_lstm_1/while/cond/_83/input_control_node/_249"], "attr": {"T": {"type": "DT_INT32"}}}, {"name": "StatefulPartitionedCall/ISL_BiLSTM_Attn_1/bidirectional_1/backward_lstm_1/while/cond/_83/ISL_BiLSTM_Attn_1/bidirectional_1/backward_lstm_1/while/Less/y", "op": "Const", "input": ["^Func/StatefulPartitionedCall/ISL_BiLSTM_Attn_1/bidirectional_1/backward_lstm_1/while/cond/_83/input_control_node/_249"], "attr": {"value": {"tensor": {"dtype": "DT_INT32", "tensorShape": {}}}, "dtype": {"type": "DT_INT32"}}}, {"name": "StatefulPartitionedCall/ISL_BiLSTM_Attn_1/bidirectional_1/forward_lstm_1/while/cond/_39/ISL_BiLSTM_Attn_1/bidirectional_1/forward_lstm_1/while/Less", "op": "Less", "input": ["StatefulPartitionedCall/ISL_BiLSTM_Attn_1/bidirectional_1/forward_lstm_1/while/merge/_54", "StatefulPartitionedCall/ISL_BiLSTM_Attn_1/bidirectional_1/forward_lstm_1/while/cond/_39/ISL_BiLSTM_Attn_1/bidirectional_1/forward_lstm_1/while/Less/y"], "attr": {"T": {"type": "DT_INT32"}}}, {"name": "StatefulPartitionedCall/ISL_BiLSTM_Attn_1/bidirectional_1/backward_lstm_1/while/cond/_83/ISL_BiLSTM_Attn_1/bidirectional_1/backward_lstm_1/while/Less", "op": "Less", "input": ["StatefulPartitionedCall/ISL_BiLSTM_Attn_1/bidirectional_1/backward_lstm_1/while/merge/_98", "StatefulPartitionedCall/ISL_BiLSTM_Attn_1/bidirectional_1/backward_lstm_1/while/cond/_83/ISL_BiLSTM_Attn_1/bidirectional_1/backward_lstm_1/while/Less/y"], "attr": {"T": {"type": "DT_INT32"}}}, {"name": "StatefulPartitionedCall/ISL_BiLSTM_Attn_1/bidirectional_1/forward_lstm_1/while/cond/_39/ISL_BiLSTM_Attn_1/bidirectional_1/forward_lstm_1/while/LogicalAnd", "op": "LogicalAnd", "input": ["StatefulPartitionedCall/ISL_BiLSTM_Attn_1/bidirectional_1/forward_lstm_1/while/cond/_39/ISL_BiLSTM_Attn_1/bidirectional_1/forward_lstm_1/while/Less_1", "StatefulPartitionedCall/ISL_BiLSTM_Attn_1/bidirectional_1/forward_lstm_1/while/cond/_39/ISL_BiLSTM_Attn_1/bidirectional_1/forward_lstm_1/while/Less"]}, {"name": "StatefulPartitionedCall/ISL_BiLSTM_Attn_1/bidirectional_1/backward_lstm_1/while/cond/_83/ISL_BiLSTM_Attn_1/bidirectional_1/backward_lstm_1/while/LogicalAnd", "op": "LogicalAnd", "input": ["StatefulPartitionedCall/ISL_BiLSTM_Attn_1/bidirectional_1/backward_lstm_1/while/cond/_83/ISL_BiLSTM_Attn_1/bidirectional_1/backward_lstm_1/while/Less_1", "StatefulPartitionedCall/ISL_BiLSTM_Attn_1/bidirectional_1/backward_lstm_1/while/cond/_83/ISL_BiLSTM_Attn_1/bidirectional_1/backward_lstm_1/while/Less"]}, {"name": "StatefulPartitionedCall/ISL_BiLSTM_Attn_1/bidirectional_1/forward_lstm_1/while/LoopCond/_59", "op": "LoopCond", "input": ["StatefulPartitionedCall/ISL_BiLSTM_Attn_1/bidirectional_1/forward_lstm_1/while/cond/_39/ISL_BiLSTM_Attn_1/bidirectional_1/forward_lstm_1/while/LogicalAnd"]}, {"name": "StatefulPartitionedCall/ISL_BiLSTM_Attn_1/bidirectional_1/backward_lstm_1/while/LoopCond/_103", "op": "LoopCond", "input": ["StatefulPartitionedCall/ISL_BiLSTM_Attn_1/bidirectional_1/backward_lstm_1/while/cond/_83/ISL_BiLSTM_Attn_1/bidirectional_1/backward_lstm_1/while/LogicalAnd"]}, {"name": "StatefulPartitionedCall/ISL_BiLSTM_Attn_1/bidirectional_1/forward_lstm_1/while/StatefulPartitionedCall/ISL_BiLSTM_Attn_1/bidirectional_1/forward_lstm_1/Max_switch/_61", "op": "Switch", "input": ["StatefulPartitionedCall/ISL_BiLSTM_Attn_1/bidirectional_1/forward_lstm_1/while/merge/_53", "StatefulPartitionedCall/ISL_BiLSTM_Attn_1/bidirectional_1/forward_lstm_1/while/LoopCond/_59"], "attr": {"_has_manual_control_dependencies": {"b": true}, "T": {"type": "DT_INT32"}}}, {"name": "StatefulPartitionedCall/ISL_BiLSTM_Attn_1/bidirectional_1/forward_lstm_1/while/StatefulPartitionedCall/ISL_BiLSTM_Attn_1/bidirectional_1/forward_lstm_1/while/loop_counter_switch/_60", "op": "Switch", "input": ["StatefulPartitionedCall/ISL_BiLSTM_Attn_1/bidirectional_1/forward_lstm_1/while/merge/_52", "StatefulPartitionedCall/ISL_BiLSTM_Attn_1/bidirectional_1/forward_lstm_1/while/LoopCond/_59"], "attr": {"T": {"type": "DT_INT32"}}}, {"name": "StatefulPartitionedCall/ISL_BiLSTM_Attn_1/bidirectional_1/forward_lstm_1/while/StatefulPartitionedCall/ISL_BiLSTM_Attn_1/bidirectional_1/forward_lstm_1/zeros_1_switch/_65", "op": "Switch", "input": ["StatefulPartitionedCall/ISL_BiLSTM_Attn_1/bidirectional_1/forward_lstm_1/while/merge/_57", "StatefulPartitionedCall/ISL_BiLSTM_Attn_1/bidirectional_1/forward_lstm_1/while/LoopCond/_59"], "attr": {"_has_manual_control_dependencies": {"b": true}, "T": {"type": "DT_FLOAT"}}}, {"name": "StatefulPartitionedCall/ISL_BiLSTM_Attn_1/bidirectional_1/forward_lstm_1/while/StatefulPartitionedCall/ISL_BiLSTM_Attn_1/bidirectional_1/forward_lstm_1/TensorArrayUnstack/TensorListFromTensor_switch/_66", "op": "Switch", "input": ["StatefulPartitionedCall/ISL_BiLSTM_Attn_1/bidirectional_1/forward_lstm_1/while/merge/_58", "StatefulPartitionedCall/ISL_BiLSTM_Attn_1/bidirectional_1/forward_lstm_1/while/LoopCond/_59"], "attr": {"_has_manual_control_dependencies": {"b": true}, "T": {"type": "DT_VARIANT"}}}, {"name": "StatefulPartitionedCall/ISL_BiLSTM_Attn_1/bidirectional_1/forward_lstm_1/while/StatefulPartitionedCall/ISL_BiLSTM_Attn_1/bidirectional_1/forward_lstm_1/time_switch/_62", "op": "Switch", "input": ["StatefulPartitionedCall/ISL_BiLSTM_Attn_1/bidirectional_1/forward_lstm_1/while/merge/_54", "StatefulPartitionedCall/ISL_BiLSTM_Attn_1/bidirectional_1/forward_lstm_1/while/LoopCond/_59"], "attr": {"_has_manual_control_dependencies": {"b": true}, "T": {"type": "DT_INT32"}}}, {"name": "StatefulPartitionedCall/ISL_BiLSTM_Attn_1/bidirectional_1/forward_lstm_1/while/StatefulPartitionedCall/ISL_BiLSTM_Attn_1/bidirectional_1/forward_lstm_1/zeros_switch/_64", "op": "Switch", "input": ["StatefulPartitionedCall/ISL_BiLSTM_Attn_1/bidirectional_1/forward_lstm_1/while/merge/_56", "StatefulPartitionedCall/ISL_BiLSTM_Attn_1/bidirectional_1/forward_lstm_1/while/LoopCond/_59"], "attr": {"_has_manual_control_dependencies": {"b": true}, "T": {"type": "DT_FLOAT"}}}, {"name": "StatefulPartitionedCall/ISL_BiLSTM_Attn_1/bidirectional_1/forward_lstm_1/while/StatefulPartitionedCall/ISL_BiLSTM_Attn_1/bidirectional_1/forward_lstm_1/TensorArrayV2_1_switch/_63", "op": "Switch", "input": ["StatefulPartitionedCall/ISL_BiLSTM_Attn_1/bidirectional_1/forward_lstm_1/while/merge/_55", "StatefulPartitionedCall/ISL_BiLSTM_Attn_1/bidirectional_1/forward_lstm_1/while/LoopCond/_59"], "attr": {"_has_manual_control_dependencies": {"b": true}, "T": {"type": "DT_VARIANT"}}}, {"name": "StatefulPartitionedCall/ISL_BiLSTM_Attn_1/bidirectional_1/backward_lstm_1/while/StatefulPartitionedCall/ISL_BiLSTM_Attn_1/bidirectional_1/backward_lstm_1/Max_switch/_105", "op": "Switch", "input": ["StatefulPartitionedCall/ISL_BiLSTM_Attn_1/bidirectional_1/backward_lstm_1/while/merge/_97", "StatefulPartitionedCall/ISL_BiLSTM_Attn_1/bidirectional_1/backward_lstm_1/while/LoopCond/_103"], "attr": {"_has_manual_control_dependencies": {"b": true}, "T": {"type": "DT_INT32"}}}, {"name": "StatefulPartitionedCall/ISL_BiLSTM_Attn_1/bidirectional_1/backward_lstm_1/while/StatefulPartitionedCall/ISL_BiLSTM_Attn_1/bidirectional_1/backward_lstm_1/while/loop_counter_switch/_104", "op": "Switch", "input": ["StatefulPartitionedCall/ISL_BiLSTM_Attn_1/bidirectional_1/backward_lstm_1/while/merge/_96", "StatefulPartitionedCall/ISL_BiLSTM_Attn_1/bidirectional_1/backward_lstm_1/while/LoopCond/_103"], "attr": {"T": {"type": "DT_INT32"}}}, {"name": "StatefulPartitionedCall/ISL_BiLSTM_Attn_1/bidirectional_1/backward_lstm_1/while/StatefulPartitionedCall/ISL_BiLSTM_Attn_1/bidirectional_1/backward_lstm_1/zeros_1_switch/_109", "op": "Switch", "input": ["StatefulPartitionedCall/ISL_BiLSTM_Attn_1/bidirectional_1/backward_lstm_1/while/merge/_101", "StatefulPartitionedCall/ISL_BiLSTM_Attn_1/bidirectional_1/backward_lstm_1/while/LoopCond/_103"], "attr": {"_has_manual_control_dependencies": {"b": true}, "T": {"type": "DT_FLOAT"}}}, {"name": "StatefulPartitionedCall/ISL_BiLSTM_Attn_1/bidirectional_1/backward_lstm_1/while/StatefulPartitionedCall/ISL_BiLSTM_Attn_1/bidirectional_1/backward_lstm_1/TensorArrayUnstack/TensorListFromTensor_switch/_110", "op": "Switch", "input": ["StatefulPartitionedCall/ISL_BiLSTM_Attn_1/bidirectional_1/backward_lstm_1/while/merge/_102", "StatefulPartitionedCall/ISL_BiLSTM_Attn_1/bidirectional_1/backward_lstm_1/while/LoopCond/_103"], "attr": {"_has_manual_control_dependencies": {"b": true}, "T": {"type": "DT_VARIANT"}}}, {"name": "StatefulPartitionedCall/ISL_BiLSTM_Attn_1/bidirectional_1/backward_lstm_1/while/StatefulPartitionedCall/ISL_BiLSTM_Attn_1/bidirectional_1/backward_lstm_1/time_switch/_106", "op": "Switch", "input": ["StatefulPartitionedCall/ISL_BiLSTM_Attn_1/bidirectional_1/backward_lstm_1/while/merge/_98", "StatefulPartitionedCall/ISL_BiLSTM_Attn_1/bidirectional_1/backward_lstm_1/while/LoopCond/_103"], "attr": {"_has_manual_control_dependencies": {"b": true}, "T": {"type": "DT_INT32"}}}, {"name": "StatefulPartitionedCall/ISL_BiLSTM_Attn_1/bidirectional_1/backward_lstm_1/while/StatefulPartitionedCall/ISL_BiLSTM_Attn_1/bidirectional_1/backward_lstm_1/zeros_switch/_108", "op": "Switch", "input": ["StatefulPartitionedCall/ISL_BiLSTM_Attn_1/bidirectional_1/backward_lstm_1/while/merge/_100", "StatefulPartitionedCall/ISL_BiLSTM_Attn_1/bidirectional_1/backward_lstm_1/while/LoopCond/_103"], "attr": {"_has_manual_control_dependencies": {"b": true}, "T": {"type": "DT_FLOAT"}}}, {"name": "StatefulPartitionedCall/ISL_BiLSTM_Attn_1/bidirectional_1/backward_lstm_1/while/StatefulPartitionedCall/ISL_BiLSTM_Attn_1/bidirectional_1/backward_lstm_1/TensorArrayV2_1_switch/_107", "op": "Switch", "input": ["StatefulPartitionedCall/ISL_BiLSTM_Attn_1/bidirectional_1/backward_lstm_1/while/merge/_99", "StatefulPartitionedCall/ISL_BiLSTM_Attn_1/bidirectional_1/backward_lstm_1/while/LoopCond/_103"], "attr": {"_has_manual_control_dependencies": {"b": true}, "T": {"type": "DT_VARIANT"}}}, {"name": "StatefulPartitionedCall/ISL_BiLSTM_Attn_1/bidirectional_1/forward_lstm_1/while/exit/_69", "op": "Exit", "input": ["StatefulPartitionedCall/ISL_BiLSTM_Attn_1/bidirectional_1/forward_lstm_1/while/StatefulPartitionedCall/ISL_BiLSTM_Attn_1/bidirectional_1/forward_lstm_1/Max_switch/_61"], "attr": {"_has_manual_control_dependencies": {"b": true}, "T": {"type": "DT_INT32"}}}, {"name": "StatefulPartitionedCall/ISL_BiLSTM_Attn_1/bidirectional_1/forward_lstm_1/while/exit/_68", "op": "Exit", "input": ["StatefulPartitionedCall/ISL_BiLSTM_Attn_1/bidirectional_1/forward_lstm_1/while/StatefulPartitionedCall/ISL_BiLSTM_Attn_1/bidirectional_1/forward_lstm_1/while/loop_counter_switch/_60"], "attr": {"_has_manual_control_dependencies": {"b": true}, "T": {"type": "DT_INT32"}}}, {"name": "StatefulPartitionedCall/ISL_BiLSTM_Attn_1/bidirectional_1/forward_lstm_1/while/loop_body_control/_67", "op": "Identity", "input": ["StatefulPartitionedCall/ISL_BiLSTM_Attn_1/bidirectional_1/forward_lstm_1/while/StatefulPartitionedCall/ISL_BiLSTM_Attn_1/bidirectional_1/forward_lstm_1/while/loop_counter_switch/_60:1"], "attr": {"_has_manual_control_dependencies": {"b": true}, "T": {"type": "DT_INT32"}}}, {"name": "StatefulPartitionedCall/ISL_BiLSTM_Attn_1/bidirectional_1/forward_lstm_1/while/exit/_73", "op": "Exit", "input": ["StatefulPartitionedCall/ISL_BiLSTM_Attn_1/bidirectional_1/forward_lstm_1/while/StatefulPartitionedCall/ISL_BiLSTM_Attn_1/bidirectional_1/forward_lstm_1/zeros_1_switch/_65"], "attr": {"_has_manual_control_dependencies": {"b": true}, "T": {"type": "DT_FLOAT"}}}, {"name": "StatefulPartitionedCall/ISL_BiLSTM_Attn_1/bidirectional_1/forward_lstm_1/while/exit/_74", "op": "Exit", "input": ["StatefulPartitionedCall/ISL_BiLSTM_Attn_1/bidirectional_1/forward_lstm_1/while/StatefulPartitionedCall/ISL_BiLSTM_Attn_1/bidirectional_1/forward_lstm_1/TensorArrayUnstack/TensorListFromTensor_switch/_66"], "attr": {"_has_manual_control_dependencies": {"b": true}, "T": {"type": "DT_VARIANT"}}}, {"name": "StatefulPartitionedCall/ISL_BiLSTM_Attn_1/bidirectional_1/forward_lstm_1/while/exit/_70", "op": "Exit", "input": ["StatefulPartitionedCall/ISL_BiLSTM_Attn_1/bidirectional_1/forward_lstm_1/while/StatefulPartitionedCall/ISL_BiLSTM_Attn_1/bidirectional_1/forward_lstm_1/time_switch/_62"], "attr": {"_has_manual_control_dependencies": {"b": true}, "T": {"type": "DT_INT32"}}}, {"name": "StatefulPartitionedCall/ISL_BiLSTM_Attn_1/bidirectional_1/forward_lstm_1/while/exit/_72", "op": "Exit", "input": ["StatefulPartitionedCall/ISL_BiLSTM_Attn_1/bidirectional_1/forward_lstm_1/while/StatefulPartitionedCall/ISL_BiLSTM_Attn_1/bidirectional_1/forward_lstm_1/zeros_switch/_64"], "attr": {"_has_manual_control_dependencies": {"b": true}, "T": {"type": "DT_FLOAT"}}}, {"name": "StatefulPartitionedCall/ISL_BiLSTM_Attn_1/bidirectional_1/forward_lstm_1/while/exit/_71", "op": "Exit", "input": ["StatefulPartitionedCall/ISL_BiLSTM_Attn_1/bidirectional_1/forward_lstm_1/while/StatefulPartitionedCall/ISL_BiLSTM_Attn_1/bidirectional_1/forward_lstm_1/TensorArrayV2_1_switch/_63"], "attr": {"_has_manual_control_dependencies": {"b": true}, "T": {"type": "DT_VARIANT"}}}, {"name": "StatefulPartitionedCall/ISL_BiLSTM_Attn_1/bidirectional_1/backward_lstm_1/while/exit/_113", "op": "Exit", "input": ["StatefulPartitionedCall/ISL_BiLSTM_Attn_1/bidirectional_1/backward_lstm_1/while/StatefulPartitionedCall/ISL_BiLSTM_Attn_1/bidirectional_1/backward_lstm_1/Max_switch/_105"], "attr": {"_has_manual_control_dependencies": {"b": true}, "T": {"type": "DT_INT32"}}}, {"name": "StatefulPartitionedCall/ISL_BiLSTM_Attn_1/bidirectional_1/backward_lstm_1/while/exit/_112", "op": "Exit", "input": ["StatefulPartitionedCall/ISL_BiLSTM_Attn_1/bidirectional_1/backward_lstm_1/while/StatefulPartitionedCall/ISL_BiLSTM_Attn_1/bidirectional_1/backward_lstm_1/while/loop_counter_switch/_104"], "attr": {"_has_manual_control_dependencies": {"b": true}, "T": {"type": "DT_INT32"}}}, {"name": "StatefulPartitionedCall/ISL_BiLSTM_Attn_1/bidirectional_1/backward_lstm_1/while/loop_body_control/_111", "op": "Identity", "input": ["StatefulPartitionedCall/ISL_BiLSTM_Attn_1/bidirectional_1/backward_lstm_1/while/StatefulPartitionedCall/ISL_BiLSTM_Attn_1/bidirectional_1/backward_lstm_1/while/loop_counter_switch/_104:1"], "attr": {"_has_manual_control_dependencies": {"b": true}, "T": {"type": "DT_INT32"}}}, {"name": "StatefulPartitionedCall/ISL_BiLSTM_Attn_1/bidirectional_1/backward_lstm_1/while/exit/_117", "op": "Exit", "input": ["StatefulPartitionedCall/ISL_BiLSTM_Attn_1/bidirectional_1/backward_lstm_1/while/StatefulPartitionedCall/ISL_BiLSTM_Attn_1/bidirectional_1/backward_lstm_1/zeros_1_switch/_109"], "attr": {"_has_manual_control_dependencies": {"b": true}, "T": {"type": "DT_FLOAT"}}}, {"name": "StatefulPartitionedCall/ISL_BiLSTM_Attn_1/bidirectional_1/backward_lstm_1/while/exit/_118", "op": "Exit", "input": ["StatefulPartitionedCall/ISL_BiLSTM_Attn_1/bidirectional_1/backward_lstm_1/while/StatefulPartitionedCall/ISL_BiLSTM_Attn_1/bidirectional_1/backward_lstm_1/TensorArrayUnstack/TensorListFromTensor_switch/_110"], "attr": {"_has_manual_control_dependencies": {"b": true}, "T": {"type": "DT_VARIANT"}}}, {"name": "StatefulPartitionedCall/ISL_BiLSTM_Attn_1/bidirectional_1/backward_lstm_1/while/exit/_114", "op": "Exit", "input": ["StatefulPartitionedCall/ISL_BiLSTM_Attn_1/bidirectional_1/backward_lstm_1/while/StatefulPartitionedCall/ISL_BiLSTM_Attn_1/bidirectional_1/backward_lstm_1/time_switch/_106"], "attr": {"_has_manual_control_dependencies": {"b": true}, "T": {"type": "DT_INT32"}}}, {"name": "StatefulPartitionedCall/ISL_BiLSTM_Attn_1/bidirectional_1/backward_lstm_1/while/exit/_116", "op": "Exit", "input": ["StatefulPartitionedCall/ISL_BiLSTM_Attn_1/bidirectional_1/backward_lstm_1/while/StatefulPartitionedCall/ISL_BiLSTM_Attn_1/bidirectional_1/backward_lstm_1/zeros_switch/_108"], "attr": {"_has_manual_control_dependencies": {"b": true}, "T": {"type": "DT_FLOAT"}}}, {"name": "StatefulPartitionedCall/ISL_BiLSTM_Attn_1/bidirectional_1/backward_lstm_1/while/exit/_115", "op": "Exit", "input": ["StatefulPartitionedCall/ISL_BiLSTM_Attn_1/bidirectional_1/backward_lstm_1/while/StatefulPartitionedCall/ISL_BiLSTM_Attn_1/bidirectional_1/backward_lstm_1/TensorArrayV2_1_switch/_107"], "attr": {"_has_manual_control_dependencies": {"b": true}, "T": {"type": "DT_VARIANT"}}}, {"name": "Func/StatefulPartitionedCall/ISL_BiLSTM_Attn_1/bidirectional_1/forward_lstm_1/while/body/_40/input_control_node/_227", "op": "NoOp", "input": ["^StatefulPartitionedCall/ISL_BiLSTM_Attn_1/bidirectional_1/forward_lstm_1/while/StatefulPartitionedCall/ISL_BiLSTM_Attn_1/bidirectional_1/forward_lstm_1/Max_switch/_61", "^StatefulPartitionedCall/ISL_BiLSTM_Attn_1/bidirectional_1/forward_lstm_1/while/StatefulPartitionedCall/ISL_BiLSTM_Attn_1/bidirectional_1/forward_lstm_1/TensorArrayUnstack/TensorListFromTensor_switch/_66", "^StatefulPartitionedCall/ISL_BiLSTM_Attn_1/bidirectional_1/forward_lstm_1/while/StatefulPartitionedCall/ISL_BiLSTM_Attn_1/bidirectional_1/forward_lstm_1/TensorArrayV2_1_switch/_63", "^StatefulPartitionedCall/ISL_BiLSTM_Attn_1/bidirectional_1/forward_lstm_1/while/StatefulPartitionedCall/ISL_BiLSTM_Attn_1/bidirectional_1/forward_lstm_1/time_switch/_62", "^StatefulPartitionedCall/ISL_BiLSTM_Attn_1/bidirectional_1/forward_lstm_1/while/loop_body_control/_67", "^StatefulPartitionedCall/ISL_BiLSTM_Attn_1/bidirectional_1/forward_lstm_1/while/StatefulPartitionedCall/ISL_BiLSTM_Attn_1/bidirectional_1/forward_lstm_1/zeros_1_switch/_65", "^StatefulPartitionedCall/ISL_BiLSTM_Attn_1/bidirectional_1/forward_lstm_1/while/StatefulPartitionedCall/ISL_BiLSTM_Attn_1/bidirectional_1/forward_lstm_1/zeros_switch/_64", "^StatefulPartitionedCall/ISL_BiLSTM_Attn_1/bidirectional_1/forward_lstm_1/while/enter/_48", "^StatefulPartitionedCall/ISL_BiLSTM_Attn_1/bidirectional_1/forward_lstm_1/while/enter/_49", "^StatefulPartitionedCall/ISL_BiLSTM_Attn_1/bidirectional_1/forward_lstm_1/while/enter/_50"], "attr": {"_has_manual_control_dependencies": {"b": true}}}, {"name": "StatefulPartitionedCall/ISL_BiLSTM_Attn_1/bidirectional_1/forward_lstm_1/TensorArrayV2Stack/TensorListStack", "op": "TensorListStack", "input": ["StatefulPartitionedCall/ISL_BiLSTM_Attn_1/bidirectional_1/forward_lstm_1/while/exit/_71", "StatefulPartitionedCall/ISL_BiLSTM_Attn_1/bidirectional_1/forward_lstm_1/TensorArrayV2Stack/TensorListStack/element_shape"], "attr": {"num_elements": {"i": "48"}, "element_dtype": {"type": "DT_FLOAT"}}}, {"name": "Func/StatefulPartitionedCall/ISL_BiLSTM_Attn_1/bidirectional_1/backward_lstm_1/while/body/_84/input_control_node/_261", "op": "NoOp", "input": ["^StatefulPartitionedCall/ISL_BiLSTM_Attn_1/bidirectional_1/backward_lstm_1/while/StatefulPartitionedCall/ISL_BiLSTM_Attn_1/bidirectional_1/backward_lstm_1/Max_switch/_105", "^StatefulPartitionedCall/ISL_BiLSTM_Attn_1/bidirectional_1/backward_lstm_1/while/StatefulPartitionedCall/ISL_BiLSTM_Attn_1/bidirectional_1/backward_lstm_1/TensorArrayUnstack/TensorListFromTensor_switch/_110", "^StatefulPartitionedCall/ISL_BiLSTM_Attn_1/bidirectional_1/backward_lstm_1/while/StatefulPartitionedCall/ISL_BiLSTM_Attn_1/bidirectional_1/backward_lstm_1/TensorArrayV2_1_switch/_107", "^StatefulPartitionedCall/ISL_BiLSTM_Attn_1/bidirectional_1/backward_lstm_1/while/StatefulPartitionedCall/ISL_BiLSTM_Attn_1/bidirectional_1/backward_lstm_1/time_switch/_106", "^StatefulPartitionedCall/ISL_BiLSTM_Attn_1/bidirectional_1/backward_lstm_1/while/loop_body_control/_111", "^StatefulPartitionedCall/ISL_BiLSTM_Attn_1/bidirectional_1/backward_lstm_1/while/StatefulPartitionedCall/ISL_BiLSTM_Attn_1/bidirectional_1/backward_lstm_1/zeros_1_switch/_109", "^StatefulPartitionedCall/ISL_BiLSTM_Attn_1/bidirectional_1/backward_lstm_1/while/StatefulPartitionedCall/ISL_BiLSTM_Attn_1/bidirectional_1/backward_lstm_1/zeros_switch/_108", "^StatefulPartitionedCall/ISL_BiLSTM_Attn_1/bidirectional_1/backward_lstm_1/while/enter/_92", "^StatefulPartitionedCall/ISL_BiLSTM_Attn_1/bidirectional_1/backward_lstm_1/while/enter/_93", "^StatefulPartitionedCall/ISL_BiLSTM_Attn_1/bidirectional_1/backward_lstm_1/while/enter/_94"], "attr": {"_has_manual_control_dependencies": {"b": true}}}, {"name": "StatefulPartitionedCall/ISL_BiLSTM_Attn_1/bidirectional_1/backward_lstm_1/TensorArrayV2Stack/TensorListStack", "op": "TensorListStack", "input": ["StatefulPartitionedCall/ISL_BiLSTM_Attn_1/bidirectional_1/backward_lstm_1/while/exit/_115", "StatefulPartitionedCall/ISL_BiLSTM_Attn_1/bidirectional_1/backward_lstm_1/TensorArrayV2Stack/TensorListStack/element_shape"], "attr": {"num_elements": {"i": "48"}, "element_dtype": {"type": "DT_FLOAT"}}}, {"name": "StatefulPartitionedCall/ISL_BiLSTM_Attn_1/bidirectional_1/forward_lstm_1/while/body/_40/ISL_BiLSTM_Attn_1/bidirectional_1/forward_lstm_1/while/add_1/y", "op": "Const", "input": ["^Func/StatefulPartitionedCall/ISL_BiLSTM_Attn_1/bidirectional_1/forward_lstm_1/while/body/_40/input_control_node/_227"], "attr": {"value": {"tensor": {"dtype": "DT_INT32", "tensorShape": {}}}, "dtype": {"type": "DT_INT32"}}}, {"name": "StatefulPartitionedCall/ISL_BiLSTM_Attn_1/bidirectional_1/forward_lstm_1/while/body/_40/ISL_BiLSTM_Attn_1/bidirectional_1/forward_lstm_1/while/lstm_cell_1/split/split_dim", "op": "Const", "input": ["^Func/StatefulPartitionedCall/ISL_BiLSTM_Attn_1/bidirectional_1/forward_lstm_1/while/body/_40/input_control_node/_227"], "attr": {"value": {"tensor": {"dtype": "DT_INT32", "tensorShape": {}}}, "dtype": {"type": "DT_INT32"}}}, {"name": "StatefulPartitionedCall/ISL_BiLSTM_Attn_1/bidirectional_1/forward_lstm_1/while/body/_40/ISL_BiLSTM_Attn_1/bidirectional_1/forward_lstm_1/while/add/y", "op": "Const", "input": ["^Func/StatefulPartitionedCall/ISL_BiLSTM_Attn_1/bidirectional_1/forward_lstm_1/while/body/_40/input_control_node/_227"], "attr": {"value": {"tensor": {"dtype": "DT_INT32", "tensorShape": {}}}, "dtype": {"type": "DT_INT32"}}}, {"name": "Func/StatefulPartitionedCall/ISL_BiLSTM_Attn_1/bidirectional_1/forward_lstm_1/while/body/_40/input/_230", "op": "Identity", "input": ["StatefulPartitionedCall/ISL_BiLSTM_Attn_1/bidirectional_1/forward_lstm_1/while/StatefulPartitionedCall/ISL_BiLSTM_Attn_1/bidirectional_1/forward_lstm_1/time_switch/_62:1", "^Func/StatefulPartitionedCall/ISL_BiLSTM_Attn_1/bidirectional_1/forward_lstm_1/while/body/_40/input_control_node/_227"], "attr": {"T": {"type": "DT_INT32"}}}, {"name": "StatefulPartitionedCall/ISL_BiLSTM_Attn_1/bidirectional_1/forward_lstm_1/while/body/_40/ISL_BiLSTM_Attn_1/bidirectional_1/forward_lstm_1/while/TensorArrayV2Read/TensorListGetItem/element_shape", "op": "Const", "input": ["^Func/StatefulPartitionedCall/ISL_BiLSTM_Attn_1/bidirectional_1/forward_lstm_1/while/body/_40/input_control_node/_227"], "attr": {"value": {"tensor": {"dtype": "DT_INT32", "tensorShape": {"dim": [{"size": "2"}]}}}, "dtype": {"type": "DT_INT32"}}}, {"name": "StatefulPartitionedCall/ISL_BiLSTM_Attn_1/bidirectional_1/forward_lstm_1/while/body/_40/ISL_BiLSTM_Attn_1/bidirectional_1/forward_lstm_1/while/lstm_cell_1/Cast/ReadVariableOp", "op": "Const", "input": ["^StatefulPartitionedCall/ISL_BiLSTM_Attn_1/bidirectional_1/forward_lstm_1/while/enter/_48", "^Func/StatefulPartitionedCall/ISL_BiLSTM_Attn_1/bidirectional_1/forward_lstm_1/while/body/_40/input_control_node/_227"], "attr": {"value": {"tensor": {"dtype": "DT_FLOAT", "tensorShape": {"dim": [{"size": "512"}, {"size": "512"}]}}}, "dtype": {"type": "DT_FLOAT"}}}, {"name": "StatefulPartitionedCall/ISL_BiLSTM_Attn_1/bidirectional_1/forward_lstm_1/while/body/_40/ISL_BiLSTM_Attn_1/bidirectional_1/forward_lstm_1/while/lstm_cell_1/Cast_1/ReadVariableOp", "op": "Const", "input": ["^StatefulPartitionedCall/ISL_BiLSTM_Attn_1/bidirectional_1/forward_lstm_1/while/enter/_49", "^Func/StatefulPartitionedCall/ISL_BiLSTM_Attn_1/bidirectional_1/forward_lstm_1/while/body/_40/input_control_node/_227"], "attr": {"value": {"tensor": {"dtype": "DT_FLOAT", "tensorShape": {"dim": [{"size": "128"}, {"size": "512"}]}}}, "dtype": {"type": "DT_FLOAT"}}}, {"name": "StatefulPartitionedCall/ISL_BiLSTM_Attn_1/bidirectional_1/forward_lstm_1/while/body/_40/ISL_BiLSTM_Attn_1/bidirectional_1/forward_lstm_1/while/lstm_cell_1/add_1/ReadVariableOp", "op": "Const", "input": ["^StatefulPartitionedCall/ISL_BiLSTM_Attn_1/bidirectional_1/forward_lstm_1/while/enter/_50", "^Func/StatefulPartitionedCall/ISL_BiLSTM_Attn_1/bidirectional_1/forward_lstm_1/while/body/_40/input_control_node/_227"], "attr": {"value": {"tensor": {"dtype": "DT_FLOAT", "tensorShape": {"dim": [{"size": "512"}]}}}, "dtype": {"type": "DT_FLOAT"}}}, {"name": "StatefulPartitionedCall/ISL_BiLSTM_Attn_1/bidirectional_1/forward_lstm_1/transpose_1", "op": "Transpose", "input": ["StatefulPartitionedCall/ISL_BiLSTM_Attn_1/bidirectional_1/forward_lstm_1/TensorArrayV2Stack/TensorListStack", "StatefulPartitionedCall/ISL_BiLSTM_Attn_1/bidirectional_1/forward_lstm_1/transpose_1/perm"], "attr": {"Tperm": {"type": "DT_INT32"}, "_input_shapes": {"list": {"shape": [{"dim": [{"size": "48"}, {"size": "-9"}, {"size": "128"}]}, {"dim": [{"size": "3"}]}]}}, "T": {"type": "DT_FLOAT"}}}, {"name": "StatefulPartitionedCall/ISL_BiLSTM_Attn_1/bidirectional_1/backward_lstm_1/while/body/_84/ISL_BiLSTM_Attn_1/bidirectional_1/backward_lstm_1/while/add_1/y", "op": "Const", "input": ["^Func/StatefulPartitionedCall/ISL_BiLSTM_Attn_1/bidirectional_1/backward_lstm_1/while/body/_84/input_control_node/_261"], "attr": {"value": {"tensor": {"dtype": "DT_INT32", "tensorShape": {}}}, "dtype": {"type": "DT_INT32"}}}, {"name": "StatefulPartitionedCall/ISL_BiLSTM_Attn_1/bidirectional_1/backward_lstm_1/while/body/_84/ISL_BiLSTM_Attn_1/bidirectional_1/backward_lstm_1/while/lstm_cell_1/split/split_dim", "op": "Const", "input": ["^Func/StatefulPartitionedCall/ISL_BiLSTM_Attn_1/bidirectional_1/backward_lstm_1/while/body/_84/input_control_node/_261"], "attr": {"value": {"tensor": {"dtype": "DT_INT32", "tensorShape": {}}}, "dtype": {"type": "DT_INT32"}}}, {"name": "StatefulPartitionedCall/ISL_BiLSTM_Attn_1/bidirectional_1/backward_lstm_1/while/body/_84/ISL_BiLSTM_Attn_1/bidirectional_1/backward_lstm_1/while/add/y", "op": "Const", "input": ["^Func/StatefulPartitionedCall/ISL_BiLSTM_Attn_1/bidirectional_1/backward_lstm_1/while/body/_84/input_control_node/_261"], "attr": {"value": {"tensor": {"dtype": "DT_INT32", "tensorShape": {}}}, "dtype": {"type": "DT_INT32"}}}, {"name": "Func/StatefulPartitionedCall/ISL_BiLSTM_Attn_1/bidirectional_1/backward_lstm_1/while/body/_84/input/_264", "op": "Identity", "input": ["StatefulPartitionedCall/ISL_BiLSTM_Attn_1/bidirectional_1/backward_lstm_1/while/StatefulPartitionedCall/ISL_BiLSTM_Attn_1/bidirectional_1/backward_lstm_1/time_switch/_106:1", "^Func/StatefulPartitionedCall/ISL_BiLSTM_Attn_1/bidirectional_1/backward_lstm_1/while/body/_84/input_control_node/_261"], "attr": {"T": {"type": "DT_INT32"}}}, {"name": "StatefulPartitionedCall/ISL_BiLSTM_Attn_1/bidirectional_1/backward_lstm_1/while/body/_84/ISL_BiLSTM_Attn_1/bidirectional_1/backward_lstm_1/while/TensorArrayV2Read/TensorListGetItem/element_shape", "op": "Const", "input": ["^Func/StatefulPartitionedCall/ISL_BiLSTM_Attn_1/bidirectional_1/backward_lstm_1/while/body/_84/input_control_node/_261"], "attr": {"value": {"tensor": {"dtype": "DT_INT32", "tensorShape": {"dim": [{"size": "2"}]}}}, "dtype": {"type": "DT_INT32"}}}, {"name": "StatefulPartitionedCall/ISL_BiLSTM_Attn_1/bidirectional_1/backward_lstm_1/while/body/_84/ISL_BiLSTM_Attn_1/bidirectional_1/backward_lstm_1/while/lstm_cell_1/Cast/ReadVariableOp", "op": "Const", "input": ["^StatefulPartitionedCall/ISL_BiLSTM_Attn_1/bidirectional_1/backward_lstm_1/while/enter/_92", "^Func/StatefulPartitionedCall/ISL_BiLSTM_Attn_1/bidirectional_1/backward_lstm_1/while/body/_84/input_control_node/_261"], "attr": {"value": {"tensor": {"dtype": "DT_FLOAT", "tensorShape": {"dim": [{"size": "512"}, {"size": "512"}]}}}, "dtype": {"type": "DT_FLOAT"}}}, {"name": "StatefulPartitionedCall/ISL_BiLSTM_Attn_1/bidirectional_1/backward_lstm_1/while/body/_84/ISL_BiLSTM_Attn_1/bidirectional_1/backward_lstm_1/while/lstm_cell_1/Cast_1/ReadVariableOp", "op": "Const", "input": ["^StatefulPartitionedCall/ISL_BiLSTM_Attn_1/bidirectional_1/backward_lstm_1/while/enter/_93", "^Func/StatefulPartitionedCall/ISL_BiLSTM_Attn_1/bidirectional_1/backward_lstm_1/while/body/_84/input_control_node/_261"], "attr": {"value": {"tensor": {"dtype": "DT_FLOAT", "tensorShape": {"dim": [{"size": "128"}, {"size": "512"}]}}}, "dtype": {"type": "DT_FLOAT"}}}, {"name": "StatefulPartitionedCall/ISL_BiLSTM_Attn_1/bidirectional_1/backward_lstm_1/while/body/_84/ISL_BiLSTM_Attn_1/bidirectional_1/backward_lstm_1/while/lstm_cell_1/add_1/ReadVariableOp", "op": "Const", "input": ["^StatefulPartitionedCall/ISL_BiLSTM_Attn_1/bidirectional_1/backward_lstm_1/while/enter/_94", "^Func/StatefulPartitionedCall/ISL_BiLSTM_Attn_1/bidirectional_1/backward_lstm_1/while/body/_84/input_control_node/_261"], "attr": {"value": {"tensor": {"dtype": "DT_FLOAT", "tensorShape": {"dim": [{"size": "512"}]}}}, "dtype": {"type": "DT_FLOAT"}}}, {"name": "StatefulPartitionedCall/ISL_BiLSTM_Attn_1/bidirectional_1/backward_lstm_1/transpose_1", "op": "Transpose", "input": ["StatefulPartitionedCall/ISL_BiLSTM_Attn_1/bidirectional_1/backward_lstm_1/TensorArrayV2Stack/TensorListStack", "StatefulPartitionedCall/ISL_BiLSTM_Attn_1/bidirectional_1/backward_lstm_1/transpose_1/perm"], "attr": {"Tperm": {"type": "DT_INT32"}, "_input_shapes": {"list": {"shape": [{"dim": [{"size": "48"}, {"size": "-9"}, {"size": "128"}]}, {"dim": [{"size": "3"}]}]}}, "T": {"type": "DT_FLOAT"}}}, {"name": "StatefulPartitionedCall/ISL_BiLSTM_Attn_1/bidirectional_1/forward_lstm_1/while/body/_40/ISL_BiLSTM_Attn_1/bidirectional_1/forward_lstm_1/while/add_1", "op": "AddV2", "input": ["StatefulPartitionedCall/ISL_BiLSTM_Attn_1/bidirectional_1/forward_lstm_1/while/StatefulPartitionedCall/ISL_BiLSTM_Attn_1/bidirectional_1/forward_lstm_1/while/loop_counter_switch/_60:1", "StatefulPartitionedCall/ISL_BiLSTM_Attn_1/bidirectional_1/forward_lstm_1/while/body/_40/ISL_BiLSTM_Attn_1/bidirectional_1/forward_lstm_1/while/add_1/y"], "attr": {"T": {"type": "DT_INT32"}}}, {"name": "StatefulPartitionedCall/ISL_BiLSTM_Attn_1/bidirectional_1/forward_lstm_1/while/body/_40/ISL_BiLSTM_Attn_1/bidirectional_1/forward_lstm_1/while/add", "op": "AddV2", "input": ["Func/StatefulPartitionedCall/ISL_BiLSTM_Attn_1/bidirectional_1/forward_lstm_1/while/body/_40/input/_230", "StatefulPartitionedCall/ISL_BiLSTM_Attn_1/bidirectional_1/forward_lstm_1/while/body/_40/ISL_BiLSTM_Attn_1/bidirectional_1/forward_lstm_1/while/add/y"], "attr": {"T": {"type": "DT_INT32"}}}, {"name": "StatefulPartitionedCall/ISL_BiLSTM_Attn_1/bidirectional_1/forward_lstm_1/while/body/_40/ISL_BiLSTM_Attn_1/bidirectional_1/forward_lstm_1/while/TensorArrayV2Read/TensorListGetItem", "op": "TensorListGetItem", "input": ["StatefulPartitionedCall/ISL_BiLSTM_Attn_1/bidirectional_1/forward_lstm_1/while/StatefulPartitionedCall/ISL_BiLSTM_Attn_1/bidirectional_1/forward_lstm_1/TensorArrayUnstack/TensorListFromTensor_switch/_66:1", "Func/StatefulPartitionedCall/ISL_BiLSTM_Attn_1/bidirectional_1/forward_lstm_1/while/body/_40/input/_230", "StatefulPartitionedCall/ISL_BiLSTM_Attn_1/bidirectional_1/forward_lstm_1/while/body/_40/ISL_BiLSTM_Attn_1/bidirectional_1/forward_lstm_1/while/TensorArrayV2Read/TensorListGetItem/element_shape"], "attr": {"element_dtype": {"type": "DT_FLOAT"}}}, {"name": "StatefulPartitionedCall/ISL_BiLSTM_Attn_1/bidirectional_1/forward_lstm_1/while/body/_40/ISL_BiLSTM_Attn_1/bidirectional_1/forward_lstm_1/while/lstm_cell_1/MatMul_1", "op": "MatMul", "input": ["StatefulPartitionedCall/ISL_BiLSTM_Attn_1/bidirectional_1/forward_lstm_1/while/StatefulPartitionedCall/ISL_BiLSTM_Attn_1/bidirectional_1/forward_lstm_1/zeros_switch/_64:1", "StatefulPartitionedCall/ISL_BiLSTM_Attn_1/bidirectional_1/forward_lstm_1/while/body/_40/ISL_BiLSTM_Attn_1/bidirectional_1/forward_lstm_1/while/lstm_cell_1/Cast_1/ReadVariableOp"], "device": "/device:CPU:0", "attr": {"transpose_a": {"b": false}, "_input_shapes": {"list": {"shape": [{"dim": [{"size": "-20"}, {"size": "128"}]}, {"dim": [{"size": "128"}, {"size": "512"}]}]}}, "T": {"type": "DT_FLOAT"}, "transpose_b": {"b": false}}}, {"name": "Func/StatefulPartitionedCall/ISL_BiLSTM_Attn_1/bidirectional_1/forward_lstm_1/while/body/_40/output_control_node/_248", "op": "NoOp", "input": ["^StatefulPartitionedCall/ISL_BiLSTM_Attn_1/bidirectional_1/forward_lstm_1/while/body/_40/ISL_BiLSTM_Attn_1/bidirectional_1/forward_lstm_1/while/lstm_cell_1/Cast/ReadVariableOp", "^StatefulPartitionedCall/ISL_BiLSTM_Attn_1/bidirectional_1/forward_lstm_1/while/body/_40/ISL_BiLSTM_Attn_1/bidirectional_1/forward_lstm_1/while/lstm_cell_1/Cast_1/ReadVariableOp", "^StatefulPartitionedCall/ISL_BiLSTM_Attn_1/bidirectional_1/forward_lstm_1/while/body/_40/ISL_BiLSTM_Attn_1/bidirectional_1/forward_lstm_1/while/lstm_cell_1/add_1/ReadVariableOp"], "attr": {"_has_manual_control_dependencies": {"b": true}}}, {"name": "StatefulPartitionedCall/ISL_BiLSTM_Attn_1/bidirectional_1/forward_lstm_1/while/body/_40/ISL_BiLSTM_Attn_1/bidirectional_1/forward_lstm_1/while/NoOp", "op": "NoOp", "input": ["^StatefulPartitionedCall/ISL_BiLSTM_Attn_1/bidirectional_1/forward_lstm_1/while/body/_40/ISL_BiLSTM_Attn_1/bidirectional_1/forward_lstm_1/while/lstm_cell_1/Cast/ReadVariableOp", "^StatefulPartitionedCall/ISL_BiLSTM_Attn_1/bidirectional_1/forward_lstm_1/while/body/_40/ISL_BiLSTM_Attn_1/bidirectional_1/forward_lstm_1/while/lstm_cell_1/Cast_1/ReadVariableOp", "^StatefulPartitionedCall/ISL_BiLSTM_Attn_1/bidirectional_1/forward_lstm_1/while/body/_40/ISL_BiLSTM_Attn_1/bidirectional_1/forward_lstm_1/while/lstm_cell_1/add_1/ReadVariableOp"], "attr": {"_has_manual_control_dependencies": {"b": true}}}, {"name": "StatefulPartitionedCall/ISL_BiLSTM_Attn_1/bidirectional_1/backward_lstm_1/while/body/_84/ISL_BiLSTM_Attn_1/bidirectional_1/backward_lstm_1/while/add_1", "op": "AddV2", "input": ["StatefulPartitionedCall/ISL_BiLSTM_Attn_1/bidirectional_1/backward_lstm_1/while/StatefulPartitionedCall/ISL_BiLSTM_Attn_1/bidirectional_1/backward_lstm_1/while/loop_counter_switch/_104:1", "StatefulPartitionedCall/ISL_BiLSTM_Attn_1/bidirectional_1/backward_lstm_1/while/body/_84/ISL_BiLSTM_Attn_1/bidirectional_1/backward_lstm_1/while/add_1/y"], "attr": {"T": {"type": "DT_INT32"}}}, {"name": "StatefulPartitionedCall/ISL_BiLSTM_Attn_1/bidirectional_1/backward_lstm_1/while/body/_84/ISL_BiLSTM_Attn_1/bidirectional_1/backward_lstm_1/while/add", "op": "AddV2", "input": ["Func/StatefulPartitionedCall/ISL_BiLSTM_Attn_1/bidirectional_1/backward_lstm_1/while/body/_84/input/_264", "StatefulPartitionedCall/ISL_BiLSTM_Attn_1/bidirectional_1/backward_lstm_1/while/body/_84/ISL_BiLSTM_Attn_1/bidirectional_1/backward_lstm_1/while/add/y"], "attr": {"T": {"type": "DT_INT32"}}}, {"name": "StatefulPartitionedCall/ISL_BiLSTM_Attn_1/bidirectional_1/backward_lstm_1/while/body/_84/ISL_BiLSTM_Attn_1/bidirectional_1/backward_lstm_1/while/TensorArrayV2Read/TensorListGetItem", "op": "TensorListGetItem", "input": ["StatefulPartitionedCall/ISL_BiLSTM_Attn_1/bidirectional_1/backward_lstm_1/while/StatefulPartitionedCall/ISL_BiLSTM_Attn_1/bidirectional_1/backward_lstm_1/TensorArrayUnstack/TensorListFromTensor_switch/_110:1", "Func/StatefulPartitionedCall/ISL_BiLSTM_Attn_1/bidirectional_1/backward_lstm_1/while/body/_84/input/_264", "StatefulPartitionedCall/ISL_BiLSTM_Attn_1/bidirectional_1/backward_lstm_1/while/body/_84/ISL_BiLSTM_Attn_1/bidirectional_1/backward_lstm_1/while/TensorArrayV2Read/TensorListGetItem/element_shape"], "attr": {"element_dtype": {"type": "DT_FLOAT"}}}, {"name": "StatefulPartitionedCall/ISL_BiLSTM_Attn_1/bidirectional_1/backward_lstm_1/while/body/_84/ISL_BiLSTM_Attn_1/bidirectional_1/backward_lstm_1/while/lstm_cell_1/MatMul_1", "op": "MatMul", "input": ["StatefulPartitionedCall/ISL_BiLSTM_Attn_1/bidirectional_1/backward_lstm_1/while/StatefulPartitionedCall/ISL_BiLSTM_Attn_1/bidirectional_1/backward_lstm_1/zeros_switch/_108:1", "StatefulPartitionedCall/ISL_BiLSTM_Attn_1/bidirectional_1/backward_lstm_1/while/body/_84/ISL_BiLSTM_Attn_1/bidirectional_1/backward_lstm_1/while/lstm_cell_1/Cast_1/ReadVariableOp"], "device": "/device:CPU:0", "attr": {"transpose_a": {"b": false}, "_input_shapes": {"list": {"shape": [{"dim": [{"size": "-30"}, {"size": "128"}]}, {"dim": [{"size": "128"}, {"size": "512"}]}]}}, "T": {"type": "DT_FLOAT"}, "transpose_b": {"b": false}}}, {"name": "Func/StatefulPartitionedCall/ISL_BiLSTM_Attn_1/bidirectional_1/backward_lstm_1/while/body/_84/output_control_node/_282", "op": "NoOp", "input": ["^StatefulPartitionedCall/ISL_BiLSTM_Attn_1/bidirectional_1/backward_lstm_1/while/body/_84/ISL_BiLSTM_Attn_1/bidirectional_1/backward_lstm_1/while/lstm_cell_1/Cast/ReadVariableOp", "^StatefulPartitionedCall/ISL_BiLSTM_Attn_1/bidirectional_1/backward_lstm_1/while/body/_84/ISL_BiLSTM_Attn_1/bidirectional_1/backward_lstm_1/while/lstm_cell_1/Cast_1/ReadVariableOp", "^StatefulPartitionedCall/ISL_BiLSTM_Attn_1/bidirectional_1/backward_lstm_1/while/body/_84/ISL_BiLSTM_Attn_1/bidirectional_1/backward_lstm_1/while/lstm_cell_1/add_1/ReadVariableOp"], "attr": {"_has_manual_control_dependencies": {"b": true}}}, {"name": "StatefulPartitionedCall/ISL_BiLSTM_Attn_1/bidirectional_1/backward_lstm_1/while/body/_84/ISL_BiLSTM_Attn_1/bidirectional_1/backward_lstm_1/while/NoOp", "op": "NoOp", "input": ["^StatefulPartitionedCall/ISL_BiLSTM_Attn_1/bidirectional_1/backward_lstm_1/while/body/_84/ISL_BiLSTM_Attn_1/bidirectional_1/backward_lstm_1/while/lstm_cell_1/Cast/ReadVariableOp", "^StatefulPartitionedCall/ISL_BiLSTM_Attn_1/bidirectional_1/backward_lstm_1/while/body/_84/ISL_BiLSTM_Attn_1/bidirectional_1/backward_lstm_1/while/lstm_cell_1/Cast_1/ReadVariableOp", "^StatefulPartitionedCall/ISL_BiLSTM_Attn_1/bidirectional_1/backward_lstm_1/while/body/_84/ISL_BiLSTM_Attn_1/bidirectional_1/backward_lstm_1/while/lstm_cell_1/add_1/ReadVariableOp"], "attr": {"_has_manual_control_dependencies": {"b": true}}}, {"name": "StatefulPartitionedCall/ISL_BiLSTM_Attn_1/bidirectional_1/ReverseV2", "op": "ReverseV2", "input": ["StatefulPartitionedCall/ISL_BiLSTM_Attn_1/bidirectional_1/backward_lstm_1/transpose_1", "StatefulPartitionedCall/ISL_BiLSTM_Attn_1/bidirectional_1/ReverseV2/axis"], "attr": {"T": {"type": "DT_FLOAT"}, "Tidx": {"type": "DT_INT32"}}}, {"name": "StatefulPartitionedCall/ISL_BiLSTM_Attn_1/bidirectional_1/forward_lstm_1/while/body/_40/ISL_BiLSTM_Attn_1/bidirectional_1/forward_lstm_1/while/lstm_cell_1/add", "op": "AddV2", "input": ["StatefulPartitionedCall/ISL_BiLSTM_Attn_1/bidirectional_1/forward_lstm_1/while/body/_40/ISL_BiLSTM_Attn_1/bidirectional_1/forward_lstm_1/while/lstm_cell_1/add_1/ReadVariableOp", "StatefulPartitionedCall/ISL_BiLSTM_Attn_1/bidirectional_1/forward_lstm_1/while/body/_40/ISL_BiLSTM_Attn_1/bidirectional_1/forward_lstm_1/while/lstm_cell_1/MatMul_1"], "attr": {"T": {"type": "DT_FLOAT"}}}, {"name": "StatefulPartitionedCall/ISL_BiLSTM_Attn_1/bidirectional_1/forward_lstm_1/while/next_iteration/_82", "op": "NextIteration", "input": ["StatefulPartitionedCall/ISL_BiLSTM_Attn_1/bidirectional_1/forward_lstm_1/while/StatefulPartitionedCall/ISL_BiLSTM_Attn_1/bidirectional_1/forward_lstm_1/TensorArrayUnstack/TensorListFromTensor_switch/_66:1", "^Func/StatefulPartitionedCall/ISL_BiLSTM_Attn_1/bidirectional_1/forward_lstm_1/while/body/_40/output_control_node/_248", "^Func/StatefulPartitionedCall/ISL_BiLSTM_Attn_1/bidirectional_1/forward_lstm_1/while/body/_40/input_control_node/_227"], "attr": {"T": {"type": "DT_VARIANT"}}}, {"name": "StatefulPartitionedCall/ISL_BiLSTM_Attn_1/bidirectional_1/forward_lstm_1/while/next_iteration/_77", "op": "NextIteration", "input": ["StatefulPartitionedCall/ISL_BiLSTM_Attn_1/bidirectional_1/forward_lstm_1/while/StatefulPartitionedCall/ISL_BiLSTM_Attn_1/bidirectional_1/forward_lstm_1/Max_switch/_61:1", "^Func/StatefulPartitionedCall/ISL_BiLSTM_Attn_1/bidirectional_1/forward_lstm_1/while/body/_40/output_control_node/_248", "^StatefulPartitionedCall/ISL_BiLSTM_Attn_1/bidirectional_1/forward_lstm_1/while/body/_40/ISL_BiLSTM_Attn_1/bidirectional_1/forward_lstm_1/while/NoOp", "^Func/StatefulPartitionedCall/ISL_BiLSTM_Attn_1/bidirectional_1/forward_lstm_1/while/body/_40/input_control_node/_227"], "attr": {"T": {"type": "DT_INT32"}}}, {"name": "StatefulPartitionedCall/ISL_BiLSTM_Attn_1/bidirectional_1/forward_lstm_1/while/next_iteration/_76", "op": "NextIteration", "input": ["StatefulPartitionedCall/ISL_BiLSTM_Attn_1/bidirectional_1/forward_lstm_1/while/body/_40/ISL_BiLSTM_Attn_1/bidirectional_1/forward_lstm_1/while/add_1", "^Func/StatefulPartitionedCall/ISL_BiLSTM_Attn_1/bidirectional_1/forward_lstm_1/while/body/_40/output_control_node/_248", "^StatefulPartitionedCall/ISL_BiLSTM_Attn_1/bidirectional_1/forward_lstm_1/while/body/_40/ISL_BiLSTM_Attn_1/bidirectional_1/forward_lstm_1/while/NoOp"], "attr": {"T": {"type": "DT_INT32"}}}, {"name": "StatefulPartitionedCall/ISL_BiLSTM_Attn_1/bidirectional_1/forward_lstm_1/while/next_iteration/_78", "op": "NextIteration", "input": ["StatefulPartitionedCall/ISL_BiLSTM_Attn_1/bidirectional_1/forward_lstm_1/while/body/_40/ISL_BiLSTM_Attn_1/bidirectional_1/forward_lstm_1/while/add", "^Func/StatefulPartitionedCall/ISL_BiLSTM_Attn_1/bidirectional_1/forward_lstm_1/while/body/_40/output_control_node/_248", "^StatefulPartitionedCall/ISL_BiLSTM_Attn_1/bidirectional_1/forward_lstm_1/while/body/_40/ISL_BiLSTM_Attn_1/bidirectional_1/forward_lstm_1/while/NoOp"], "attr": {"T": {"type": "DT_INT32"}}}, {"name": "StatefulPartitionedCall/ISL_BiLSTM_Attn_1/bidirectional_1/backward_lstm_1/while/body/_84/ISL_BiLSTM_Attn_1/bidirectional_1/backward_lstm_1/while/lstm_cell_1/add", "op": "AddV2", "input": ["StatefulPartitionedCall/ISL_BiLSTM_Attn_1/bidirectional_1/backward_lstm_1/while/body/_84/ISL_BiLSTM_Attn_1/bidirectional_1/backward_lstm_1/while/lstm_cell_1/add_1/ReadVariableOp", "StatefulPartitionedCall/ISL_BiLSTM_Attn_1/bidirectional_1/backward_lstm_1/while/body/_84/ISL_BiLSTM_Attn_1/bidirectional_1/backward_lstm_1/while/lstm_cell_1/MatMul_1"], "attr": {"T": {"type": "DT_FLOAT"}}}, {"name": "StatefulPartitionedCall/ISL_BiLSTM_Attn_1/bidirectional_1/backward_lstm_1/while/next_iteration/_126", "op": "NextIteration", "input": ["StatefulPartitionedCall/ISL_BiLSTM_Attn_1/bidirectional_1/backward_lstm_1/while/StatefulPartitionedCall/ISL_BiLSTM_Attn_1/bidirectional_1/backward_lstm_1/TensorArrayUnstack/TensorListFromTensor_switch/_110:1", "^Func/StatefulPartitionedCall/ISL_BiLSTM_Attn_1/bidirectional_1/backward_lstm_1/while/body/_84/output_control_node/_282", "^Func/StatefulPartitionedCall/ISL_BiLSTM_Attn_1/bidirectional_1/backward_lstm_1/while/body/_84/input_control_node/_261"], "attr": {"T": {"type": "DT_VARIANT"}}}, {"name": "StatefulPartitionedCall/ISL_BiLSTM_Attn_1/bidirectional_1/backward_lstm_1/while/next_iteration/_121", "op": "NextIteration", "input": ["StatefulPartitionedCall/ISL_BiLSTM_Attn_1/bidirectional_1/backward_lstm_1/while/StatefulPartitionedCall/ISL_BiLSTM_Attn_1/bidirectional_1/backward_lstm_1/Max_switch/_105:1", "^Func/StatefulPartitionedCall/ISL_BiLSTM_Attn_1/bidirectional_1/backward_lstm_1/while/body/_84/output_control_node/_282", "^StatefulPartitionedCall/ISL_BiLSTM_Attn_1/bidirectional_1/backward_lstm_1/while/body/_84/ISL_BiLSTM_Attn_1/bidirectional_1/backward_lstm_1/while/NoOp", "^Func/StatefulPartitionedCall/ISL_BiLSTM_Attn_1/bidirectional_1/backward_lstm_1/while/body/_84/input_control_node/_261"], "attr": {"T": {"type": "DT_INT32"}}}, {"name": "StatefulPartitionedCall/ISL_BiLSTM_Attn_1/bidirectional_1/backward_lstm_1/while/next_iteration/_120", "op": "NextIteration", "input": ["StatefulPartitionedCall/ISL_BiLSTM_Attn_1/bidirectional_1/backward_lstm_1/while/body/_84/ISL_BiLSTM_Attn_1/bidirectional_1/backward_lstm_1/while/add_1", "^Func/StatefulPartitionedCall/ISL_BiLSTM_Attn_1/bidirectional_1/backward_lstm_1/while/body/_84/output_control_node/_282", "^StatefulPartitionedCall/ISL_BiLSTM_Attn_1/bidirectional_1/backward_lstm_1/while/body/_84/ISL_BiLSTM_Attn_1/bidirectional_1/backward_lstm_1/while/NoOp"], "attr": {"T": {"type": "DT_INT32"}}}, {"name": "StatefulPartitionedCall/ISL_BiLSTM_Attn_1/bidirectional_1/backward_lstm_1/while/next_iteration/_122", "op": "NextIteration", "input": ["StatefulPartitionedCall/ISL_BiLSTM_Attn_1/bidirectional_1/backward_lstm_1/while/body/_84/ISL_BiLSTM_Attn_1/bidirectional_1/backward_lstm_1/while/add", "^Func/StatefulPartitionedCall/ISL_BiLSTM_Attn_1/bidirectional_1/backward_lstm_1/while/body/_84/output_control_node/_282", "^StatefulPartitionedCall/ISL_BiLSTM_Attn_1/bidirectional_1/backward_lstm_1/while/body/_84/ISL_BiLSTM_Attn_1/bidirectional_1/backward_lstm_1/while/NoOp"], "attr": {"T": {"type": "DT_INT32"}}}, {"name": "StatefulPartitionedCall/ISL_BiLSTM_Attn_1/bidirectional_1/concat", "op": "ConcatV2", "input": ["StatefulPartitionedCall/ISL_BiLSTM_Attn_1/bidirectional_1/forward_lstm_1/transpose_1", "StatefulPartitionedCall/ISL_BiLSTM_Attn_1/bidirectional_1/ReverseV2", "StatefulPartitionedCall/ISL_BiLSTM_Attn_1/bidirectional_1/concat/axis"], "attr": {"N": {"i": "2"}, "T": {"type": "DT_FLOAT"}, "Tidx": {"type": "DT_INT32"}}}, {"name": "StatefulPartitionedCall/ISL_BiLSTM_Attn_1/bidirectional_1/forward_lstm_1/while/body/_40/ISL_BiLSTM_Attn_1/bidirectional_1/forward_lstm_1/while/lstm_cell_1/add_1", "op": "_FusedMatMul", "input": ["StatefulPartitionedCall/ISL_BiLSTM_Attn_1/bidirectional_1/forward_lstm_1/while/body/_40/ISL_BiLSTM_Attn_1/bidirectional_1/forward_lstm_1/while/TensorArrayV2Read/TensorListGetItem", "StatefulPartitionedCall/ISL_BiLSTM_Attn_1/bidirectional_1/forward_lstm_1/while/body/_40/ISL_BiLSTM_Attn_1/bidirectional_1/forward_lstm_1/while/lstm_cell_1/Cast/ReadVariableOp", "StatefulPartitionedCall/ISL_BiLSTM_Attn_1/bidirectional_1/forward_lstm_1/while/body/_40/ISL_BiLSTM_Attn_1/bidirectional_1/forward_lstm_1/while/lstm_cell_1/add"], "device": "/device:CPU:0", "attr": {"transpose_a": {"b": false}, "_input_shapes": {"list": {"shape": [{"dim": [{"size": "-24"}, {"size": "512"}]}, {"dim": [{"size": "512"}, {"size": "512"}]}]}}, "transpose_b": {"b": false}, "fused_ops": {"list": {"s": ["Qmlhc0FkZA=="]}}, "num_args": {"i": "1"}, "leakyrelu_alpha": {"f": 0.2}, "epsilon": {"f": 0.0}, "T": {"type": "DT_FLOAT"}}}, {"name": "StatefulPartitionedCall/ISL_BiLSTM_Attn_1/bidirectional_1/backward_lstm_1/while/body/_84/ISL_BiLSTM_Attn_1/bidirectional_1/backward_lstm_1/while/lstm_cell_1/add_1", "op": "_FusedMatMul", "input": ["StatefulPartitionedCall/ISL_BiLSTM_Attn_1/bidirectional_1/backward_lstm_1/while/body/_84/ISL_BiLSTM_Attn_1/bidirectional_1/backward_lstm_1/while/TensorArrayV2Read/TensorListGetItem", "StatefulPartitionedCall/ISL_BiLSTM_Attn_1/bidirectional_1/backward_lstm_1/while/body/_84/ISL_BiLSTM_Attn_1/bidirectional_1/backward_lstm_1/while/lstm_cell_1/Cast/ReadVariableOp", "StatefulPartitionedCall/ISL_BiLSTM_Attn_1/bidirectional_1/backward_lstm_1/while/body/_84/ISL_BiLSTM_Attn_1/bidirectional_1/backward_lstm_1/while/lstm_cell_1/add"], "device": "/device:CPU:0", "attr": {"transpose_a": {"b": false}, "_input_shapes": {"list": {"shape": [{"dim": [{"size": "-38"}, {"size": "512"}]}, {"dim": [{"size": "512"}, {"size": "512"}]}]}}, "transpose_b": {"b": false}, "fused_ops": {"list": {"s": ["Qmlhc0FkZA=="]}}, "leakyrelu_alpha": {"f": 0.2}, "num_args": {"i": "1"}, "epsilon": {"f": 0.0}, "T": {"type": "DT_FLOAT"}}}, {"name": "StatefulPartitionedCall/ISL_BiLSTM_Attn_1/bidirectional_1_2/forward_lstm_1_1/transpose", "op": "Transpose", "input": ["StatefulPartitionedCall/ISL_BiLSTM_Attn_1/bidirectional_1/concat", "StatefulPartitionedCall/ISL_BiLSTM_Attn_1/bidirectional_1_2/forward_lstm_1_1/transpose/perm"], "attr": {"Tperm": {"type": "DT_INT32"}, "_input_shapes": {"list": {"shape": [{"dim": [{"size": "-9"}, {"size": "48"}, {"size": "256"}]}, {"dim": [{"size": "3"}]}]}}, "T": {"type": "DT_FLOAT"}}}, {"name": "StatefulPartitionedCall/ISL_BiLSTM_Attn_1/bidirectional_1_2/forward_lstm_1_1/Shape", "op": "Shape", "input": ["StatefulPartitionedCall/ISL_BiLSTM_Attn_1/bidirectional_1/concat"], "attr": {"T": {"type": "DT_FLOAT"}, "out_type": {"type": "DT_INT32"}}, "experimentalType": {"typeId": "TFT_PRODUCT", "args": [{"typeId": "TFT_SHAPE_TENSOR", "args": [{"typeId": "TFT_INT32"}]}]}}, {"name": "StatefulPartitionedCall/ISL_BiLSTM_Attn_1/bidirectional_1_2/backward_lstm_1_1/transpose", "op": "Transpose", "input": ["StatefulPartitionedCall/ISL_BiLSTM_Attn_1/bidirectional_1/concat", "StatefulPartitionedCall/ISL_BiLSTM_Attn_1/bidirectional_1_2/backward_lstm_1_1/transpose/perm"], "attr": {"Tperm": {"type": "DT_INT32"}, "_input_shapes": {"list": {"shape": [{"dim": [{"size": "-9"}, {"size": "48"}, {"size": "256"}]}, {"dim": [{"size": "3"}]}]}}, "T": {"type": "DT_FLOAT"}}}, {"name": "StatefulPartitionedCall/ISL_BiLSTM_Attn_1/bidirectional_1_2/backward_lstm_1_1/Shape", "op": "Shape", "input": ["StatefulPartitionedCall/ISL_BiLSTM_Attn_1/bidirectional_1/concat"], "attr": {"T": {"type": "DT_FLOAT"}, "out_type": {"type": "DT_INT32"}}, "experimentalType": {"typeId": "TFT_PRODUCT", "args": [{"typeId": "TFT_SHAPE_TENSOR", "args": [{"typeId": "TFT_INT32"}]}]}}, {"name": "StatefulPartitionedCall/ISL_BiLSTM_Attn_1/bidirectional_1/forward_lstm_1/while/body/_40/ISL_BiLSTM_Attn_1/bidirectional_1/forward_lstm_1/while/lstm_cell_1/split", "op": "Split", "input": ["StatefulPartitionedCall/ISL_BiLSTM_Attn_1/bidirectional_1/forward_lstm_1/while/body/_40/ISL_BiLSTM_Attn_1/bidirectional_1/forward_lstm_1/while/lstm_cell_1/split/split_dim", "StatefulPartitionedCall/ISL_BiLSTM_Attn_1/bidirectional_1/forward_lstm_1/while/body/_40/ISL_BiLSTM_Attn_1/bidirectional_1/forward_lstm_1/while/lstm_cell_1/add_1"], "attr": {"num_split": {"i": "4"}, "T": {"type": "DT_FLOAT"}}}, {"name": "StatefulPartitionedCall/ISL_BiLSTM_Attn_1/bidirectional_1/backward_lstm_1/while/body/_84/ISL_BiLSTM_Attn_1/bidirectional_1/backward_lstm_1/while/lstm_cell_1/split", "op": "Split", "input": ["StatefulPartitionedCall/ISL_BiLSTM_Attn_1/bidirectional_1/backward_lstm_1/while/body/_84/ISL_BiLSTM_Attn_1/bidirectional_1/backward_lstm_1/while/lstm_cell_1/split/split_dim", "StatefulPartitionedCall/ISL_BiLSTM_Attn_1/bidirectional_1/backward_lstm_1/while/body/_84/ISL_BiLSTM_Attn_1/bidirectional_1/backward_lstm_1/while/lstm_cell_1/add_1"], "attr": {"num_split": {"i": "4"}, "T": {"type": "DT_FLOAT"}}}, {"name": "StatefulPartitionedCall/ISL_BiLSTM_Attn_1/bidirectional_1_2/forward_lstm_1_1/TensorArrayUnstack/TensorListFromTensor", "op": "TensorListFromTensor", "input": ["StatefulPartitionedCall/ISL_BiLSTM_Attn_1/bidirectional_1_2/forward_lstm_1_1/transpose", "StatefulPartitionedCall/ISL_BiLSTM_Attn_1/bidirectional_1_2/forward_lstm_1_1/TensorArrayUnstack/TensorListFromTensor/element_shape"], "attr": {"shape_type": {"type": "DT_INT32"}, "_has_manual_control_dependencies": {"b": true}, "element_dtype": {"type": "DT_FLOAT"}}, "experimentalType": {"typeId": "TFT_PRODUCT", "args": [{"typeId": "TFT_ARRAY", "args": [{"typeId": "TFT_TENSOR", "args": [{"typeId": "TFT_FLOAT"}]}]}]}}, {"name": "StatefulPartitionedCall/ISL_BiLSTM_Attn_1/bidirectional_1_2/forward_lstm_1_1/strided_slice", "op": "StridedSlice", "input": ["StatefulPartitionedCall/ISL_BiLSTM_Attn_1/bidirectional_1_2/forward_lstm_1_1/Shape", "StatefulPartitionedCall/ISL_BiLSTM_Attn_1/bidirectional_1_2/forward_lstm_1_1/strided_slice/stack", "StatefulPartitionedCall/ISL_BiLSTM_Attn_1/bidirectional_1_2/forward_lstm_1_1/strided_slice/stack_1", "StatefulPartitionedCall/ISL_BiLSTM_Attn_1/bidirectional_1_2/forward_lstm_1_1/strided_slice/stack_2"], "attr": {"shrink_axis_mask": {"i": "1"}, "Index": {"type": "DT_INT32"}, "new_axis_mask": {"i": "0"}, "begin_mask": {"i": "0"}, "T": {"type": "DT_INT32"}, "end_mask": {"i": "0"}, "ellipsis_mask": {"i": "0"}}}, {"name": "StatefulPartitionedCall/ISL_BiLSTM_Attn_1/bidirectional_1_2/backward_lstm_1_1/ReverseV2", "op": "ReverseV2", "input": ["StatefulPartitionedCall/ISL_BiLSTM_Attn_1/bidirectional_1_2/backward_lstm_1_1/transpose", "StatefulPartitionedCall/ISL_BiLSTM_Attn_1/bidirectional_1_2/backward_lstm_1_1/ReverseV2/axis"], "attr": {"Tidx": {"type": "DT_INT32"}, "T": {"type": "DT_FLOAT"}}}, {"name": "StatefulPartitionedCall/ISL_BiLSTM_Attn_1/bidirectional_1_2/backward_lstm_1_1/strided_slice", "op": "StridedSlice", "input": ["StatefulPartitionedCall/ISL_BiLSTM_Attn_1/bidirectional_1_2/backward_lstm_1_1/Shape", "StatefulPartitionedCall/ISL_BiLSTM_Attn_1/bidirectional_1_2/backward_lstm_1_1/strided_slice/stack", "StatefulPartitionedCall/ISL_BiLSTM_Attn_1/bidirectional_1_2/backward_lstm_1_1/strided_slice/stack_1", "StatefulPartitionedCall/ISL_BiLSTM_Attn_1/bidirectional_1_2/backward_lstm_1_1/strided_slice/stack_2"], "attr": {"shrink_axis_mask": {"i": "1"}, "Index": {"type": "DT_INT32"}, "new_axis_mask": {"i": "0"}, "begin_mask": {"i": "0"}, "end_mask": {"i": "0"}, "T": {"type": "DT_INT32"}, "ellipsis_mask": {"i": "0"}}}, {"name": "StatefulPartitionedCall/ISL_BiLSTM_Attn_1/bidirectional_1/forward_lstm_1/while/body/_40/ISL_BiLSTM_Attn_1/bidirectional_1/forward_lstm_1/while/lstm_cell_1/Sigmoid", "op": "Sigmoid", "input": ["StatefulPartitionedCall/ISL_BiLSTM_Attn_1/bidirectional_1/forward_lstm_1/while/body/_40/ISL_BiLSTM_Attn_1/bidirectional_1/forward_lstm_1/while/lstm_cell_1/split"], "attr": {"_input_shapes": {"list": {"shape": [{"dim": [{"size": "-23"}, {"size": "128"}]}]}}, "T": {"type": "DT_FLOAT"}}}, {"name": "StatefulPartitionedCall/ISL_BiLSTM_Attn_1/bidirectional_1/forward_lstm_1/while/body/_40/ISL_BiLSTM_Attn_1/bidirectional_1/forward_lstm_1/while/lstm_cell_1/Sigmoid_1", "op": "Sigmoid", "input": ["StatefulPartitionedCall/ISL_BiLSTM_Attn_1/bidirectional_1/forward_lstm_1/while/body/_40/ISL_BiLSTM_Attn_1/bidirectional_1/forward_lstm_1/while/lstm_cell_1/split:1"], "attr": {"_input_shapes": {"list": {"shape": [{"dim": [{"size": "-23"}, {"size": "128"}]}]}}, "T": {"type": "DT_FLOAT"}}}, {"name": "StatefulPartitionedCall/ISL_BiLSTM_Attn_1/bidirectional_1/forward_lstm_1/while/body/_40/ISL_BiLSTM_Attn_1/bidirectional_1/forward_lstm_1/while/lstm_cell_1/Tanh", "op": "Tanh", "input": ["StatefulPartitionedCall/ISL_BiLSTM_Attn_1/bidirectional_1/forward_lstm_1/while/body/_40/ISL_BiLSTM_Attn_1/bidirectional_1/forward_lstm_1/while/lstm_cell_1/split:2"], "attr": {"T": {"type": "DT_FLOAT"}}}, {"name": "StatefulPartitionedCall/ISL_BiLSTM_Attn_1/bidirectional_1/forward_lstm_1/while/body/_40/ISL_BiLSTM_Attn_1/bidirectional_1/forward_lstm_1/while/lstm_cell_1/Sigmoid_2", "op": "Sigmoid", "input": ["StatefulPartitionedCall/ISL_BiLSTM_Attn_1/bidirectional_1/forward_lstm_1/while/body/_40/ISL_BiLSTM_Attn_1/bidirectional_1/forward_lstm_1/while/lstm_cell_1/split:3"], "attr": {"_input_shapes": {"list": {"shape": [{"dim": [{"size": "-23"}, {"size": "128"}]}]}}, "T": {"type": "DT_FLOAT"}}}, {"name": "StatefulPartitionedCall/ISL_BiLSTM_Attn_1/bidirectional_1/backward_lstm_1/while/body/_84/ISL_BiLSTM_Attn_1/bidirectional_1/backward_lstm_1/while/lstm_cell_1/Sigmoid", "op": "Sigmoid", "input": ["StatefulPartitionedCall/ISL_BiLSTM_Attn_1/bidirectional_1/backward_lstm_1/while/body/_84/ISL_BiLSTM_Attn_1/bidirectional_1/backward_lstm_1/while/lstm_cell_1/split"], "attr": {"T": {"type": "DT_FLOAT"}}}, {"name": "StatefulPartitionedCall/ISL_BiLSTM_Attn_1/bidirectional_1/backward_lstm_1/while/body/_84/ISL_BiLSTM_Attn_1/bidirectional_1/backward_lstm_1/while/lstm_cell_1/Sigmoid_1", "op": "Sigmoid", "input": ["StatefulPartitionedCall/ISL_BiLSTM_Attn_1/bidirectional_1/backward_lstm_1/while/body/_84/ISL_BiLSTM_Attn_1/bidirectional_1/backward_lstm_1/while/lstm_cell_1/split:1"], "attr": {"T": {"type": "DT_FLOAT"}}}, {"name": "StatefulPartitionedCall/ISL_BiLSTM_Attn_1/bidirectional_1/backward_lstm_1/while/body/_84/ISL_BiLSTM_Attn_1/bidirectional_1/backward_lstm_1/while/lstm_cell_1/Tanh", "op": "Tanh", "input": ["StatefulPartitionedCall/ISL_BiLSTM_Attn_1/bidirectional_1/backward_lstm_1/while/body/_84/ISL_BiLSTM_Attn_1/bidirectional_1/backward_lstm_1/while/lstm_cell_1/split:2"], "attr": {"T": {"type": "DT_FLOAT"}}}, {"name": "StatefulPartitionedCall/ISL_BiLSTM_Attn_1/bidirectional_1/backward_lstm_1/while/body/_84/ISL_BiLSTM_Attn_1/bidirectional_1/backward_lstm_1/while/lstm_cell_1/Sigmoid_2", "op": "Sigmoid", "input": ["StatefulPartitionedCall/ISL_BiLSTM_Attn_1/bidirectional_1/backward_lstm_1/while/body/_84/ISL_BiLSTM_Attn_1/bidirectional_1/backward_lstm_1/while/lstm_cell_1/split:3"], "attr": {"T": {"type": "DT_FLOAT"}}}, {"name": "StatefulPartitionedCall/ISL_BiLSTM_Attn_1/bidirectional_1_2/forward_lstm_1_1/zeros/packed", "op": "Pack", "input": ["StatefulPartitionedCall/ISL_BiLSTM_Attn_1/bidirectional_1_2/forward_lstm_1_1/strided_slice", "StatefulPartitionedCall/ISL_BiLSTM_Attn_1/bidirectional_1_2/forward_lstm_1_1/zeros/packed/1"], "attr": {"N": {"i": "2"}, "axis": {"i": "0"}, "T": {"type": "DT_INT32"}}}, {"name": "StatefulPartitionedCall/ISL_BiLSTM_Attn_1/bidirectional_1_2/forward_lstm_1_1/zeros_1/packed", "op": "Pack", "input": ["StatefulPartitionedCall/ISL_BiLSTM_Attn_1/bidirectional_1_2/forward_lstm_1_1/strided_slice", "StatefulPartitionedCall/ISL_BiLSTM_Attn_1/bidirectional_1_2/forward_lstm_1_1/zeros_1/packed/1"], "attr": {"N": {"i": "2"}, "axis": {"i": "0"}, "T": {"type": "DT_INT32"}}}, {"name": "StatefulPartitionedCall/ISL_BiLSTM_Attn_1/bidirectional_1_2/backward_lstm_1_1/TensorArrayUnstack/TensorListFromTensor", "op": "TensorListFromTensor", "input": ["StatefulPartitionedCall/ISL_BiLSTM_Attn_1/bidirectional_1_2/backward_lstm_1_1/ReverseV2", "StatefulPartitionedCall/ISL_BiLSTM_Attn_1/bidirectional_1_2/backward_lstm_1_1/TensorArrayUnstack/TensorListFromTensor/element_shape"], "attr": {"shape_type": {"type": "DT_INT32"}, "_has_manual_control_dependencies": {"b": true}, "element_dtype": {"type": "DT_FLOAT"}}, "experimentalType": {"typeId": "TFT_PRODUCT", "args": [{"typeId": "TFT_ARRAY", "args": [{"typeId": "TFT_TENSOR", "args": [{"typeId": "TFT_FLOAT"}]}]}]}}, {"name": "StatefulPartitionedCall/ISL_BiLSTM_Attn_1/bidirectional_1_2/backward_lstm_1_1/zeros/packed", "op": "Pack", "input": ["StatefulPartitionedCall/ISL_BiLSTM_Attn_1/bidirectional_1_2/backward_lstm_1_1/strided_slice", "StatefulPartitionedCall/ISL_BiLSTM_Attn_1/bidirectional_1_2/backward_lstm_1_1/zeros/packed/1"], "attr": {"N": {"i": "2"}, "axis": {"i": "0"}, "T": {"type": "DT_INT32"}}}, {"name": "StatefulPartitionedCall/ISL_BiLSTM_Attn_1/bidirectional_1_2/backward_lstm_1_1/zeros_1/packed", "op": "Pack", "input": ["StatefulPartitionedCall/ISL_BiLSTM_Attn_1/bidirectional_1_2/backward_lstm_1_1/strided_slice", "StatefulPartitionedCall/ISL_BiLSTM_Attn_1/bidirectional_1_2/backward_lstm_1_1/zeros_1/packed/1"], "attr": {"N": {"i": "2"}, "axis": {"i": "0"}, "T": {"type": "DT_INT32"}}}, {"name": "StatefulPartitionedCall/ISL_BiLSTM_Attn_1/bidirectional_1/forward_lstm_1/while/body/_40/ISL_BiLSTM_Attn_1/bidirectional_1/forward_lstm_1/while/lstm_cell_1/mul", "op": "Mul", "input": ["StatefulPartitionedCall/ISL_BiLSTM_Attn_1/bidirectional_1/forward_lstm_1/while/body/_40/ISL_BiLSTM_Attn_1/bidirectional_1/forward_lstm_1/while/lstm_cell_1/Sigmoid_1", "StatefulPartitionedCall/ISL_BiLSTM_Attn_1/bidirectional_1/forward_lstm_1/while/StatefulPartitionedCall/ISL_BiLSTM_Attn_1/bidirectional_1/forward_lstm_1/zeros_1_switch/_65:1"], "attr": {"T": {"type": "DT_FLOAT"}}}, {"name": "StatefulPartitionedCall/ISL_BiLSTM_Attn_1/bidirectional_1/forward_lstm_1/while/body/_40/ISL_BiLSTM_Attn_1/bidirectional_1/forward_lstm_1/while/lstm_cell_1/mul_1", "op": "Mul", "input": ["StatefulPartitionedCall/ISL_BiLSTM_Attn_1/bidirectional_1/forward_lstm_1/while/body/_40/ISL_BiLSTM_Attn_1/bidirectional_1/forward_lstm_1/while/lstm_cell_1/Sigmoid", "StatefulPartitionedCall/ISL_BiLSTM_Attn_1/bidirectional_1/forward_lstm_1/while/body/_40/ISL_BiLSTM_Attn_1/bidirectional_1/forward_lstm_1/while/lstm_cell_1/Tanh"], "attr": {"T": {"type": "DT_FLOAT"}}}, {"name": "StatefulPartitionedCall/ISL_BiLSTM_Attn_1/bidirectional_1/backward_lstm_1/while/body/_84/ISL_BiLSTM_Attn_1/bidirectional_1/backward_lstm_1/while/lstm_cell_1/mul", "op": "Mul", "input": ["StatefulPartitionedCall/ISL_BiLSTM_Attn_1/bidirectional_1/backward_lstm_1/while/body/_84/ISL_BiLSTM_Attn_1/bidirectional_1/backward_lstm_1/while/lstm_cell_1/Sigmoid_1", "StatefulPartitionedCall/ISL_BiLSTM_Attn_1/bidirectional_1/backward_lstm_1/while/StatefulPartitionedCall/ISL_BiLSTM_Attn_1/bidirectional_1/backward_lstm_1/zeros_1_switch/_109:1"], "attr": {"T": {"type": "DT_FLOAT"}}}, {"name": "StatefulPartitionedCall/ISL_BiLSTM_Attn_1/bidirectional_1/backward_lstm_1/while/body/_84/ISL_BiLSTM_Attn_1/bidirectional_1/backward_lstm_1/while/lstm_cell_1/mul_1", "op": "Mul", "input": ["StatefulPartitionedCall/ISL_BiLSTM_Attn_1/bidirectional_1/backward_lstm_1/while/body/_84/ISL_BiLSTM_Attn_1/bidirectional_1/backward_lstm_1/while/lstm_cell_1/Sigmoid", "StatefulPartitionedCall/ISL_BiLSTM_Attn_1/bidirectional_1/backward_lstm_1/while/body/_84/ISL_BiLSTM_Attn_1/bidirectional_1/backward_lstm_1/while/lstm_cell_1/Tanh"], "attr": {"T": {"type": "DT_FLOAT"}}}, {"name": "StatefulPartitionedCall/ISL_BiLSTM_Attn_1/bidirectional_1_2/forward_lstm_1_1/zeros", "op": "Fill", "input": ["StatefulPartitionedCall/ISL_BiLSTM_Attn_1/bidirectional_1_2/forward_lstm_1_1/zeros/packed", "StatefulPartitionedCall/ISL_BiLSTM_Attn_1/bidirectional_1_2/forward_lstm_1_1/zeros/Const"], "attr": {"_has_manual_control_dependencies": {"b": true}, "T": {"type": "DT_FLOAT"}, "index_type": {"type": "DT_INT32"}}}, {"name": "StatefulPartitionedCall/ISL_BiLSTM_Attn_1/bidirectional_1_2/forward_lstm_1_1/zeros_1", "op": "Fill", "input": ["StatefulPartitionedCall/ISL_BiLSTM_Attn_1/bidirectional_1_2/forward_lstm_1_1/zeros_1/packed", "StatefulPartitionedCall/ISL_BiLSTM_Attn_1/bidirectional_1_2/forward_lstm_1_1/zeros_1/Const"], "attr": {"_has_manual_control_dependencies": {"b": true}, "T": {"type": "DT_FLOAT"}, "index_type": {"type": "DT_INT32"}}}, {"name": "StatefulPartitionedCall/ISL_BiLSTM_Attn_1/bidirectional_1_2/backward_lstm_1_1/zeros", "op": "Fill", "input": ["StatefulPartitionedCall/ISL_BiLSTM_Attn_1/bidirectional_1_2/backward_lstm_1_1/zeros/packed", "StatefulPartitionedCall/ISL_BiLSTM_Attn_1/bidirectional_1_2/backward_lstm_1_1/zeros/Const"], "attr": {"_has_manual_control_dependencies": {"b": true}, "T": {"type": "DT_FLOAT"}, "index_type": {"type": "DT_INT32"}}}, {"name": "StatefulPartitionedCall/ISL_BiLSTM_Attn_1/bidirectional_1_2/backward_lstm_1_1/zeros_1", "op": "Fill", "input": ["StatefulPartitionedCall/ISL_BiLSTM_Attn_1/bidirectional_1_2/backward_lstm_1_1/zeros_1/packed", "StatefulPartitionedCall/ISL_BiLSTM_Attn_1/bidirectional_1_2/backward_lstm_1_1/zeros_1/Const"], "attr": {"_has_manual_control_dependencies": {"b": true}, "T": {"type": "DT_FLOAT"}, "index_type": {"type": "DT_INT32"}}}, {"name": "StatefulPartitionedCall/ISL_BiLSTM_Attn_1/bidirectional_1/forward_lstm_1/while/body/_40/ISL_BiLSTM_Attn_1/bidirectional_1/forward_lstm_1/while/lstm_cell_1/add_2", "op": "AddV2", "input": ["StatefulPartitionedCall/ISL_BiLSTM_Attn_1/bidirectional_1/forward_lstm_1/while/body/_40/ISL_BiLSTM_Attn_1/bidirectional_1/forward_lstm_1/while/lstm_cell_1/mul", "StatefulPartitionedCall/ISL_BiLSTM_Attn_1/bidirectional_1/forward_lstm_1/while/body/_40/ISL_BiLSTM_Attn_1/bidirectional_1/forward_lstm_1/while/lstm_cell_1/mul_1"], "attr": {"T": {"type": "DT_FLOAT"}}}, {"name": "StatefulPartitionedCall/ISL_BiLSTM_Attn_1/bidirectional_1/backward_lstm_1/while/body/_84/ISL_BiLSTM_Attn_1/bidirectional_1/backward_lstm_1/while/lstm_cell_1/add_2", "op": "AddV2", "input": ["StatefulPartitionedCall/ISL_BiLSTM_Attn_1/bidirectional_1/backward_lstm_1/while/body/_84/ISL_BiLSTM_Attn_1/bidirectional_1/backward_lstm_1/while/lstm_cell_1/mul", "StatefulPartitionedCall/ISL_BiLSTM_Attn_1/bidirectional_1/backward_lstm_1/while/body/_84/ISL_BiLSTM_Attn_1/bidirectional_1/backward_lstm_1/while/lstm_cell_1/mul_1"], "attr": {"T": {"type": "DT_FLOAT"}}}, {"name": "StatefulPartitionedCall/ISL_BiLSTM_Attn_1/bidirectional_1_2/forward_lstm_1_1/while/LoopControlInputs/_139", "op": "NoOp", "input": ["^StatefulPartitionedCall/ISL_BiLSTM_Attn_1/bidirectional_1_2/forward_lstm_1_1/TensorArrayUnstack/TensorListFromTensor", "^StatefulPartitionedCall/ISL_BiLSTM_Attn_1/bidirectional_1_2/forward_lstm_1_1/TensorArrayV2_1", "^StatefulPartitionedCall/ISL_BiLSTM_Attn_1/bidirectional_1_2/forward_lstm_1_1/zeros", "^StatefulPartitionedCall/ISL_BiLSTM_Attn_1/bidirectional_1_2/forward_lstm_1_1/zeros_1"], "attr": {"_has_manual_control_dependencies": {"b": true}}}, {"name": "StatefulPartitionedCall/ISL_BiLSTM_Attn_1/bidirectional_1_2/backward_lstm_1_1/while/LoopControlInputs/_183", "op": "NoOp", "input": ["^StatefulPartitionedCall/ISL_BiLSTM_Attn_1/bidirectional_1_2/backward_lstm_1_1/TensorArrayUnstack/TensorListFromTensor", "^StatefulPartitionedCall/ISL_BiLSTM_Attn_1/bidirectional_1_2/backward_lstm_1_1/TensorArrayV2_1", "^StatefulPartitionedCall/ISL_BiLSTM_Attn_1/bidirectional_1_2/backward_lstm_1_1/zeros", "^StatefulPartitionedCall/ISL_BiLSTM_Attn_1/bidirectional_1_2/backward_lstm_1_1/zeros_1"], "attr": {"_has_manual_control_dependencies": {"b": true}}}, {"name": "StatefulPartitionedCall/ISL_BiLSTM_Attn_1/bidirectional_1/forward_lstm_1/while/body/_40/ISL_BiLSTM_Attn_1/bidirectional_1/forward_lstm_1/while/lstm_cell_1/Tanh_1", "op": "Tanh", "input": ["StatefulPartitionedCall/ISL_BiLSTM_Attn_1/bidirectional_1/forward_lstm_1/while/body/_40/ISL_BiLSTM_Attn_1/bidirectional_1/forward_lstm_1/while/lstm_cell_1/add_2"], "attr": {"T": {"type": "DT_FLOAT"}}}, {"name": "StatefulPartitionedCall/ISL_BiLSTM_Attn_1/bidirectional_1/forward_lstm_1/while/next_iteration/_81", "op": "NextIteration", "input": ["StatefulPartitionedCall/ISL_BiLSTM_Attn_1/bidirectional_1/forward_lstm_1/while/body/_40/ISL_BiLSTM_Attn_1/bidirectional_1/forward_lstm_1/while/lstm_cell_1/add_2", "^Func/StatefulPartitionedCall/ISL_BiLSTM_Attn_1/bidirectional_1/forward_lstm_1/while/body/_40/output_control_node/_248", "^StatefulPartitionedCall/ISL_BiLSTM_Attn_1/bidirectional_1/forward_lstm_1/while/body/_40/ISL_BiLSTM_Attn_1/bidirectional_1/forward_lstm_1/while/NoOp"], "attr": {"T": {"type": "DT_FLOAT"}}}, {"name": "StatefulPartitionedCall/ISL_BiLSTM_Attn_1/bidirectional_1/backward_lstm_1/while/body/_84/ISL_BiLSTM_Attn_1/bidirectional_1/backward_lstm_1/while/lstm_cell_1/Tanh_1", "op": "Tanh", "input": ["StatefulPartitionedCall/ISL_BiLSTM_Attn_1/bidirectional_1/backward_lstm_1/while/body/_84/ISL_BiLSTM_Attn_1/bidirectional_1/backward_lstm_1/while/lstm_cell_1/add_2"], "attr": {"T": {"type": "DT_FLOAT"}}}, {"name": "StatefulPartitionedCall/ISL_BiLSTM_Attn_1/bidirectional_1/backward_lstm_1/while/next_iteration/_125", "op": "NextIteration", "input": ["StatefulPartitionedCall/ISL_BiLSTM_Attn_1/bidirectional_1/backward_lstm_1/while/body/_84/ISL_BiLSTM_Attn_1/bidirectional_1/backward_lstm_1/while/lstm_cell_1/add_2", "^Func/StatefulPartitionedCall/ISL_BiLSTM_Attn_1/bidirectional_1/backward_lstm_1/while/body/_84/output_control_node/_282", "^StatefulPartitionedCall/ISL_BiLSTM_Attn_1/bidirectional_1/backward_lstm_1/while/body/_84/ISL_BiLSTM_Attn_1/bidirectional_1/backward_lstm_1/while/NoOp"], "attr": {"T": {"type": "DT_FLOAT"}}}, {"name": "StatefulPartitionedCall/ISL_BiLSTM_Attn_1/bidirectional_1_2/forward_lstm_1_1/while/enter/_134", "op": "Enter", "input": ["StatefulPartitionedCall/ISL_BiLSTM_Attn_1/bidirectional_1_2/forward_lstm_1_1/zeros_1", "^StatefulPartitionedCall/ISL_BiLSTM_Attn_1/bidirectional_1_2/forward_lstm_1_1/while/LoopControlInputs/_139"], "attr": {"is_constant": {"b": false}, "frame_name": {"s": "U3RhdGVmdWxQYXJ0aXRpb25lZENhbGwvSVNMX0JpTFNUTV9BdHRuXzEvYmlkaXJlY3Rpb25hbF8xXzIvZm9yd2FyZF9sc3RtXzFfMS93aGlsZQ=="}, "T": {"type": "DT_FLOAT"}, "parallel_iterations": {"i": "32"}}}, {"name": "StatefulPartitionedCall/ISL_BiLSTM_Attn_1/bidirectional_1_2/forward_lstm_1_1/while/enter/_135", "op": "Enter", "input": ["StatefulPartitionedCall/ISL_BiLSTM_Attn_1/bidirectional_1_2/forward_lstm_1_1/TensorArrayUnstack/TensorListFromTensor", "^StatefulPartitionedCall/ISL_BiLSTM_Attn_1/bidirectional_1_2/forward_lstm_1_1/while/LoopControlInputs/_139"], "attr": {"is_constant": {"b": false}, "frame_name": {"s": "U3RhdGVmdWxQYXJ0aXRpb25lZENhbGwvSVNMX0JpTFNUTV9BdHRuXzEvYmlkaXJlY3Rpb25hbF8xXzIvZm9yd2FyZF9sc3RtXzFfMS93aGlsZQ=="}, "T": {"type": "DT_VARIANT"}, "parallel_iterations": {"i": "32"}}}, {"name": "StatefulPartitionedCall/ISL_BiLSTM_Attn_1/bidirectional_1_2/forward_lstm_1_1/while/enter/_130", "op": "Enter", "input": ["StatefulPartitionedCall/ISL_BiLSTM_Attn_1/bidirectional_1_2/forward_lstm_1_1/Max", "^StatefulPartitionedCall/ISL_BiLSTM_Attn_1/bidirectional_1_2/forward_lstm_1_1/while/LoopControlInputs/_139"], "attr": {"is_constant": {"b": false}, "frame_name": {"s": "U3RhdGVmdWxQYXJ0aXRpb25lZENhbGwvSVNMX0JpTFNUTV9BdHRuXzEvYmlkaXJlY3Rpb25hbF8xXzIvZm9yd2FyZF9sc3RtXzFfMS93aGlsZQ=="}, "T": {"type": "DT_INT32"}, "parallel_iterations": {"i": "32"}}}, {"name": "StatefulPartitionedCall/ISL_BiLSTM_Attn_1/bidirectional_1_2/forward_lstm_1_1/while/enter/_132", "op": "Enter", "input": ["StatefulPartitionedCall/ISL_BiLSTM_Attn_1/bidirectional_1_2/forward_lstm_1_1/TensorArrayV2_1", "^StatefulPartitionedCall/ISL_BiLSTM_Attn_1/bidirectional_1_2/forward_lstm_1_1/while/LoopControlInputs/_139"], "attr": {"is_constant": {"b": false}, "frame_name": {"s": "U3RhdGVmdWxQYXJ0aXRpb25lZENhbGwvSVNMX0JpTFNUTV9BdHRuXzEvYmlkaXJlY3Rpb25hbF8xXzIvZm9yd2FyZF9sc3RtXzFfMS93aGlsZQ=="}, "T": {"type": "DT_VARIANT"}, "parallel_iterations": {"i": "32"}}}, {"name": "StatefulPartitionedCall/ISL_BiLSTM_Attn_1/bidirectional_1_2/forward_lstm_1_1/while/enter/_129", "op": "Enter", "input": ["StatefulPartitionedCall/ISL_BiLSTM_Attn_1/bidirectional_1_2/forward_lstm_1_1/while/loop_counter", "^StatefulPartitionedCall/ISL_BiLSTM_Attn_1/bidirectional_1_2/forward_lstm_1_1/while/LoopControlInputs/_139"], "attr": {"is_constant": {"b": false}, "frame_name": {"s": "U3RhdGVmdWxQYXJ0aXRpb25lZENhbGwvSVNMX0JpTFNUTV9BdHRuXzEvYmlkaXJlY3Rpb25hbF8xXzIvZm9yd2FyZF9sc3RtXzFfMS93aGlsZQ=="}, "T": {"type": "DT_INT32"}, "parallel_iterations": {"i": "32"}}}, {"name": "StatefulPartitionedCall/ISL_BiLSTM_Attn_1/bidirectional_1_2/forward_lstm_1_1/while/enter/_133", "op": "Enter", "input": ["StatefulPartitionedCall/ISL_BiLSTM_Attn_1/bidirectional_1_2/forward_lstm_1_1/zeros", "^StatefulPartitionedCall/ISL_BiLSTM_Attn_1/bidirectional_1_2/forward_lstm_1_1/while/LoopControlInputs/_139"], "attr": {"is_constant": {"b": false}, "frame_name": {"s": "U3RhdGVmdWxQYXJ0aXRpb25lZENhbGwvSVNMX0JpTFNUTV9BdHRuXzEvYmlkaXJlY3Rpb25hbF8xXzIvZm9yd2FyZF9sc3RtXzFfMS93aGlsZQ=="}, "T": {"type": "DT_FLOAT"}, "parallel_iterations": {"i": "32"}}}, {"name": "StatefulPartitionedCall/ISL_BiLSTM_Attn_1/bidirectional_1_2/forward_lstm_1_1/while/enter/_131", "op": "Enter", "input": ["StatefulPartitionedCall/ISL_BiLSTM_Attn_1/bidirectional_1_2/forward_lstm_1_1/time", "^StatefulPartitionedCall/ISL_BiLSTM_Attn_1/bidirectional_1_2/forward_lstm_1_1/while/LoopControlInputs/_139"], "attr": {"is_constant": {"b": false}, "frame_name": {"s": "U3RhdGVmdWxQYXJ0aXRpb25lZENhbGwvSVNMX0JpTFNUTV9BdHRuXzEvYmlkaXJlY3Rpb25hbF8xXzIvZm9yd2FyZF9sc3RtXzFfMS93aGlsZQ=="}, "T": {"type": "DT_INT32"}, "parallel_iterations": {"i": "32"}}}, {"name": "StatefulPartitionedCall/ISL_BiLSTM_Attn_1/bidirectional_1_2/forward_lstm_1_1/while/enter/_136", "op": "Enter", "input": ["Func/StatefulPartitionedCall/input/_13", "^StatefulPartitionedCall/ISL_BiLSTM_Attn_1/bidirectional_1_2/forward_lstm_1_1/while/LoopControlInputs/_139"], "attr": {"is_constant": {"b": true}, "_has_manual_control_dependencies": {"b": true}, "T": {"type": "DT_FLOAT"}, "frame_name": {"s": "U3RhdGVmdWxQYXJ0aXRpb25lZENhbGwvSVNMX0JpTFNUTV9BdHRuXzEvYmlkaXJlY3Rpb25hbF8xXzIvZm9yd2FyZF9sc3RtXzFfMS93aGlsZQ=="}, "parallel_iterations": {"i": "32"}}}, {"name": "StatefulPartitionedCall/ISL_BiLSTM_Attn_1/bidirectional_1_2/forward_lstm_1_1/while/enter/_137", "op": "Enter", "input": ["Func/StatefulPartitionedCall/input/_14", "^StatefulPartitionedCall/ISL_BiLSTM_Attn_1/bidirectional_1_2/forward_lstm_1_1/while/LoopControlInputs/_139"], "attr": {"is_constant": {"b": true}, "frame_name": {"s": "U3RhdGVmdWxQYXJ0aXRpb25lZENhbGwvSVNMX0JpTFNUTV9BdHRuXzEvYmlkaXJlY3Rpb25hbF8xXzIvZm9yd2FyZF9sc3RtXzFfMS93aGlsZQ=="}, "T": {"type": "DT_FLOAT"}, "_has_manual_control_dependencies": {"b": true}, "parallel_iterations": {"i": "32"}}}, {"name": "StatefulPartitionedCall/ISL_BiLSTM_Attn_1/bidirectional_1_2/forward_lstm_1_1/while/enter/_138", "op": "Enter", "input": ["Func/StatefulPartitionedCall/input/_15", "^StatefulPartitionedCall/ISL_BiLSTM_Attn_1/bidirectional_1_2/forward_lstm_1_1/while/LoopControlInputs/_139"], "attr": {"is_constant": {"b": true}, "_has_manual_control_dependencies": {"b": true}, "T": {"type": "DT_FLOAT"}, "frame_name": {"s": "U3RhdGVmdWxQYXJ0aXRpb25lZENhbGwvSVNMX0JpTFNUTV9BdHRuXzEvYmlkaXJlY3Rpb25hbF8xXzIvZm9yd2FyZF9sc3RtXzFfMS93aGlsZQ=="}, "parallel_iterations": {"i": "32"}}}, {"name": "StatefulPartitionedCall/ISL_BiLSTM_Attn_1/bidirectional_1_2/backward_lstm_1_1/while/enter/_173", "op": "Enter", "input": ["StatefulPartitionedCall/ISL_BiLSTM_Attn_1/bidirectional_1_2/backward_lstm_1_1/while/loop_counter", "^StatefulPartitionedCall/ISL_BiLSTM_Attn_1/bidirectional_1_2/backward_lstm_1_1/while/LoopControlInputs/_183"], "attr": {"is_constant": {"b": false}, "frame_name": {"s": "U3RhdGVmdWxQYXJ0aXRpb25lZENhbGwvSVNMX0JpTFNUTV9BdHRuXzEvYmlkaXJlY3Rpb25hbF8xXzIvYmFja3dhcmRfbHN0bV8xXzEvd2hpbGU="}, "T": {"type": "DT_INT32"}, "parallel_iterations": {"i": "32"}}}, {"name": "StatefulPartitionedCall/ISL_BiLSTM_Attn_1/bidirectional_1_2/backward_lstm_1_1/while/enter/_179", "op": "Enter", "input": ["StatefulPartitionedCall/ISL_BiLSTM_Attn_1/bidirectional_1_2/backward_lstm_1_1/TensorArrayUnstack/TensorListFromTensor", "^StatefulPartitionedCall/ISL_BiLSTM_Attn_1/bidirectional_1_2/backward_lstm_1_1/while/LoopControlInputs/_183"], "attr": {"is_constant": {"b": false}, "frame_name": {"s": "U3RhdGVmdWxQYXJ0aXRpb25lZENhbGwvSVNMX0JpTFNUTV9BdHRuXzEvYmlkaXJlY3Rpb25hbF8xXzIvYmFja3dhcmRfbHN0bV8xXzEvd2hpbGU="}, "T": {"type": "DT_VARIANT"}, "parallel_iterations": {"i": "32"}}}, {"name": "StatefulPartitionedCall/ISL_BiLSTM_Attn_1/bidirectional_1_2/backward_lstm_1_1/while/enter/_174", "op": "Enter", "input": ["StatefulPartitionedCall/ISL_BiLSTM_Attn_1/bidirectional_1_2/backward_lstm_1_1/Max", "^StatefulPartitionedCall/ISL_BiLSTM_Attn_1/bidirectional_1_2/backward_lstm_1_1/while/LoopControlInputs/_183"], "attr": {"is_constant": {"b": false}, "frame_name": {"s": "U3RhdGVmdWxQYXJ0aXRpb25lZENhbGwvSVNMX0JpTFNUTV9BdHRuXzEvYmlkaXJlY3Rpb25hbF8xXzIvYmFja3dhcmRfbHN0bV8xXzEvd2hpbGU="}, "T": {"type": "DT_INT32"}, "parallel_iterations": {"i": "32"}}}, {"name": "StatefulPartitionedCall/ISL_BiLSTM_Attn_1/bidirectional_1_2/backward_lstm_1_1/while/enter/_176", "op": "Enter", "input": ["StatefulPartitionedCall/ISL_BiLSTM_Attn_1/bidirectional_1_2/backward_lstm_1_1/TensorArrayV2_1", "^StatefulPartitionedCall/ISL_BiLSTM_Attn_1/bidirectional_1_2/backward_lstm_1_1/while/LoopControlInputs/_183"], "attr": {"is_constant": {"b": false}, "frame_name": {"s": "U3RhdGVmdWxQYXJ0aXRpb25lZENhbGwvSVNMX0JpTFNUTV9BdHRuXzEvYmlkaXJlY3Rpb25hbF8xXzIvYmFja3dhcmRfbHN0bV8xXzEvd2hpbGU="}, "T": {"type": "DT_VARIANT"}, "parallel_iterations": {"i": "32"}}}, {"name": "StatefulPartitionedCall/ISL_BiLSTM_Attn_1/bidirectional_1_2/backward_lstm_1_1/while/enter/_177", "op": "Enter", "input": ["StatefulPartitionedCall/ISL_BiLSTM_Attn_1/bidirectional_1_2/backward_lstm_1_1/zeros", "^StatefulPartitionedCall/ISL_BiLSTM_Attn_1/bidirectional_1_2/backward_lstm_1_1/while/LoopControlInputs/_183"], "attr": {"is_constant": {"b": false}, "frame_name": {"s": "U3RhdGVmdWxQYXJ0aXRpb25lZENhbGwvSVNMX0JpTFNUTV9BdHRuXzEvYmlkaXJlY3Rpb25hbF8xXzIvYmFja3dhcmRfbHN0bV8xXzEvd2hpbGU="}, "T": {"type": "DT_FLOAT"}, "parallel_iterations": {"i": "32"}}}, {"name": "StatefulPartitionedCall/ISL_BiLSTM_Attn_1/bidirectional_1_2/backward_lstm_1_1/while/enter/_178", "op": "Enter", "input": ["StatefulPartitionedCall/ISL_BiLSTM_Attn_1/bidirectional_1_2/backward_lstm_1_1/zeros_1", "^StatefulPartitionedCall/ISL_BiLSTM_Attn_1/bidirectional_1_2/backward_lstm_1_1/while/LoopControlInputs/_183"], "attr": {"is_constant": {"b": false}, "frame_name": {"s": "U3RhdGVmdWxQYXJ0aXRpb25lZENhbGwvSVNMX0JpTFNUTV9BdHRuXzEvYmlkaXJlY3Rpb25hbF8xXzIvYmFja3dhcmRfbHN0bV8xXzEvd2hpbGU="}, "T": {"type": "DT_FLOAT"}, "parallel_iterations": {"i": "32"}}}, {"name": "StatefulPartitionedCall/ISL_BiLSTM_Attn_1/bidirectional_1_2/backward_lstm_1_1/while/enter/_175", "op": "Enter", "input": ["StatefulPartitionedCall/ISL_BiLSTM_Attn_1/bidirectional_1_2/backward_lstm_1_1/time", "^StatefulPartitionedCall/ISL_BiLSTM_Attn_1/bidirectional_1_2/backward_lstm_1_1/while/LoopControlInputs/_183"], "attr": {"is_constant": {"b": false}, "frame_name": {"s": "U3RhdGVmdWxQYXJ0aXRpb25lZENhbGwvSVNMX0JpTFNUTV9BdHRuXzEvYmlkaXJlY3Rpb25hbF8xXzIvYmFja3dhcmRfbHN0bV8xXzEvd2hpbGU="}, "T": {"type": "DT_INT32"}, "parallel_iterations": {"i": "32"}}}, {"name": "StatefulPartitionedCall/ISL_BiLSTM_Attn_1/bidirectional_1_2/backward_lstm_1_1/while/enter/_180", "op": "Enter", "input": ["Func/StatefulPartitionedCall/input/_16", "^StatefulPartitionedCall/ISL_BiLSTM_Attn_1/bidirectional_1_2/backward_lstm_1_1/while/LoopControlInputs/_183"], "attr": {"is_constant": {"b": true}, "frame_name": {"s": "U3RhdGVmdWxQYXJ0aXRpb25lZENhbGwvSVNMX0JpTFNUTV9BdHRuXzEvYmlkaXJlY3Rpb25hbF8xXzIvYmFja3dhcmRfbHN0bV8xXzEvd2hpbGU="}, "T": {"type": "DT_FLOAT"}, "parallel_iterations": {"i": "32"}}}, {"name": "StatefulPartitionedCall/ISL_BiLSTM_Attn_1/bidirectional_1_2/backward_lstm_1_1/while/enter/_181", "op": "Enter", "input": ["Func/StatefulPartitionedCall/input/_17", "^StatefulPartitionedCall/ISL_BiLSTM_Attn_1/bidirectional_1_2/backward_lstm_1_1/while/LoopControlInputs/_183"], "attr": {"is_constant": {"b": true}, "frame_name": {"s": "U3RhdGVmdWxQYXJ0aXRpb25lZENhbGwvSVNMX0JpTFNUTV9BdHRuXzEvYmlkaXJlY3Rpb25hbF8xXzIvYmFja3dhcmRfbHN0bV8xXzEvd2hpbGU="}, "T": {"type": "DT_FLOAT"}, "parallel_iterations": {"i": "32"}}}, {"name": "StatefulPartitionedCall/ISL_BiLSTM_Attn_1/bidirectional_1_2/backward_lstm_1_1/while/enter/_182", "op": "Enter", "input": ["Func/StatefulPartitionedCall/input/_18", "^StatefulPartitionedCall/ISL_BiLSTM_Attn_1/bidirectional_1_2/backward_lstm_1_1/while/LoopControlInputs/_183"], "attr": {"is_constant": {"b": true}, "frame_name": {"s": "U3RhdGVmdWxQYXJ0aXRpb25lZENhbGwvSVNMX0JpTFNUTV9BdHRuXzEvYmlkaXJlY3Rpb25hbF8xXzIvYmFja3dhcmRfbHN0bV8xXzEvd2hpbGU="}, "T": {"type": "DT_FLOAT"}, "parallel_iterations": {"i": "32"}}}, {"name": "StatefulPartitionedCall/ISL_BiLSTM_Attn_1/bidirectional_1/forward_lstm_1/while/body/_40/ISL_BiLSTM_Attn_1/bidirectional_1/forward_lstm_1/while/lstm_cell_1/mul_2", "op": "Mul", "input": ["StatefulPartitionedCall/ISL_BiLSTM_Attn_1/bidirectional_1/forward_lstm_1/while/body/_40/ISL_BiLSTM_Attn_1/bidirectional_1/forward_lstm_1/while/lstm_cell_1/Sigmoid_2", "StatefulPartitionedCall/ISL_BiLSTM_Attn_1/bidirectional_1/forward_lstm_1/while/body/_40/ISL_BiLSTM_Attn_1/bidirectional_1/forward_lstm_1/while/lstm_cell_1/Tanh_1"], "attr": {"T": {"type": "DT_FLOAT"}}}, {"name": "StatefulPartitionedCall/ISL_BiLSTM_Attn_1/bidirectional_1/backward_lstm_1/while/body/_84/ISL_BiLSTM_Attn_1/bidirectional_1/backward_lstm_1/while/lstm_cell_1/mul_2", "op": "Mul", "input": ["StatefulPartitionedCall/ISL_BiLSTM_Attn_1/bidirectional_1/backward_lstm_1/while/body/_84/ISL_BiLSTM_Attn_1/bidirectional_1/backward_lstm_1/while/lstm_cell_1/Sigmoid_2", "StatefulPartitionedCall/ISL_BiLSTM_Attn_1/bidirectional_1/backward_lstm_1/while/body/_84/ISL_BiLSTM_Attn_1/bidirectional_1/backward_lstm_1/while/lstm_cell_1/Tanh_1"], "attr": {"T": {"type": "DT_FLOAT"}}}, {"name": "StatefulPartitionedCall/ISL_BiLSTM_Attn_1/bidirectional_1_2/forward_lstm_1_1/while/merge/_145", "op": "Merge", "input": ["StatefulPartitionedCall/ISL_BiLSTM_Attn_1/bidirectional_1_2/forward_lstm_1_1/while/enter/_134", "StatefulPartitionedCall/ISL_BiLSTM_Attn_1/bidirectional_1_2/forward_lstm_1_1/while/next_iteration/_169"], "attr": {"N": {"i": "2"}, "_has_manual_control_dependencies": {"b": true}, "T": {"type": "DT_FLOAT"}}}, {"name": "StatefulPartitionedCall/ISL_BiLSTM_Attn_1/bidirectional_1_2/forward_lstm_1_1/while/merge/_146", "op": "Merge", "input": ["StatefulPartitionedCall/ISL_BiLSTM_Attn_1/bidirectional_1_2/forward_lstm_1_1/while/enter/_135", "StatefulPartitionedCall/ISL_BiLSTM_Attn_1/bidirectional_1_2/forward_lstm_1_1/while/next_iteration/_170"], "attr": {"N": {"i": "2"}, "_has_manual_control_dependencies": {"b": true}, "T": {"type": "DT_VARIANT"}}}, {"name": "StatefulPartitionedCall/ISL_BiLSTM_Attn_1/bidirectional_1_2/forward_lstm_1_1/while/merge/_141", "op": "Merge", "input": ["StatefulPartitionedCall/ISL_BiLSTM_Attn_1/bidirectional_1_2/forward_lstm_1_1/while/enter/_130", "StatefulPartitionedCall/ISL_BiLSTM_Attn_1/bidirectional_1_2/forward_lstm_1_1/while/next_iteration/_165"], "attr": {"N": {"i": "2"}, "_has_manual_control_dependencies": {"b": true}, "T": {"type": "DT_INT32"}}}, {"name": "StatefulPartitionedCall/ISL_BiLSTM_Attn_1/bidirectional_1_2/forward_lstm_1_1/while/merge/_143", "op": "Merge", "input": ["StatefulPartitionedCall/ISL_BiLSTM_Attn_1/bidirectional_1_2/forward_lstm_1_1/while/enter/_132", "StatefulPartitionedCall/ISL_BiLSTM_Attn_1/bidirectional_1_2/forward_lstm_1_1/while/next_iteration/_167"], "attr": {"N": {"i": "2"}, "_has_manual_control_dependencies": {"b": true}, "T": {"type": "DT_VARIANT"}}}, {"name": "StatefulPartitionedCall/ISL_BiLSTM_Attn_1/bidirectional_1_2/forward_lstm_1_1/while/merge/_140", "op": "Merge", "input": ["StatefulPartitionedCall/ISL_BiLSTM_Attn_1/bidirectional_1_2/forward_lstm_1_1/while/enter/_129", "StatefulPartitionedCall/ISL_BiLSTM_Attn_1/bidirectional_1_2/forward_lstm_1_1/while/next_iteration/_164"], "attr": {"N": {"i": "2"}, "_has_manual_control_dependencies": {"b": true}, "T": {"type": "DT_INT32"}}}, {"name": "StatefulPartitionedCall/ISL_BiLSTM_Attn_1/bidirectional_1_2/forward_lstm_1_1/while/merge/_144", "op": "Merge", "input": ["StatefulPartitionedCall/ISL_BiLSTM_Attn_1/bidirectional_1_2/forward_lstm_1_1/while/enter/_133", "StatefulPartitionedCall/ISL_BiLSTM_Attn_1/bidirectional_1_2/forward_lstm_1_1/while/next_iteration/_168"], "attr": {"N": {"i": "2"}, "_has_manual_control_dependencies": {"b": true}, "T": {"type": "DT_FLOAT"}}}, {"name": "StatefulPartitionedCall/ISL_BiLSTM_Attn_1/bidirectional_1_2/forward_lstm_1_1/while/merge/_142", "op": "Merge", "input": ["StatefulPartitionedCall/ISL_BiLSTM_Attn_1/bidirectional_1_2/forward_lstm_1_1/while/enter/_131", "StatefulPartitionedCall/ISL_BiLSTM_Attn_1/bidirectional_1_2/forward_lstm_1_1/while/next_iteration/_166"], "attr": {"N": {"i": "2"}, "_has_manual_control_dependencies": {"b": true}, "T": {"type": "DT_INT32"}}}, {"name": "StatefulPartitionedCall/ISL_BiLSTM_Attn_1/bidirectional_1_2/backward_lstm_1_1/while/merge/_184", "op": "Merge", "input": ["StatefulPartitionedCall/ISL_BiLSTM_Attn_1/bidirectional_1_2/backward_lstm_1_1/while/enter/_173", "StatefulPartitionedCall/ISL_BiLSTM_Attn_1/bidirectional_1_2/backward_lstm_1_1/while/next_iteration/_208"], "attr": {"N": {"i": "2"}, "T": {"type": "DT_INT32"}}}, {"name": "StatefulPartitionedCall/ISL_BiLSTM_Attn_1/bidirectional_1_2/backward_lstm_1_1/while/merge/_190", "op": "Merge", "input": ["StatefulPartitionedCall/ISL_BiLSTM_Attn_1/bidirectional_1_2/backward_lstm_1_1/while/enter/_179", "StatefulPartitionedCall/ISL_BiLSTM_Attn_1/bidirectional_1_2/backward_lstm_1_1/while/next_iteration/_214"], "attr": {"N": {"i": "2"}, "T": {"type": "DT_VARIANT"}}}, {"name": "StatefulPartitionedCall/ISL_BiLSTM_Attn_1/bidirectional_1_2/backward_lstm_1_1/while/merge/_185", "op": "Merge", "input": ["StatefulPartitionedCall/ISL_BiLSTM_Attn_1/bidirectional_1_2/backward_lstm_1_1/while/enter/_174", "StatefulPartitionedCall/ISL_BiLSTM_Attn_1/bidirectional_1_2/backward_lstm_1_1/while/next_iteration/_209"], "attr": {"N": {"i": "2"}, "T": {"type": "DT_INT32"}}}, {"name": "StatefulPartitionedCall/ISL_BiLSTM_Attn_1/bidirectional_1_2/backward_lstm_1_1/while/merge/_187", "op": "Merge", "input": ["StatefulPartitionedCall/ISL_BiLSTM_Attn_1/bidirectional_1_2/backward_lstm_1_1/while/enter/_176", "StatefulPartitionedCall/ISL_BiLSTM_Attn_1/bidirectional_1_2/backward_lstm_1_1/while/next_iteration/_211"], "attr": {"N": {"i": "2"}, "T": {"type": "DT_VARIANT"}}}, {"name": "StatefulPartitionedCall/ISL_BiLSTM_Attn_1/bidirectional_1_2/backward_lstm_1_1/while/merge/_188", "op": "Merge", "input": ["StatefulPartitionedCall/ISL_BiLSTM_Attn_1/bidirectional_1_2/backward_lstm_1_1/while/enter/_177", "StatefulPartitionedCall/ISL_BiLSTM_Attn_1/bidirectional_1_2/backward_lstm_1_1/while/next_iteration/_212"], "attr": {"N": {"i": "2"}, "T": {"type": "DT_FLOAT"}}}, {"name": "StatefulPartitionedCall/ISL_BiLSTM_Attn_1/bidirectional_1_2/backward_lstm_1_1/while/merge/_189", "op": "Merge", "input": ["StatefulPartitionedCall/ISL_BiLSTM_Attn_1/bidirectional_1_2/backward_lstm_1_1/while/enter/_178", "StatefulPartitionedCall/ISL_BiLSTM_Attn_1/bidirectional_1_2/backward_lstm_1_1/while/next_iteration/_213"], "attr": {"N": {"i": "2"}, "_has_manual_control_dependencies": {"b": true}, "T": {"type": "DT_FLOAT"}}}, {"name": "StatefulPartitionedCall/ISL_BiLSTM_Attn_1/bidirectional_1_2/backward_lstm_1_1/while/merge/_186", "op": "Merge", "input": ["StatefulPartitionedCall/ISL_BiLSTM_Attn_1/bidirectional_1_2/backward_lstm_1_1/while/enter/_175", "StatefulPartitionedCall/ISL_BiLSTM_Attn_1/bidirectional_1_2/backward_lstm_1_1/while/next_iteration/_210"], "attr": {"N": {"i": "2"}, "T": {"type": "DT_INT32"}}}, {"name": "StatefulPartitionedCall/ISL_BiLSTM_Attn_1/bidirectional_1/forward_lstm_1/while/body/_40/ISL_BiLSTM_Attn_1/bidirectional_1/forward_lstm_1/while/TensorArrayV2Write/TensorListSetItem", "op": "TensorListSetItem", "input": ["StatefulPartitionedCall/ISL_BiLSTM_Attn_1/bidirectional_1/forward_lstm_1/while/StatefulPartitionedCall/ISL_BiLSTM_Attn_1/bidirectional_1/forward_lstm_1/TensorArrayV2_1_switch/_63:1", "Func/StatefulPartitionedCall/ISL_BiLSTM_Attn_1/bidirectional_1/forward_lstm_1/while/body/_40/input/_230", "StatefulPartitionedCall/ISL_BiLSTM_Attn_1/bidirectional_1/forward_lstm_1/while/body/_40/ISL_BiLSTM_Attn_1/bidirectional_1/forward_lstm_1/while/lstm_cell_1/mul_2"], "attr": {"element_dtype": {"type": "DT_FLOAT"}, "resize_if_index_out_of_bounds": {"b": false}}, "experimentalType": {"typeId": "TFT_PRODUCT", "args": [{"typeId": "TFT_ARRAY", "args": [{"typeId": "TFT_TENSOR", "args": [{"typeId": "TFT_FLOAT"}]}]}]}}, {"name": "StatefulPartitionedCall/ISL_BiLSTM_Attn_1/bidirectional_1/forward_lstm_1/while/next_iteration/_80", "op": "NextIteration", "input": ["StatefulPartitionedCall/ISL_BiLSTM_Attn_1/bidirectional_1/forward_lstm_1/while/body/_40/ISL_BiLSTM_Attn_1/bidirectional_1/forward_lstm_1/while/lstm_cell_1/mul_2", "^Func/StatefulPartitionedCall/ISL_BiLSTM_Attn_1/bidirectional_1/forward_lstm_1/while/body/_40/output_control_node/_248", "^StatefulPartitionedCall/ISL_BiLSTM_Attn_1/bidirectional_1/forward_lstm_1/while/body/_40/ISL_BiLSTM_Attn_1/bidirectional_1/forward_lstm_1/while/NoOp"], "attr": {"T": {"type": "DT_FLOAT"}}}, {"name": "StatefulPartitionedCall/ISL_BiLSTM_Attn_1/bidirectional_1/backward_lstm_1/while/body/_84/ISL_BiLSTM_Attn_1/bidirectional_1/backward_lstm_1/while/TensorArrayV2Write/TensorListSetItem", "op": "TensorListSetItem", "input": ["StatefulPartitionedCall/ISL_BiLSTM_Attn_1/bidirectional_1/backward_lstm_1/while/StatefulPartitionedCall/ISL_BiLSTM_Attn_1/bidirectional_1/backward_lstm_1/TensorArrayV2_1_switch/_107:1", "Func/StatefulPartitionedCall/ISL_BiLSTM_Attn_1/bidirectional_1/backward_lstm_1/while/body/_84/input/_264", "StatefulPartitionedCall/ISL_BiLSTM_Attn_1/bidirectional_1/backward_lstm_1/while/body/_84/ISL_BiLSTM_Attn_1/bidirectional_1/backward_lstm_1/while/lstm_cell_1/mul_2"], "attr": {"element_dtype": {"type": "DT_FLOAT"}, "resize_if_index_out_of_bounds": {"b": false}}, "experimentalType": {"typeId": "TFT_PRODUCT", "args": [{"typeId": "TFT_ARRAY", "args": [{"typeId": "TFT_TENSOR", "args": [{"typeId": "TFT_FLOAT"}]}]}]}}, {"name": "StatefulPartitionedCall/ISL_BiLSTM_Attn_1/bidirectional_1/backward_lstm_1/while/next_iteration/_124", "op": "NextIteration", "input": ["StatefulPartitionedCall/ISL_BiLSTM_Attn_1/bidirectional_1/backward_lstm_1/while/body/_84/ISL_BiLSTM_Attn_1/bidirectional_1/backward_lstm_1/while/lstm_cell_1/mul_2", "^Func/StatefulPartitionedCall/ISL_BiLSTM_Attn_1/bidirectional_1/backward_lstm_1/while/body/_84/output_control_node/_282", "^StatefulPartitionedCall/ISL_BiLSTM_Attn_1/bidirectional_1/backward_lstm_1/while/body/_84/ISL_BiLSTM_Attn_1/bidirectional_1/backward_lstm_1/while/NoOp"], "attr": {"T": {"type": "DT_FLOAT"}}}, {"name": "Func/StatefulPartitionedCall/ISL_BiLSTM_Attn_1/bidirectional_1_2/forward_lstm_1_1/while/cond/_127/input_control_node/_283", "op": "NoOp", "input": ["^StatefulPartitionedCall/ISL_BiLSTM_Attn_1/bidirectional_1_2/forward_lstm_1_1/while/enter/_136", "^StatefulPartitionedCall/ISL_BiLSTM_Attn_1/bidirectional_1_2/forward_lstm_1_1/while/enter/_137", "^StatefulPartitionedCall/ISL_BiLSTM_Attn_1/bidirectional_1_2/forward_lstm_1_1/while/enter/_138", "^StatefulPartitionedCall/ISL_BiLSTM_Attn_1/bidirectional_1_2/forward_lstm_1_1/while/merge/_140", "^StatefulPartitionedCall/ISL_BiLSTM_Attn_1/bidirectional_1_2/forward_lstm_1_1/while/merge/_141", "^StatefulPartitionedCall/ISL_BiLSTM_Attn_1/bidirectional_1_2/forward_lstm_1_1/while/merge/_142", "^StatefulPartitionedCall/ISL_BiLSTM_Attn_1/bidirectional_1_2/forward_lstm_1_1/while/merge/_143", "^StatefulPartitionedCall/ISL_BiLSTM_Attn_1/bidirectional_1_2/forward_lstm_1_1/while/merge/_144", "^StatefulPartitionedCall/ISL_BiLSTM_Attn_1/bidirectional_1_2/forward_lstm_1_1/while/merge/_145", "^StatefulPartitionedCall/ISL_BiLSTM_Attn_1/bidirectional_1_2/forward_lstm_1_1/while/merge/_146"], "attr": {"_has_manual_control_dependencies": {"b": true}}}, {"name": "Func/StatefulPartitionedCall/ISL_BiLSTM_Attn_1/bidirectional_1_2/backward_lstm_1_1/while/cond/_171/input_control_node/_317", "op": "NoOp", "input": ["^StatefulPartitionedCall/ISL_BiLSTM_Attn_1/bidirectional_1_2/backward_lstm_1_1/while/enter/_180", "^StatefulPartitionedCall/ISL_BiLSTM_Attn_1/bidirectional_1_2/backward_lstm_1_1/while/enter/_181", "^StatefulPartitionedCall/ISL_BiLSTM_Attn_1/bidirectional_1_2/backward_lstm_1_1/while/enter/_182", "^StatefulPartitionedCall/ISL_BiLSTM_Attn_1/bidirectional_1_2/backward_lstm_1_1/while/merge/_184", "^StatefulPartitionedCall/ISL_BiLSTM_Attn_1/bidirectional_1_2/backward_lstm_1_1/while/merge/_185", "^StatefulPartitionedCall/ISL_BiLSTM_Attn_1/bidirectional_1_2/backward_lstm_1_1/while/merge/_186", "^StatefulPartitionedCall/ISL_BiLSTM_Attn_1/bidirectional_1_2/backward_lstm_1_1/while/merge/_187", "^StatefulPartitionedCall/ISL_BiLSTM_Attn_1/bidirectional_1_2/backward_lstm_1_1/while/merge/_188", "^StatefulPartitionedCall/ISL_BiLSTM_Attn_1/bidirectional_1_2/backward_lstm_1_1/while/merge/_189", "^StatefulPartitionedCall/ISL_BiLSTM_Attn_1/bidirectional_1_2/backward_lstm…
ensorListGetItem", "StatefulPartitionedCall/ISL_BiLSTM_Attn_1/bidirectional_1_2/forward_lstm_1_1/while/body/_128/ISL_BiLSTM_Attn_1/bidirectional_1_2/forward_lstm_1_1/while/lstm_cell_1/Cast/ReadVariableOp", "StatefulPartitionedCall/ISL_BiLSTM_Attn_1/bidirectional_1_2/forward_lstm_1_1/while/body/_128/ISL_BiLSTM_Attn_1/bidirectional_1_2/forward_lstm_1_1/while/lstm_cell_1/add"], "device": "/device:CPU:0", "attr": {"transpose_a": {"b": false}, "_input_shapes": {"list": {"shape": [{"dim": [{"size": "-33"}, {"size": "256"}]}, {"dim": [{"size": "256"}, {"size": "256"}]}]}}, "transpose_b": {"b": false}, "fused_ops": {"list": {"s": ["Qmlhc0FkZA=="]}}, "num_args": {"i": "1"}, "leakyrelu_alpha": {"f": 0.2}, "epsilon": {"f": 0.0}, "T": {"type": "DT_FLOAT"}}}, {"name": "StatefulPartitionedCall/ISL_BiLSTM_Attn_1/temporal_attention_1/dense_6_1/MatMul", "op": "BatchMatMulV2", "input": ["StatefulPartitionedCall/ISL_BiLSTM_Attn_1/bidirectional_1_2/concat", "StatefulPartitionedCall/ISL_BiLSTM_Attn_1/temporal_attention_1/dense_6_1/Cast/ReadVariableOp"], "attr": {"adj_x": {"b": false}, "T": {"type": "DT_FLOAT"}, "adj_y": {"b": false}}}, {"name": "StatefulPartitionedCall/ISL_BiLSTM_Attn_1/bidirectional_1_2/backward_lstm_1_1/while/body/_172/ISL_BiLSTM_Attn_1/bidirectional_1_2/backward_lstm_1_1/while/lstm_cell_1/add_1", "op": "_FusedMatMul", "input": ["StatefulPartitionedCall/ISL_BiLSTM_Attn_1/bidirectional_1_2/backward_lstm_1_1/while/body/_172/ISL_BiLSTM_Attn_1/bidirectional_1_2/backward_lstm_1_1/while/TensorArrayV2Read/TensorListGetItem", "StatefulPartitionedCall/ISL_BiLSTM_Attn_1/bidirectional_1_2/backward_lstm_1_1/while/body/_172/ISL_BiLSTM_Attn_1/bidirectional_1_2/backward_lstm_1_1/while/lstm_cell_1/Cast/ReadVariableOp", "StatefulPartitionedCall/ISL_BiLSTM_Attn_1/bidirectional_1_2/backward_lstm_1_1/while/body/_172/ISL_BiLSTM_Attn_1/bidirectional_1_2/backward_lstm_1_1/while/lstm_cell_1/add"], "device": "/device:CPU:0", "attr": {"transpose_a": {"b": false}, "_input_shapes": {"list": {"shape": [{"dim": [{"size": "-37"}, {"size": "256"}]}, {"dim": [{"size": "256"}, {"size": "256"}]}]}}, "transpose_b": {"b": false}, "fused_ops": {"list": {"s": ["Qmlhc0FkZA=="]}}, "num_args": {"i": "1"}, "leakyrelu_alpha": {"f": 0.2}, "epsilon": {"f": 0.0}, "T": {"type": "DT_FLOAT"}}}, {"name": "StatefulPartitionedCall/ISL_BiLSTM_Attn_1/bidirectional_1_2/forward_lstm_1_1/while/body/_128/ISL_BiLSTM_Attn_1/bidirectional_1_2/forward_lstm_1_1/while/lstm_cell_1/split", "op": "Split", "input": ["StatefulPartitionedCall/ISL_BiLSTM_Attn_1/bidirectional_1_2/forward_lstm_1_1/while/body/_128/ISL_BiLSTM_Attn_1/bidirectional_1_2/forward_lstm_1_1/while/lstm_cell_1/split/split_dim", "StatefulPartitionedCall/ISL_BiLSTM_Attn_1/bidirectional_1_2/forward_lstm_1_1/while/body/_128/ISL_BiLSTM_Attn_1/bidirectional_1_2/forward_lstm_1_1/while/lstm_cell_1/add_1"], "attr": {"num_split": {"i": "4"}, "T": {"type": "DT_FLOAT"}}}, {"name": "StatefulPartitionedCall/ISL_BiLSTM_Attn_1/temporal_attention_1/dense_6_1/BiasAdd", "op": "BiasAdd", "input": ["StatefulPartitionedCall/ISL_BiLSTM_Attn_1/temporal_attention_1/dense_6_1/MatMul", "StatefulPartitionedCall/ISL_BiLSTM_Attn_1/temporal_attention_1/dense_6_1/BiasAdd/ReadVariableOp"], "attr": {"_input_shapes": {"list": {"shape": [{"dim": [{"size": "-13"}, {"size": "48"}, {"size": "128"}]}, {"dim": [{"size": "128"}]}]}}, "T": {"type": "DT_FLOAT"}, "data_format": {"s": "TkhXQw=="}}}, {"name": "StatefulPartitionedCall/ISL_BiLSTM_Attn_1/bidirectional_1_2/backward_lstm_1_1/while/body/_172/ISL_BiLSTM_Attn_1/bidirectional_1_2/backward_lstm_1_1/while/lstm_cell_1/split", "op": "Split", "input": ["StatefulPartitionedCall/ISL_BiLSTM_Attn_1/bidirectional_1_2/backward_lstm_1_1/while/body/_172/ISL_BiLSTM_Attn_1/bidirectional_1_2/backward_lstm_1_1/while/lstm_cell_1/split/split_dim", "StatefulPartitionedCall/ISL_BiLSTM_Attn_1/bidirectional_1_2/backward_lstm_1_1/while/body/_172/ISL_BiLSTM_Attn_1/bidirectional_1_2/backward_lstm_1_1/while/lstm_cell_1/add_1"], "attr": {"num_split": {"i": "4"}, "T": {"type": "DT_FLOAT"}}}, {"name": "StatefulPartitionedCall/ISL_BiLSTM_Attn_1/bidirectional_1_2/forward_lstm_1_1/while/body/_128/ISL_BiLSTM_Attn_1/bidirectional_1_2/forward_lstm_1_1/while/lstm_cell_1/Sigmoid", "op": "Sigmoid", "input": ["StatefulPartitionedCall/ISL_BiLSTM_Attn_1/bidirectional_1_2/forward_lstm_1_1/while/body/_128/ISL_BiLSTM_Attn_1/bidirectional_1_2/forward_lstm_1_1/while/lstm_cell_1/split"], "attr": {"_input_shapes": {"list": {"shape": [{"dim": [{"size": "-39"}, {"size": "64"}]}]}}, "T": {"type": "DT_FLOAT"}}}, {"name": "StatefulPartitionedCall/ISL_BiLSTM_Attn_1/bidirectional_1_2/forward_lstm_1_1/while/body/_128/ISL_BiLSTM_Attn_1/bidirectional_1_2/forward_lstm_1_1/while/lstm_cell_1/Sigmoid_1", "op": "Sigmoid", "input": ["StatefulPartitionedCall/ISL_BiLSTM_Attn_1/bidirectional_1_2/forward_lstm_1_1/while/body/_128/ISL_BiLSTM_Attn_1/bidirectional_1_2/forward_lstm_1_1/while/lstm_cell_1/split:1"], "attr": {"_input_shapes": {"list": {"shape": [{"dim": [{"size": "-39"}, {"size": "64"}]}]}}, "T": {"type": "DT_FLOAT"}}}, {"name": "StatefulPartitionedCall/ISL_BiLSTM_Attn_1/bidirectional_1_2/forward_lstm_1_1/while/body/_128/ISL_BiLSTM_Attn_1/bidirectional_1_2/forward_lstm_1_1/while/lstm_cell_1/Tanh", "op": "Tanh", "input": ["StatefulPartitionedCall/ISL_BiLSTM_Attn_1/bidirectional_1_2/forward_lstm_1_1/while/body/_128/ISL_BiLSTM_Attn_1/bidirectional_1_2/forward_lstm_1_1/while/lstm_cell_1/split:2"], "attr": {"T": {"type": "DT_FLOAT"}}}, {"name": "StatefulPartitionedCall/ISL_BiLSTM_Attn_1/bidirectional_1_2/forward_lstm_1_1/while/body/_128/ISL_BiLSTM_Attn_1/bidirectional_1_2/forward_lstm_1_1/while/lstm_cell_1/Sigmoid_2", "op": "Sigmoid", "input": ["StatefulPartitionedCall/ISL_BiLSTM_Attn_1/bidirectional_1_2/forward_lstm_1_1/while/body/_128/ISL_BiLSTM_Attn_1/bidirectional_1_2/forward_lstm_1_1/while/lstm_cell_1/split:3"], "attr": {"_input_shapes": {"list": {"shape": [{"dim": [{"size": "-39"}, {"size": "64"}]}]}}, "T": {"type": "DT_FLOAT"}}}, {"name": "StatefulPartitionedCall/ISL_BiLSTM_Attn_1/temporal_attention_1/dense_6_1/Tanh", "op": "Tanh", "input": ["StatefulPartitionedCall/ISL_BiLSTM_Attn_1/temporal_attention_1/dense_6_1/BiasAdd"], "attr": {"T": {"type": "DT_FLOAT"}}}, {"name": "StatefulPartitionedCall/ISL_BiLSTM_Attn_1/bidirectional_1_2/backward_lstm_1_1/while/body/_172/ISL_BiLSTM_Attn_1/bidirectional_1_2/backward_lstm_1_1/while/lstm_cell_1/Sigmoid", "op": "Sigmoid", "input": ["StatefulPartitionedCall/ISL_BiLSTM_Attn_1/bidirectional_1_2/backward_lstm_1_1/while/body/_172/ISL_BiLSTM_Attn_1/bidirectional_1_2/backward_lstm_1_1/while/lstm_cell_1/split"], "attr": {"_input_shapes": {"list": {"shape": [{"dim": [{"size": "-47"}, {"size": "64"}]}]}}, "T": {"type": "DT_FLOAT"}}}, {"name": "StatefulPartitionedCall/ISL_BiLSTM_Attn_1/bidirectional_1_2/backward_lstm_1_1/while/body/_172/ISL_BiLSTM_Attn_1/bidirectional_1_2/backward_lstm_1_1/while/lstm_cell_1/Sigmoid_1", "op": "Sigmoid", "input": ["StatefulPartitionedCall/ISL_BiLSTM_Attn_1/bidirectional_1_2/backward_lstm_1_1/while/body/_172/ISL_BiLSTM_Attn_1/bidirectional_1_2/backward_lstm_1_1/while/lstm_cell_1/split:1"], "attr": {"_input_shapes": {"list": {"shape": [{"dim": [{"size": "-47"}, {"size": "64"}]}]}}, "T": {"type": "DT_FLOAT"}}}, {"name": "StatefulPartitionedCall/ISL_BiLSTM_Attn_1/bidirectional_1_2/backward_lstm_1_1/while/body/_172/ISL_BiLSTM_Attn_1/bidirectional_1_2/backward_lstm_1_1/while/lstm_cell_1/Tanh", "op": "Tanh", "input": ["StatefulPartitionedCall/ISL_BiLSTM_Attn_1/bidirectional_1_2/backward_lstm_1_1/while/body/_172/ISL_BiLSTM_Attn_1/bidirectional_1_2/backward_lstm_1_1/while/lstm_cell_1/split:2"], "attr": {"T": {"type": "DT_FLOAT"}}}, {"name": "StatefulPartitionedCall/ISL_BiLSTM_Attn_1/bidirectional_1_2/backward_lstm_1_1/while/body/_172/ISL_BiLSTM_Attn_1/bidirectional_1_2/backward_lstm_1_1/while/lstm_cell_1/Sigmoid_2", "op": "Sigmoid", "input": ["StatefulPartitionedCall/ISL_BiLSTM_Attn_1/bidirectional_1_2/backward_lstm_1_1/while/body/_172/ISL_BiLSTM_Attn_1/bidirectional_1_2/backward_lstm_1_1/while/lstm_cell_1/split:3"], "attr": {"_input_shapes": {"list": {"shape": [{"dim": [{"size": "-47"}, {"size": "64"}]}]}}, "T": {"type": "DT_FLOAT"}}}, {"name": "StatefulPartitionedCall/ISL_BiLSTM_Attn_1/bidirectional_1_2/forward_lstm_1_1/while/body/_128/ISL_BiLSTM_Attn_1/bidirectional_1_2/forward_lstm_1_1/while/lstm_cell_1/mul", "op": "Mul", "input": ["StatefulPartitionedCall/ISL_BiLSTM_Attn_1/bidirectional_1_2/forward_lstm_1_1/while/body/_128/ISL_BiLSTM_Attn_1/bidirectional_1_2/forward_lstm_1_1/while/lstm_cell_1/Sigmoid_1", "StatefulPartitionedCall/ISL_BiLSTM_Attn_1/bidirectional_1_2/forward_lstm_1_1/while/StatefulPartitionedCall/ISL_BiLSTM_Attn_1/bidirectional_1_2/forward_lstm_1_1/zeros_1_switch/_153:1"], "attr": {"T": {"type": "DT_FLOAT"}}}, {"name": "StatefulPartitionedCall/ISL_BiLSTM_Attn_1/bidirectional_1_2/forward_lstm_1_1/while/body/_128/ISL_BiLSTM_Attn_1/bidirectional_1_2/forward_lstm_1_1/while/lstm_cell_1/mul_1", "op": "Mul", "input": ["StatefulPartitionedCall/ISL_BiLSTM_Attn_1/bidirectional_1_2/forward_lstm_1_1/while/body/_128/ISL_BiLSTM_Attn_1/bidirectional_1_2/forward_lstm_1_1/while/lstm_cell_1/Sigmoid", "StatefulPartitionedCall/ISL_BiLSTM_Attn_1/bidirectional_1_2/forward_lstm_1_1/while/body/_128/ISL_BiLSTM_Attn_1/bidirectional_1_2/forward_lstm_1_1/while/lstm_cell_1/Tanh"], "attr": {"T": {"type": "DT_FLOAT"}}}, {"name": "StatefulPartitionedCall/ISL_BiLSTM_Attn_1/temporal_attention_1/dense_7_1/MatMul", "op": "BatchMatMulV2", "input": ["StatefulPartitionedCall/ISL_BiLSTM_Attn_1/temporal_attention_1/dense_6_1/Tanh", "StatefulPartitionedCall/ISL_BiLSTM_Attn_1/temporal_attention_1/dense_7_1/Cast/ReadVariableOp"], "attr": {"adj_x": {"b": false}, "T": {"type": "DT_FLOAT"}, "adj_y": {"b": false}}}, {"name": "StatefulPartitionedCall/ISL_BiLSTM_Attn_1/bidirectional_1_2/backward_lstm_1_1/while/body/_172/ISL_BiLSTM_Attn_1/bidirectional_1_2/backward_lstm_1_1/while/lstm_cell_1/mul", "op": "Mul", "input": ["StatefulPartitionedCall/ISL_BiLSTM_Attn_1/bidirectional_1_2/backward_lstm_1_1/while/body/_172/ISL_BiLSTM_Attn_1/bidirectional_1_2/backward_lstm_1_1/while/lstm_cell_1/Sigmoid_1", "StatefulPartitionedCall/ISL_BiLSTM_Attn_1/bidirectional_1_2/backward_lstm_1_1/while/StatefulPartitionedCall/ISL_BiLSTM_Attn_1/bidirectional_1_2/backward_lstm_1_1/zeros_1_switch/_197:1"], "attr": {"T": {"type": "DT_FLOAT"}}}, {"name": "StatefulPartitionedCall/ISL_BiLSTM_Attn_1/bidirectional_1_2/backward_lstm_1_1/while/body/_172/ISL_BiLSTM_Attn_1/bidirectional_1_2/backward_lstm_1_1/while/lstm_cell_1/mul_1", "op": "Mul", "input": ["StatefulPartitionedCall/ISL_BiLSTM_Attn_1/bidirectional_1_2/backward_lstm_1_1/while/body/_172/ISL_BiLSTM_Attn_1/bidirectional_1_2/backward_lstm_1_1/while/lstm_cell_1/Sigmoid", "StatefulPartitionedCall/ISL_BiLSTM_Attn_1/bidirectional_1_2/backward_lstm_1_1/while/body/_172/ISL_BiLSTM_Attn_1/bidirectional_1_2/backward_lstm_1_1/while/lstm_cell_1/Tanh"], "attr": {"T": {"type": "DT_FLOAT"}}}, {"name": "StatefulPartitionedCall/ISL_BiLSTM_Attn_1/bidirectional_1_2/forward_lstm_1_1/while/body/_128/ISL_BiLSTM_Attn_1/bidirectional_1_2/forward_lstm_1_1/while/lstm_cell_1/add_2", "op": "AddV2", "input": ["StatefulPartitionedCall/ISL_BiLSTM_Attn_1/bidirectional_1_2/forward_lstm_1_1/while/body/_128/ISL_BiLSTM_Attn_1/bidirectional_1_2/forward_lstm_1_1/while/lstm_cell_1/mul", "StatefulPartitionedCall/ISL_BiLSTM_Attn_1/bidirectional_1_2/forward_lstm_1_1/while/body/_128/ISL_BiLSTM_Attn_1/bidirectional_1_2/forward_lstm_1_1/while/lstm_cell_1/mul_1"], "attr": {"T": {"type": "DT_FLOAT"}}}, {"name": "StatefulPartitionedCall/ISL_BiLSTM_Attn_1/temporal_attention_1/dense_7_1/Add", "op": "AddV2", "input": ["StatefulPartitionedCall/ISL_BiLSTM_Attn_1/temporal_attention_1/dense_7_1/MatMul", "StatefulPartitionedCall/ISL_BiLSTM_Attn_1/temporal_attention_1/dense_7_1/Add/ReadVariableOp"], "attr": {"T": {"type": "DT_FLOAT"}}}, {"name": "StatefulPartitionedCall/ISL_BiLSTM_Attn_1/bidirectional_1_2/backward_lstm_1_1/while/body/_172/ISL_BiLSTM_Attn_1/bidirectional_1_2/backward_lstm_1_1/while/lstm_cell_1/add_2", "op": "AddV2", "input": ["StatefulPartitionedCall/ISL_BiLSTM_Attn_1/bidirectional_1_2/backward_lstm_1_1/while/body/_172/ISL_BiLSTM_Attn_1/bidirectional_1_2/backward_lstm_1_1/while/lstm_cell_1/mul", "StatefulPartitionedCall/ISL_BiLSTM_Attn_1/bidirectional_1_2/backward_lstm_1_1/while/body/_172/ISL_BiLSTM_Attn_1/bidirectional_1_2/backward_lstm_1_1/while/lstm_cell_1/mul_1"], "attr": {"T": {"type": "DT_FLOAT"}}}, {"name": "StatefulPartitionedCall/ISL_BiLSTM_Attn_1/bidirectional_1_2/forward_lstm_1_1/while/body/_128/ISL_BiLSTM_Attn_1/bidirectional_1_2/forward_lstm_1_1/while/lstm_cell_1/Tanh_1", "op": "Tanh", "input": ["StatefulPartitionedCall/ISL_BiLSTM_Attn_1/bidirectional_1_2/forward_lstm_1_1/while/body/_128/ISL_BiLSTM_Attn_1/bidirectional_1_2/forward_lstm_1_1/while/lstm_cell_1/add_2"], "attr": {"T": {"type": "DT_FLOAT"}}}, {"name": "StatefulPartitionedCall/ISL_BiLSTM_Attn_1/bidirectional_1_2/forward_lstm_1_1/while/next_iteration/_169", "op": "NextIteration", "input": ["StatefulPartitionedCall/ISL_BiLSTM_Attn_1/bidirectional_1_2/forward_lstm_1_1/while/body/_128/ISL_BiLSTM_Attn_1/bidirectional_1_2/forward_lstm_1_1/while/lstm_cell_1/add_2", "^Func/StatefulPartitionedCall/ISL_BiLSTM_Attn_1/bidirectional_1_2/forward_lstm_1_1/while/body/_128/output_control_node/_316", "^StatefulPartitionedCall/ISL_BiLSTM_Attn_1/bidirectional_1_2/forward_lstm_1_1/while/body/_128/ISL_BiLSTM_Attn_1/bidirectional_1_2/forward_lstm_1_1/while/NoOp"], "attr": {"T": {"type": "DT_FLOAT"}}}, {"name": "StatefulPartitionedCall/ISL_BiLSTM_Attn_1/temporal_attention_1/softmax_1_1/transpose", "op": "Transpose", "input": ["StatefulPartitionedCall/ISL_BiLSTM_Attn_1/temporal_attention_1/dense_7_1/Add", "StatefulPartitionedCall/ISL_BiLSTM_Attn_1/temporal_attention_1/softmax_1_1/concat"], "attr": {"Tperm": {"type": "DT_INT32"}, "_input_shapes": {"list": {"shape": [{"dim": [{"size": "-13"}, {"size": "48"}, {"size": "1"}]}, {"dim": [{"size": "3"}]}]}}, "T": {"type": "DT_FLOAT"}}}, {"name": "StatefulPartitionedCall/ISL_BiLSTM_Attn_1/bidirectional_1_2/backward_lstm_1_1/while/body/_172/ISL_BiLSTM_Attn_1/bidirectional_1_2/backward_lstm_1_1/while/lstm_cell_1/Tanh_1", "op": "Tanh", "input": ["StatefulPartitionedCall/ISL_BiLSTM_Attn_1/bidirectional_1_2/backward_lstm_1_1/while/body/_172/ISL_BiLSTM_Attn_1/bidirectional_1_2/backward_lstm_1_1/while/lstm_cell_1/add_2"], "attr": {"T": {"type": "DT_FLOAT"}}}, {"name": "StatefulPartitionedCall/ISL_BiLSTM_Attn_1/bidirectional_1_2/backward_lstm_1_1/while/next_iteration/_213", "op": "NextIteration", "input": ["StatefulPartitionedCall/ISL_BiLSTM_Attn_1/bidirectional_1_2/backward_lstm_1_1/while/body/_172/ISL_BiLSTM_Attn_1/bidirectional_1_2/backward_lstm_1_1/while/lstm_cell_1/add_2", "^Func/StatefulPartitionedCall/ISL_BiLSTM_Attn_1/bidirectional_1_2/backward_lstm_1_1/while/body/_172/output_control_node/_350", "^StatefulPartitionedCall/ISL_BiLSTM_Attn_1/bidirectional_1_2/backward_lstm_1_1/while/body/_172/ISL_BiLSTM_Attn_1/bidirectional_1_2/backward_lstm_1_1/while/NoOp"], "attr": {"T": {"type": "DT_FLOAT"}}}, {"name": "StatefulPartitionedCall/ISL_BiLSTM_Attn_1/bidirectional_1_2/forward_lstm_1_1/while/body/_128/ISL_BiLSTM_Attn_1/bidirectional_1_2/forward_lstm_1_1/while/lstm_cell_1/mul_2", "op": "Mul", "input": ["StatefulPartitionedCall/ISL_BiLSTM_Attn_1/bidirectional_1_2/forward_lstm_1_1/while/body/_128/ISL_BiLSTM_Attn_1/bidirectional_1_2/forward_lstm_1_1/while/lstm_cell_1/Sigmoid_2", "StatefulPartitionedCall/ISL_BiLSTM_Attn_1/bidirectional_1_2/forward_lstm_1_1/while/body/_128/ISL_BiLSTM_Attn_1/bidirectional_1_2/forward_lstm_1_1/while/lstm_cell_1/Tanh_1"], "attr": {"T": {"type": "DT_FLOAT"}}}, {"name": "StatefulPartitionedCall/ISL_BiLSTM_Attn_1/temporal_attention_1/softmax_1_1/Softmax", "op": "Softmax", "input": ["StatefulPartitionedCall/ISL_BiLSTM_Attn_1/temporal_attention_1/softmax_1_1/transpose"], "attr": {"T": {"type": "DT_FLOAT"}}}, {"name": "StatefulPartitionedCall/ISL_BiLSTM_Attn_1/bidirectional_1_2/backward_lstm_1_1/while/body/_172/ISL_BiLSTM_Attn_1/bidirectional_1_2/backward_lstm_1_1/while/lstm_cell_1/mul_2", "op": "Mul", "input": ["StatefulPartitionedCall/ISL_BiLSTM_Attn_1/bidirectional_1_2/backward_lstm_1_1/while/body/_172/ISL_BiLSTM_Attn_1/bidirectional_1_2/backward_lstm_1_1/while/lstm_cell_1/Sigmoid_2", "StatefulPartitionedCall/ISL_BiLSTM_Attn_1/bidirectional_1_2/backward_lstm_1_1/while/body/_172/ISL_BiLSTM_Attn_1/bidirectional_1_2/backward_lstm_1_1/while/lstm_cell_1/Tanh_1"], "attr": {"T": {"type": "DT_FLOAT"}}}, {"name": "StatefulPartitionedCall/ISL_BiLSTM_Attn_1/bidirectional_1_2/forward_lstm_1_1/while/body/_128/ISL_BiLSTM_Attn_1/bidirectional_1_2/forward_lstm_1_1/while/TensorArrayV2Write/TensorListSetItem", "op": "TensorListSetItem", "input": ["StatefulPartitionedCall/ISL_BiLSTM_Attn_1/bidirectional_1_2/forward_lstm_1_1/while/StatefulPartitionedCall/ISL_BiLSTM_Attn_1/bidirectional_1_2/forward_lstm_1_1/TensorArrayV2_1_switch/_151:1", "Func/StatefulPartitionedCall/ISL_BiLSTM_Attn_1/bidirectional_1_2/forward_lstm_1_1/while/body/_128/input/_298", "StatefulPartitionedCall/ISL_BiLSTM_Attn_1/bidirectional_1_2/forward_lstm_1_1/while/body/_128/ISL_BiLSTM_Attn_1/bidirectional_1_2/forward_lstm_1_1/while/lstm_cell_1/mul_2"], "attr": {"element_dtype": {"type": "DT_FLOAT"}, "resize_if_index_out_of_bounds": {"b": false}}, "experimentalType": {"typeId": "TFT_PRODUCT", "args": [{"typeId": "TFT_ARRAY", "args": [{"typeId": "TFT_TENSOR", "args": [{"typeId": "TFT_FLOAT"}]}]}]}}, {"name": "StatefulPartitionedCall/ISL_BiLSTM_Attn_1/bidirectional_1_2/forward_lstm_1_1/while/next_iteration/_168", "op": "NextIteration", "input": ["StatefulPartitionedCall/ISL_BiLSTM_Attn_1/bidirectional_1_2/forward_lstm_1_1/while/body/_128/ISL_BiLSTM_Attn_1/bidirectional_1_2/forward_lstm_1_1/while/lstm_cell_1/mul_2", "^Func/StatefulPartitionedCall/ISL_BiLSTM_Attn_1/bidirectional_1_2/forward_lstm_1_1/while/body/_128/output_control_node/_316", "^StatefulPartitionedCall/ISL_BiLSTM_Attn_1/bidirectional_1_2/forward_lstm_1_1/while/body/_128/ISL_BiLSTM_Attn_1/bidirectional_1_2/forward_lstm_1_1/while/NoOp"], "attr": {"T": {"type": "DT_FLOAT"}}}, {"name": "StatefulPartitionedCall/ISL_BiLSTM_Attn_1/temporal_attention_1/softmax_1_1/transpose_1", "op": "Transpose", "input": ["StatefulPartitionedCall/ISL_BiLSTM_Attn_1/temporal_attention_1/softmax_1_1/Softmax", "StatefulPartitionedCall/ISL_BiLSTM_Attn_1/temporal_attention_1/softmax_1_1/concat_1"], "attr": {"Tperm": {"type": "DT_INT32"}, "_input_shapes": {"list": {"shape": [{"dim": [{"size": "-13"}, {"size": "1"}, {"size": "48"}]}, {"dim": [{"size": "3"}]}]}}, "T": {"type": "DT_FLOAT"}}}, {"name": "StatefulPartitionedCall/ISL_BiLSTM_Attn_1/bidirectional_1_2/backward_lstm_1_1/while/body/_172/ISL_BiLSTM_Attn_1/bidirectional_1_2/backward_lstm_1_1/while/TensorArrayV2Write/TensorListSetItem", "op": "TensorListSetItem", "input": ["StatefulPartitionedCall/ISL_BiLSTM_Attn_1/bidirectional_1_2/backward_lstm_1_1/while/StatefulPartitionedCall/ISL_BiLSTM_Attn_1/bidirectional_1_2/backward_lstm_1_1/TensorArrayV2_1_switch/_195:1", "Func/StatefulPartitionedCall/ISL_BiLSTM_Attn_1/bidirectional_1_2/backward_lstm_1_1/while/body/_172/input/_332", "StatefulPartitionedCall/ISL_BiLSTM_Attn_1/bidirectional_1_2/backward_lstm_1_1/while/body/_172/ISL_BiLSTM_Attn_1/bidirectional_1_2/backward_lstm_1_1/while/lstm_cell_1/mul_2"], "attr": {"element_dtype": {"type": "DT_FLOAT"}, "resize_if_index_out_of_bounds": {"b": false}}, "experimentalType": {"typeId": "TFT_PRODUCT", "args": [{"typeId": "TFT_ARRAY", "args": [{"typeId": "TFT_TENSOR", "args": [{"typeId": "TFT_FLOAT"}]}]}]}}, {"name": "StatefulPartitionedCall/ISL_BiLSTM_Attn_1/bidirectional_1_2/backward_lstm_1_1/while/next_iteration/_212", "op": "NextIteration", "input": ["StatefulPartitionedCall/ISL_BiLSTM_Attn_1/bidirectional_1_2/backward_lstm_1_1/while/body/_172/ISL_BiLSTM_Attn_1/bidirectional_1_2/backward_lstm_1_1/while/lstm_cell_1/mul_2", "^Func/StatefulPartitionedCall/ISL_BiLSTM_Attn_1/bidirectional_1_2/backward_lstm_1_1/while/body/_172/output_control_node/_350", "^StatefulPartitionedCall/ISL_BiLSTM_Attn_1/bidirectional_1_2/backward_lstm_1_1/while/body/_172/ISL_BiLSTM_Attn_1/bidirectional_1_2/backward_lstm_1_1/while/NoOp"], "attr": {"T": {"type": "DT_FLOAT"}}}, {"name": "StatefulPartitionedCall/ISL_BiLSTM_Attn_1/bidirectional_1_2/forward_lstm_1_1/while/next_iteration/_167", "op": "NextIteration", "input": ["StatefulPartitionedCall/ISL_BiLSTM_Attn_1/bidirectional_1_2/forward_lstm_1_1/while/body/_128/ISL_BiLSTM_Attn_1/bidirectional_1_2/forward_lstm_1_1/while/TensorArrayV2Write/TensorListSetItem", "^Func/StatefulPartitionedCall/ISL_BiLSTM_Attn_1/bidirectional_1_2/forward_lstm_1_1/while/body/_128/output_control_node/_316", "^StatefulPartitionedCall/ISL_BiLSTM_Attn_1/bidirectional_1_2/forward_lstm_1_1/while/body/_128/ISL_BiLSTM_Attn_1/bidirectional_1_2/forward_lstm_1_1/while/NoOp"], "attr": {"T": {"type": "DT_VARIANT"}}}, {"name": "StatefulPartitionedCall/ISL_BiLSTM_Attn_1/temporal_attention_1/mul", "op": "Mul", "input": ["StatefulPartitionedCall/ISL_BiLSTM_Attn_1/bidirectional_1_2/concat", "StatefulPartitionedCall/ISL_BiLSTM_Attn_1/temporal_attention_1/softmax_1_1/transpose_1"], "attr": {"T": {"type": "DT_FLOAT"}}}, {"name": "StatefulPartitionedCall/ISL_BiLSTM_Attn_1/bidirectional_1_2/backward_lstm_1_1/while/next_iteration/_211", "op": "NextIteration", "input": ["StatefulPartitionedCall/ISL_BiLSTM_Attn_1/bidirectional_1_2/backward_lstm_1_1/while/body/_172/ISL_BiLSTM_Attn_1/bidirectional_1_2/backward_lstm_1_1/while/TensorArrayV2Write/TensorListSetItem", "^Func/StatefulPartitionedCall/ISL_BiLSTM_Attn_1/bidirectional_1_2/backward_lstm_1_1/while/body/_172/output_control_node/_350", "^StatefulPartitionedCall/ISL_BiLSTM_Attn_1/bidirectional_1_2/backward_lstm_1_1/while/body/_172/ISL_BiLSTM_Attn_1/bidirectional_1_2/backward_lstm_1_1/while/NoOp"], "attr": {"T": {"type": "DT_VARIANT"}}}, {"name": "StatefulPartitionedCall/ISL_BiLSTM_Attn_1/temporal_attention_1/Sum", "op": "Sum", "input": ["StatefulPartitionedCall/ISL_BiLSTM_Attn_1/temporal_attention_1/mul", "StatefulPartitionedCall/ISL_BiLSTM_Attn_1/temporal_attention_1/Sum/reduction_indices"], "attr": {"T": {"type": "DT_FLOAT"}, "Tidx": {"type": "DT_INT32"}, "keep_dims": {"b": false}}}, {"name": "StatefulPartitionedCall/ISL_BiLSTM_Attn_1/dense_3_1/BiasAdd", "op": "_FusedMatMul", "input": ["StatefulPartitionedCall/ISL_BiLSTM_Attn_1/temporal_attention_1/Sum", "StatefulPartitionedCall/ISL_BiLSTM_Attn_1/dense_3_1/Cast/ReadVariableOp", "StatefulPartitionedCall/ISL_BiLSTM_Attn_1/dense_3_1/BiasAdd/ReadVariableOp"], "device": "/device:CPU:0", "attr": {"transpose_a": {"b": false}, "_input_shapes": {"list": {"shape": [{"dim": [{"size": "-15"}, {"size": "128"}]}, {"dim": [{"size": "128"}, {"size": "256"}]}]}}, "transpose_b": {"b": false}, "fused_ops": {"list": {"s": ["Qmlhc0FkZA=="]}}, "num_args": {"i": "1"}, "leakyrelu_alpha": {"f": 0.2}, "epsilon": {"f": 0.0}, "T": {"type": "DT_FLOAT"}}}, {"name": "StatefulPartitionedCall/ISL_BiLSTM_Attn_1/batch_normalization_1_2/batchnorm/mul_1", "op": "Mul", "input": ["StatefulPartitionedCall/ISL_BiLSTM_Attn_1/dense_3_1/BiasAdd", "StatefulPartitionedCall/ISL_BiLSTM_Attn_1/batch_normalization_1_2/batchnorm/mul"], "attr": {"T": {"type": "DT_FLOAT"}}}, {"name": "StatefulPartitionedCall/ISL_BiLSTM_Attn_1/batch_normalization_1_2/batchnorm/add_1", "op": "AddV2", "input": ["StatefulPartitionedCall/ISL_BiLSTM_Attn_1/batch_normalization_1_2/batchnorm/mul_1", "StatefulPartitionedCall/ISL_BiLSTM_Attn_1/batch_normalization_1_2/batchnorm/sub"], "attr": {"T": {"type": "DT_FLOAT"}}}, {"name": "StatefulPartitionedCall/ISL_BiLSTM_Attn_1/activation_1_2/Relu", "op": "Relu", "input": ["StatefulPartitionedCall/ISL_BiLSTM_Attn_1/batch_normalization_1_2/batchnorm/add_1"], "attr": {"T": {"type": "DT_FLOAT"}}}, {"name": "StatefulPartitionedCall/ISL_BiLSTM_Attn_1/dense_4_1/BiasAdd", "op": "_FusedMatMul", "input": ["StatefulPartitionedCall/ISL_BiLSTM_Attn_1/activation_1_2/Relu", "StatefulPartitionedCall/ISL_BiLSTM_Attn_1/dense_4_1/Cast/ReadVariableOp", "StatefulPartitionedCall/ISL_BiLSTM_Attn_1/dense_4_1/BiasAdd/ReadVariableOp"], "device": "/device:CPU:0", "attr": {"transpose_a": {"b": false}, "_input_shapes": {"list": {"shape": [{"dim": [{"size": "-15"}, {"size": "256"}]}, {"dim": [{"size": "256"}, {"size": "128"}]}]}}, "transpose_b": {"b": false}, "fused_ops": {"list": {"s": ["Qmlhc0FkZA=="]}}, "num_args": {"i": "1"}, "leakyrelu_alpha": {"f": 0.2}, "epsilon": {"f": 0.0}, "T": {"type": "DT_FLOAT"}}}, {"name": "StatefulPartitionedCall/ISL_BiLSTM_Attn_1/batch_normalization_2_1/batchnorm/mul_1", "op": "Mul", "input": ["StatefulPartitionedCall/ISL_BiLSTM_Attn_1/dense_4_1/BiasAdd", "StatefulPartitionedCall/ISL_BiLSTM_Attn_1/batch_normalization_2_1/batchnorm/mul"], "attr": {"T": {"type": "DT_FLOAT"}}}, {"name": "StatefulPartitionedCall/ISL_BiLSTM_Attn_1/batch_normalization_2_1/batchnorm/add_1", "op": "AddV2", "input": ["StatefulPartitionedCall/ISL_BiLSTM_Attn_1/batch_normalization_2_1/batchnorm/mul_1", "StatefulPartitionedCall/ISL_BiLSTM_Attn_1/batch_normalization_2_1/batchnorm/sub"], "attr": {"T": {"type": "DT_FLOAT"}}}, {"name": "StatefulPartitionedCall/ISL_BiLSTM_Attn_1/activation_2_1/Relu", "op": "Relu", "input": ["StatefulPartitionedCall/ISL_BiLSTM_Attn_1/batch_normalization_2_1/batchnorm/add_1"], "attr": {"T": {"type": "DT_FLOAT"}}}, {"name": "StatefulPartitionedCall/ISL_BiLSTM_Attn_1/dense_5_1/BiasAdd", "op": "_FusedMatMul", "input": ["StatefulPartitionedCall/ISL_BiLSTM_Attn_1/activation_2_1/Relu", "StatefulPartitionedCall/ISL_BiLSTM_Attn_1/dense_5_1/Cast/ReadVariableOp", "StatefulPartitionedCall/ISL_BiLSTM_Attn_1/dense_5_1/BiasAdd/ReadVariableOp"], "device": "/device:CPU:0", "attr": {"transpose_a": {"b": false}, "_input_shapes": {"list": {"shape": [{"dim": [{"size": "-15"}, {"size": "128"}]}, {"dim": [{"size": "128"}, {"size": "104"}]}]}}, "transpose_b": {"b": false}, "fused_ops": {"list": {"s": ["Qmlhc0FkZA=="]}}, "num_args": {"i": "1"}, "leakyrelu_alpha": {"f": 0.2}, "epsilon": {"f": 0.0}, "T": {"type": "DT_FLOAT"}}}, {"name": "StatefulPartitionedCall/ISL_BiLSTM_Attn_1/dense_5_1/Softmax", "op": "Softmax", "input": ["StatefulPartitionedCall/ISL_BiLSTM_Attn_1/dense_5_1/BiasAdd"], "attr": {"T": {"type": "DT_FLOAT"}}}, {"name": "Identity", "op": "Identity", "input": ["StatefulPartitionedCall/ISL_BiLSTM_Attn_1/dense_5_1/Softmax", "^StatefulPartitionedCall/ISL_BiLSTM_Attn_1/bidirectional_1/forward_lstm_1/while/exit/_73", "^StatefulPartitionedCall/ISL_BiLSTM_Attn_1/bidirectional_1/forward_lstm_1/while/exit/_72", "^StatefulPartitionedCall/ISL_BiLSTM_Attn_1/bidirectional_1_2/backward_lstm_1_1/while/exit/_203", "^StatefulPartitionedCall/ISL_BiLSTM_Attn_1/bidirectional_1_2/backward_lstm_1_1/while/exit/_204", "^StatefulPartitionedCall/ISL_BiLSTM_Attn_1/bidirectional_1_2/backward_lstm_1_1/while/exit/_205", "^StatefulPartitionedCall/ISL_BiLSTM_Attn_1/bidirectional_1_2/backward_lstm_1_1/while/exit/_202", "^StatefulPartitionedCall/ISL_BiLSTM_Attn_1/bidirectional_1_2/backward_lstm_1_1/while/exit/_201", "^StatefulPartitionedCall/ISL_BiLSTM_Attn_1/bidirectional_1_2/forward_lstm_1_1/while/exit/_162", "^StatefulPartitionedCall/ISL_BiLSTM_Attn_1/bidirectional_1/backward_lstm_1/while/exit/_112", "^StatefulPartitionedCall/ISL_BiLSTM_Attn_1/bidirectional_1/backward_lstm_1/while/exit/_113", "^StatefulPartitionedCall/ISL_BiLSTM_Attn_1/bidirectional_1/backward_lstm_1/while/exit/_114", "^StatefulPartitionedCall/ISL_BiLSTM_Attn_1/bidirectional_1/backward_lstm_1/while/exit/_115", "^StatefulPartitionedCall/ISL_BiLSTM_Attn_1/bidirectional_1/backward_lstm_1/while/exit/_116", "^StatefulPartitionedCall/ISL_BiLSTM_Attn_1/bidirectional_1/backward_lstm_1/while/exit/_117", "^StatefulPartitionedCall/ISL_BiLSTM_Attn_1/bidirectional_1/forward_lstm_1/while/exit/_68", "^StatefulPartitionedCall/ISL_BiLSTM_Attn_1/bidirectional_1/forward_lstm_1/while/exit/_69", "^StatefulPartitionedCall/ISL_BiLSTM_Attn_1/bidirectional_1/forward_lstm_1/while/exit/_70", "^StatefulPartitionedCall/ISL_BiLSTM_Attn_1/bidirectional_1/backward_lstm_1/while/exit/_118", "^StatefulPartitionedCall/ISL_BiLSTM_Attn_1/bidirectional_1/forward_lstm_1/while/exit/_71", "^StatefulPartitionedCall/ISL_BiLSTM_Attn_1/bidirectional_1_2/forward_lstm_1_1/while/exit/_156", "^StatefulPartitionedCall/ISL_BiLSTM_Attn_1/bidirectional_1_2/forward_lstm_1_1/while/exit/_157", "^StatefulPartitionedCall/ISL_BiLSTM_Attn_1/bidirectional_1/forward_lstm_1/while/exit/_74", "^StatefulPartitionedCall/ISL_BiLSTM_Attn_1/bidirectional_1_2/forward_lstm_1_1/while/exit/_158", "^StatefulPartitionedCall/ISL_BiLSTM_Attn_1/bidirectional_1_2/forward_lstm_1_1/while/exit/_159", "^StatefulPartitionedCall/ISL_BiLSTM_Attn_1/bidirectional_1_2/forward_lstm_1_1/while/exit/_160", "^StatefulPartitionedCall/ISL_BiLSTM_Attn_1/bidirectional_1_2/backward_lstm_1_1/while/exit/_206", "^StatefulPartitionedCall/ISL_BiLSTM_Attn_1/bidirectional_1_2/forward_lstm_1_1/while/exit/_161", "^StatefulPartitionedCall/ISL_BiLSTM_Attn_1/bidirectional_1_2/backward_lstm_1_1/while/exit/_200"], "attr": {"T": {"type": "DT_FLOAT"}}}], "library": {}, "versions": {"producer": 1645}}, "weightsManifest": [{"paths": ["group1-shard1of3.bin", "group1-shard2of3.bin", "group1-shard3of3.bin"], "weights": [{"name": "StatefulPartitionedCall/ISL_BiLSTM_Attn_1/bidirectional_1_2/forward_lstm_1_1/TensorArrayV2Stack/TensorListStack/element_shape", "shape": [2], "dtype": "int32"}, {"name": "StatefulPartitionedCall/ISL_BiLSTM_Attn_1/bidirectional_1_2/forward_lstm_1_1/transpose_1/perm", "shape": [3], "dtype": "int32"}, {"name": "StatefulPartitionedCall/ISL_BiLSTM_Attn_1/bidirectional_1_2/backward_lstm_1_1/TensorArrayV2Stack/TensorListStack/element_shape", "shape": [2], "dtype": "int32"}, {"name": "StatefulPartitionedCall/ISL_BiLSTM_Attn_1/bidirectional_1_2/backward_lstm_1_1/transpose_1/perm", "shape": [3], "dtype": "int32"}, {"name": "StatefulPartitionedCall/ISL_BiLSTM_Attn_1/bidirectional_1_2/ReverseV2/axis", "shape": [1], "dtype": "int32"}, {"name": "StatefulPartitionedCall/ISL_BiLSTM_Attn_1/bidirectional_1_2/concat/axis", "shape": [], "dtype": "int32"}, {"name": "StatefulPartitionedCall/ISL_BiLSTM_Attn_1/temporal_attention_1/dense_6_1/Cast/ReadVariableOp", "shape": [128, 128], "dtype": "float32"}, {"name": "StatefulPartitionedCall/ISL_BiLSTM_Attn_1/temporal_attention_1/dense_6_1/BiasAdd/ReadVariableOp", "shape": [128], "dtype": "float32"}, {"name": "StatefulPartitionedCall/ISL_BiLSTM_Attn_1/temporal_attention_1/dense_7_1/Cast/ReadVariableOp", "shape": [128, 1], "dtype": "float32"}, {"name": "StatefulPartitionedCall/ISL_BiLSTM_Attn_1/temporal_attention_1/dense_7_1/Add/ReadVariableOp", "shape": [1], "dtype": "float32"}, {"name": "StatefulPartitionedCall/ISL_BiLSTM_Attn_1/temporal_attention_1/softmax_1_1/concat", "shape": [3], "dtype": "int32"}, {"name": "StatefulPartitionedCall/ISL_BiLSTM_Attn_1/temporal_attention_1/softmax_1_1/concat_1", "shape": [3], "dtype": "int32"}, {"name": "StatefulPartitionedCall/ISL_BiLSTM_Attn_1/temporal_attention_1/Sum/reduction_indices", "shape": [], "dtype": "int32"}, {"name": "StatefulPartitionedCall/ISL_BiLSTM_Attn_1/dense_3_1/Cast/ReadVariableOp", "shape": [128, 256], "dtype": "float32"}, {"name": "StatefulPartitionedCall/ISL_BiLSTM_Attn_1/dense_3_1/BiasAdd/ReadVariableOp", "shape": [256], "dtype": "float32"}, {"name": "StatefulPartitionedCall/ISL_BiLSTM_Attn_1/batch_normalization_1_2/batchnorm/mul", "shape": [256], "dtype": "float32"}, {"name": "StatefulPartitionedCall/ISL_BiLSTM_Attn_1/batch_normalization_1_2/batchnorm/sub", "shape": [256], "dtype": "float32"}, {"name": "StatefulPartitionedCall/ISL_BiLSTM_Attn_1/dense_4_1/Cast/ReadVariableOp", "shape": [256, 128], "dtype": "float32"}, {"name": "StatefulPartitionedCall/ISL_BiLSTM_Attn_1/dense_4_1/BiasAdd/ReadVariableOp", "shape": [128], "dtype": "float32"}, {"name": "StatefulPartitionedCall/ISL_BiLSTM_Attn_1/batch_normalization_2_1/batchnorm/mul", "shape": [128], "dtype": "float32"}, {"name": "StatefulPartitionedCall/ISL_BiLSTM_Attn_1/batch_normalization_2_1/batchnorm/sub", "shape": [128], "dtype": "float32"}, {"name": "StatefulPartitionedCall/ISL_BiLSTM_Attn_1/dense_5_1/Cast/ReadVariableOp", "shape": [128, 104], "dtype": "float32"}, {"name": "StatefulPartitionedCall/ISL_BiLSTM_Attn_1/dense_5_1/BiasAdd/ReadVariableOp", "shape": [104], "dtype": "float32"}, {"name": "StatefulPartitionedCall/ISL_BiLSTM_Attn_1/bidirectional_1_2/forward_lstm_1_1/Max", "shape": [], "dtype": "int32"}, {"name": "StatefulPartitionedCall/ISL_BiLSTM_Attn_1/bidirectional_1_2/forward_lstm_1_1/while/loop_counter", "shape": [], "dtype": "int32"}, {"name": "StatefulPartitionedCall/ISL_BiLSTM_Attn_1/bidirectional_1_2/forward_lstm_1_1/time", "shape": [], "dtype": "int32"}, {"name": "Func/StatefulPartitionedCall/input/_13", "shape": [256, 256], "dtype": "float32"}, {"name": "Func/StatefulPartitionedCall/input/_14", "shape": [64, 256], "dtype": "float32"}, {"name": "Func/StatefulPartitionedCall/input/_15", "shape": [256], "dtype": "float32"}, {"name": "StatefulPartitionedCall/ISL_BiLSTM_Attn_1/bidirectional_1_2/forward_lstm_1_1/transpose/perm", "shape": [3], "dtype": "int32"}, {"name": "StatefulPartitionedCall/ISL_BiLSTM_Attn_1/bidirectional_1_2/forward_lstm_1_1/TensorArrayUnstack/TensorListFromTensor/element_shape", "shape": [2], "dtype": "int32"}, {"name": "StatefulPartitionedCall/ISL_BiLSTM_Attn_1/bidirectional_1_2/forward_lstm_1_1/TensorArrayV2_1/element_shape", "shape": [2], "dtype": "int32"}, {"name": "StatefulPartitionedCall/ISL_BiLSTM_Attn_1/bidirectional_1_2/forward_lstm_1_1/TensorArrayV2_1/num_elements", "shape": [], "dtype": "int32"}, {"name": "StatefulPartitionedCall/ISL_BiLSTM_Attn_1/bidirectional_1_2/forward_lstm_1_1/zeros/packed/1", "shape": [], "dtype": "int32"}, {"name": "StatefulPartitionedCall/ISL_BiLSTM_Attn_1/bidirectional_1_2/forward_lstm_1_1/zeros/Const", "shape": [], "dtype": "float32"}, {"name": "StatefulPartitionedCall/ISL_BiLSTM_Attn_1/bidirectional_1_2/forward_lstm_1_1/strided_slice/stack", "shape": [1], "dtype": "int32"}, {"name": "StatefulPartitionedCall/ISL_BiLSTM_Attn_1/bidirectional_1_2/forward_lstm_1_1/strided_slice/stack_1", "shape": [1], "dtype": "int32"}, {"name": "StatefulPartitionedCall/ISL_BiLSTM_Attn_1/bidirectional_1_2/forward_lstm_1_1/strided_slice/stack_2", "shape": [1], "dtype": "int32"}, {"name": "StatefulPartitionedCall/ISL_BiLSTM_Attn_1/bidirectional_1_2/forward_lstm_1_1/zeros_1/packed/1", "shape": [], "dtype": "int32"}, {"name": "StatefulPartitionedCall/ISL_BiLSTM_Attn_1/bidirectional_1_2/forward_lstm_1_1/zeros_1/Const", "shape": [], "dtype": "float32"}, {"name": "StatefulPartitionedCall/ISL_BiLSTM_Attn_1/bidirectional_1_2/backward_lstm_1_1/while/loop_counter", "shape": [], "dtype": "int32"}, {"name": "StatefulPartitionedCall/ISL_BiLSTM_Attn_1/bidirectional_1_2/backward_lstm_1_1/Max", "shape": [], "dtype": "int32"}, {"name": "StatefulPartitionedCall/ISL_BiLSTM_Attn_1/bidirectional_1_2/backward_lstm_1_1/time", "shape": [], "dtype": "int32"}, {"name": "Func/StatefulPartitionedCall/input/_16", "shape": [256, 256], "dtype": "float32"}, {"name": "Func/StatefulPartitionedCall/input/_17", "shape": [64, 256], "dtype": "float32"}, {"name": "Func/StatefulPartitionedCall/input/_18", "shape": [256], "dtype": "float32"}, {"name": "StatefulPartitionedCall/ISL_BiLSTM_Attn_1/bidirectional_1_2/backward_lstm_1_1/transpose/perm", "shape": [3], "dtype": "int32"}, {"name": "StatefulPartitionedCall/ISL_BiLSTM_Attn_1/bidirectional_1_2/backward_lstm_1_1/ReverseV2/axis", "shape": [1], "dtype": "int32"}, {"name": "StatefulPartitionedCall/ISL_BiLSTM_Attn_1/bidirectional_1_2/backward_lstm_1_1/TensorArrayUnstack/TensorListFromTensor/element_shape", "shape": [2], "dtype": "int32"}, {"name": "StatefulPartitionedCall/ISL_BiLSTM_Attn_1/bidirectional_1_2/backward_lstm_1_1/TensorArrayV2_1/element_shape", "shape": [2], "dtype": "int32"}, {"name": "StatefulPartitionedCall/ISL_BiLSTM_Attn_1/bidirectional_1_2/backward_lstm_1_1/TensorArrayV2_1/num_elements", "shape": [], "dtype": "int32"}, {"name": "StatefulPartitionedCall/ISL_BiLSTM_Attn_1/bidirectional_1_2/backward_lstm_1_1/zeros/packed/1", "shape": [], "dtype": "int32"}, {"name": "StatefulPartitionedCall/ISL_BiLSTM_Attn_1/bidirectional_1_2/backward_lstm_1_1/zeros/Const", "shape": [], "dtype": "float32"}, {"name": "StatefulPartitionedCall/ISL_BiLSTM_Attn_1/bidirectional_1/forward_lstm_1/Max", "shape": [], "dtype": "int32"}, {"name": "StatefulPartitionedCall/ISL_BiLSTM_Attn_1/bidirectional_1/forward_lstm_1/while/loop_counter", "shape": [], "dtype": "int32"}, {"name": "StatefulPartitionedCall/ISL_BiLSTM_Attn_1/bidirectional_1/forward_lstm_1/time", "shape": [], "dtype": "int32"}, {"name": "Func/StatefulPartitionedCall/input/_7", "shape": [512, 512], "dtype": "float32"}, {"name": "Func/StatefulPartitionedCall/input/_8", "shape": [128, 512], "dtype": "float32"}, {"name": "Func/StatefulPartitionedCall/input/_9", "shape": [512], "dtype": "float32"}, {"name": "StatefulPartitionedCall/ISL_BiLSTM_Attn_1/bidirectional_1/forward_lstm_1/transpose/perm", "shape": [3], "dtype": "int32"}, {"name": "StatefulPartitionedCall/ISL_BiLSTM_Attn_1/bidirectional_1/forward_lstm_1/TensorArrayUnstack/TensorListFromTensor/element_shape", "shape": [2], "dtype": "int32"}, {"name": "StatefulPartitionedCall/ISL_BiLSTM_Attn_1/bidirectional_1/forward_lstm_1/TensorArrayV2_1/element_shape", "shape": [2], "dtype": "int32"}, {"name": "StatefulPartitionedCall/ISL_BiLSTM_Attn_1/bidirectional_1/forward_lstm_1/TensorArrayV2_1/num_elements", "shape": [], "dtype": "int32"}, {"name": "StatefulPartitionedCall/ISL_BiLSTM_Attn_1/bidirectional_1/forward_lstm_1/zeros/packed/1", "shape": [], "dtype": "int32"}, {"name": "StatefulPartitionedCall/ISL_BiLSTM_Attn_1/bidirectional_1/forward_lstm_1/zeros/Const", "shape": [], "dtype": "float32"}, {"name": "StatefulPartitionedCall/ISL_BiLSTM_Attn_1/bidirectional_1/forward_lstm_1/strided_slice/stack", "shape": [1], "dtype": "int32"}, {"name": "StatefulPartitionedCall/ISL_BiLSTM_Attn_1/bidirectional_1/forward_lstm_1/strided_slice/stack_1", "shape": [1], "dtype": "int32"}, {"name": "StatefulPartitionedCall/ISL_BiLSTM_Attn_1/bidirectional_1/forward_lstm_1/strided_slice/stack_2", "shape": [1], "dtype": "int32"}, {"name": "StatefulPartitionedCall/ISL_BiLSTM_Attn_1/bidirectional_1/forward_lstm_1/zeros_1/packed/1", "shape": [], "dtype": "int32"}, {"name": "StatefulPartitionedCall/ISL_BiLSTM_Attn_1/bidirectional_1/forward_lstm_1/zeros_1/Const", "shape": [], "dtype": "float32"}, {"name": "StatefulPartitionedCall/ISL_BiLSTM_Attn_1/bidirectional_1/forward_lstm_1/TensorArrayV2Stack/TensorListStack/element_shape", "shape": [2], "dtype": "int32"}, {"name": "StatefulPartitionedCall/ISL_BiLSTM_Attn_1/bidirectional_1/forward_lstm_1/transpose_1/perm", "shape": [3], "dtype": "int32"}, {"name": "StatefulPartitionedCall/ISL_BiLSTM_Attn_1/bidirectional_1/backward_lstm_1/Max", "shape": [], "dtype": "int32"}, {"name": "StatefulPartitionedCall/ISL_BiLSTM_Attn_1/bidirectional_1/backward_lstm_1/while/loop_counter", "shape": [], "dtype": "int32"}, {"name": "StatefulPartitionedCall/ISL_BiLSTM_Attn_1/bidirectional_1/backward_lstm_1/time", "shape": [], "dtype": "int32"}, {"name": "Func/StatefulPartitionedCall/input/_10", "shape": [512, 512], "dtype": "float32"}, {"name": "Func/StatefulPartitionedCall/input/_11", "shape": [128, 512], "dtype": "float32"}, {"name": "Func/StatefulPartitionedCall/input/_12", "shape": [512], "dtype": "float32"}, {"name": "StatefulPartitionedCall/ISL_BiLSTM_Attn_1/bidirectional_1/backward_lstm_1/transpose/perm", "shape": [3], "dtype": "int32"}, {"name": "StatefulPartitionedCall/ISL_BiLSTM_Attn_1/bidirectional_1/backward_lstm_1/ReverseV2/axis", "shape": [1], "dtype": "int32"}, {"name": "StatefulPartitionedCall/ISL_BiLSTM_Attn_1/bidirectional_1/backward_lstm_1/TensorArrayUnstack/TensorListFromTensor/element_shape", "shape": [2], "dtype": "int32"}, {"name": "StatefulPartitionedCall/ISL_BiLSTM_Attn_1/bidirectional_1/backward_lstm_1/TensorArrayV2_1/element_shape", "shape": [2], "dtype": "int32"}, {"name": "StatefulPartitionedCall/ISL_BiLSTM_Attn_1/bidirectional_1/backward_lstm_1/TensorArrayV2_1/num_elements", "shape": [], "dtype": "int32"}, {"name": "StatefulPartitionedCall/ISL_BiLSTM_Attn_1/bidirectional_1/backward_lstm_1/zeros/packed/1", "shape": [], "dtype": "int32"}, {"name": "StatefulPartitionedCall/ISL_BiLSTM_Attn_1/bidirectional_1/backward_lstm_1/zeros/Const", "shape": [], "dtype": "float32"}, {"name": "StatefulPartitionedCall/ISL_BiLSTM_Attn_1/dense_1/Cast/ReadVariableOp", "shape": [1662, 512], "dtype": "float32"}, {"name": "StatefulPartitionedCall/ISL_BiLSTM_Attn_1/dense_1/BiasAdd/ReadVariableOp", "shape": [512], "dtype": "float32"}, {"name": "StatefulPartitionedCall/ISL_BiLSTM_Attn_1/batch_normalization_1/batchnorm/mul", "shape": [512], "dtype": "float32"}, {"name": "StatefulPartitionedCall/ISL_BiLSTM_Attn_1/batch_normalization_1/batchnorm/sub", "shape": [512], "dtype": "float32"}, {"name": "StatefulPartitionedCall/ISL_BiLSTM_Attn_1/bidirectional_1/backward_lstm_1/strided_slice/stack", "shape": [1], "dtype": "int32"}, {"name": "StatefulPartitionedCall/ISL_BiLSTM_Attn_1/bidirectional_1/backward_lstm_1/strided_slice/stack_1", "shape": [1], "dtype": "int32"}, {"name": "StatefulPartitionedCall/ISL_BiLSTM_Attn_1/bidirectional_1/backward_lstm_1/strided_slice/stack_2", "shape": [1], "dtype": "int32"}, {"name": "StatefulPartitionedCall/ISL_BiLSTM_Attn_1/bidirectional_1/backward_lstm_1/zeros_1/packed/1", "shape": [], "dtype": "int32"}, {"name": "StatefulPartitionedCall/ISL_BiLSTM_Attn_1/bidirectional_1/backward_lstm_1/zeros_1/Const", "shape": [], "dtype": "float32"}, {"name": "StatefulPartitionedCall/ISL_BiLSTM_Attn_1/bidirectional_1/backward_lstm_1/TensorArrayV2Stack/TensorListStack/element_shape", "shape": [2], "dtype": "int32"}, {"name": "StatefulPartitionedCall/ISL_BiLSTM_Attn_1/bidirectional_1/backward_lstm_1/transpose_1/perm", "shape": [3], "dtype": "int32"}, {"name": "StatefulPartitionedCall/ISL_BiLSTM_Attn_1/bidirectional_1/ReverseV2/axis", "shape": [1], "dtype": "int32"}, {"name": "StatefulPartitionedCall/ISL_BiLSTM_Attn_1/bidirectional_1/concat/axis", "shape": [], "dtype": "int32"}, {"name": "StatefulPartitionedCall/ISL_BiLSTM_Attn_1/bidirectional_1_2/backward_lstm_1_1/strided_slice/stack", "shape": [1], "dtype": "int32"}, {"name": "StatefulPartitionedCall/ISL_BiLSTM_Attn_1/bidirectional_1_2/backward_lstm_1_1/strided_slice/stack_1", "shape": [1], "dtype": "int32"}, {"name": "StatefulPartitionedCall/ISL_BiLSTM_Attn_1/bidirectional_1_2/backward_lstm_1_1/strided_slice/stack_2", "shape": [1], "dtype": "int32"}, {"name": "StatefulPartitionedCall/ISL_BiLSTM_Attn_1/bidirectional_1_2/backward_lstm_1_1/zeros_1/packed/1", "shape": [], "dtype": "int32"}, {"name": "StatefulPartitionedCall/ISL_BiLSTM_Attn_1/bidirectional_1_2/backward_lstm_1_1/zeros_1/Const", "shape": [], "dtype": "float32"}, {"name": "StatefulPartitionedCall/ISL_BiLSTM_Attn_1/bidirectional_1/forward_lstm_1/while/cond/_39/ISL_BiLSTM_Attn_1/bidirectional_1/forward_lstm_1/while/Less/y", "shape": [], "dtype": "int32"}, {"name": "StatefulPartitionedCall/ISL_BiLSTM_Attn_1/bidirectional_1/backward_lstm_1/while/cond/_83/ISL_BiLSTM_Attn_1/bidirectional_1/backward_lstm_1/while/Less/y", "shape": [], "dtype": "int32"}, {"name": "StatefulPartitionedCall/ISL_BiLSTM_Attn_1/bidirectional_1/forward_lstm_1/while/body/_40/ISL_BiLSTM_Attn_1/bidirectional_1/forward_lstm_1/while/add_1/y", "shape": [], "dtype": "int32"}, {"name": "StatefulPartitionedCall/ISL_BiLSTM_Attn_1/bidirectional_1/forward_lstm_1/while/body/_40/ISL_BiLSTM_Attn_1/bidirectional_1/forward_lstm_1/while/lstm_cell_1/split/split_dim", "shape": [], "dtype": "int32"}, {"name": "StatefulPartitionedCall/ISL_BiLSTM_Attn_1/bidirectional_1/forward_lstm_1/while/body/_40/ISL_BiLSTM_Attn_1/bidirectional_1/forward_lstm_1/while/add/y", "shape": [], "dtype": "int32"}, {"name": "StatefulPartitionedCall/ISL_BiLSTM_Attn_1/bidirectional_1/forward_lstm_1/while/body/_40/ISL_BiLSTM_Attn_1/bidirectional_1/forward_lstm_1/while/TensorArrayV2Read/TensorListGetItem/element_shape", "shape": [2], "dtype": "int32"}, {"name": "StatefulPartitionedCall/ISL_BiLSTM_Attn_1/bidirectional_1/forward_lstm_1/while/body/_40/ISL_BiLSTM_Attn_1/bidirectional_1/forward_lstm_1/while/lstm_cell_1/Cast/ReadVariableOp", "shape": [512, 512], "dtype": "float32"}, {"name": "StatefulPartitionedCall/ISL_BiLSTM_Attn_1/bidirectional_1/forward_lstm_1/while/body/_40/ISL_BiLSTM_Attn_1/bidirectional_1/forward_lstm_1/while/lstm_cell_1/Cast_1/ReadVariableOp", "shape": [128, 512], "dtype": "float32"}, {"name": "StatefulPartitionedCall/ISL_BiLSTM_Attn_1/bidirectional_1/forward_lstm_1/while/body/_40/ISL_BiLSTM_Attn_1/bidirectional_1/forward_lstm_1/while/lstm_cell_1/add_1/ReadVariableOp", "shape": [512], "dtype": "float32"}, {"name": "StatefulPartitionedCall/ISL_BiLSTM_Attn_1/bidirectional_1/backward_lstm_1/while/body/_84/ISL_BiLSTM_Attn_1/bidirectional_1/backward_lstm_1/while/add_1/y", "shape": [], "dtype": "int32"}, {"name": "StatefulPartitionedCall/ISL_BiLSTM_Attn_1/bidirectional_1/backward_lstm_1/while/body/_84/ISL_BiLSTM_Attn_1/bidirectional_1/backward_lstm_1/while/lstm_cell_1/split/split_dim", "shape": [], "dtype": "int32"}, {"name": "StatefulPartitionedCall/ISL_BiLSTM_Attn_1/bidirectional_1/backward_lstm_1/while/body/_84/ISL_BiLSTM_Attn_1/bidirectional_1/backward_lstm_1/while/add/y", "shape": [], "dtype": "int32"}, {"name": "StatefulPartitionedCall/ISL_BiLSTM_Attn_1/bidirectional_1/backward_lstm_1/while/body/_84/ISL_BiLSTM_Attn_1/bidirectional_1/backward_lstm_1/while/TensorArrayV2Read/TensorListGetItem/element_shape", "shape": [2], "dtype": "int32"}, {"name": "StatefulPartitionedCall/ISL_BiLSTM_Attn_1/bidirectional_1/backward_lstm_1/while/body/_84/ISL_BiLSTM_Attn_1/bidirectional_1/backward_lstm_1/while/lstm_cell_1/Cast/ReadVariableOp", "shape": [512, 512], "dtype": "float32"}, {"name": "StatefulPartitionedCall/ISL_BiLSTM_Attn_1/bidirectional_1/backward_lstm_1/while/body/_84/ISL_BiLSTM_Attn_1/bidirectional_1/backward_lstm_1/while/lstm_cell_1/Cast_1/ReadVariableOp", "shape": [128, 512], "dtype": "float32"}, {"name": "StatefulPartitionedCall/ISL_BiLSTM_Attn_1/bidirectional_1/backward_lstm_1/while/body/_84/ISL_BiLSTM_Attn_1/bidirectional_1/backward_lstm_1/while/lstm_cell_1/add_1/ReadVariableOp", "shape": [512], "dtype": "float32"}, {"name": "StatefulPartitionedCall/ISL_BiLSTM_Attn_1/bidirectional_1_2/forward_lstm_1_1/while/cond/_127/ISL_BiLSTM_Attn_1/bidirectional_1_2/forward_lstm_1_1/while/Less/y", "shape": [], "dtype": "int32"}, {"name": "StatefulPartitionedCall/ISL_BiLSTM_Attn_1/bidirectional_1_2/backward_lstm_1_1/while/cond/_171/ISL_BiLSTM_Attn_1/bidirectional_1_2/backward_lstm_1_1/while/Less/y", "shape": [], "dtype": "int32"}, {"name": "StatefulPartitionedCall/ISL_BiLSTM_Attn_1/bidirectional_1_2/forward_lstm_1_1/while/body/_128/ISL_BiLSTM_Attn_1/bidirectional_1_2/forward_lstm_1_1/while/add_1/y", "shape": [], "dtype": "int32"}, {"name": "StatefulPartitionedCall/ISL_BiLSTM_Attn_1/bidirectional_1_2/forward_lstm_1_1/while/body/_128/ISL_BiLSTM_Attn_1/bidirectional_1_2/forward_lstm_1_1/while/lstm_cell_1/split/split_dim", "shape": [], "dtype": "int32"}, {"name": "StatefulPartitionedCall/ISL_BiLSTM_Attn_1/bidirectional_1_2/forward_lstm_1_1/while/body/_128/ISL_BiLSTM_Attn_1/bidirectional_1_2/forward_lstm_1_1/while/add/y", "shape": [], "dtype": "int32"}, {"name": "StatefulPartitionedCall/ISL_BiLSTM_Attn_1/bidirectional_1_2/forward_lstm_1_1/while/body/_128/ISL_BiLSTM_Attn_1/bidirectional_1_2/forward_lstm_1_1/while/TensorArrayV2Read/TensorListGetItem/element_shape", "shape": [2], "dtype": "int32"}, {"name": "StatefulPartitionedCall/ISL_BiLSTM_Attn_1/bidirectional_1_2/forward_lstm_1_1/while/body/_128/ISL_BiLSTM_Attn_1/bidirectional_1_2/forward_lstm_1_1/while/lstm_cell_1/Cast/ReadVariableOp", "shape": [256, 256], "dtype": "float32"}, {"name": "StatefulPartitionedCall/ISL_BiLSTM_Attn_1/bidirectional_1_2/forward_lstm_1_1/while/body/_128/ISL_BiLSTM_Attn_1/bidirectional_1_2/forward_lstm_1_1/while/lstm_cell_1/Cast_1/ReadVariableOp", "shape": [64, 256], "dtype": "float32"}, {"name": "StatefulPartitionedCall/ISL_BiLSTM_Attn_1/bidirectional_1_2/forward_lstm_1_1/while/body/_128/ISL_BiLSTM_Attn_1/bidirectional_1_2/forward_lstm_1_1/while/lstm_cell_1/add_1/ReadVariableOp", "shape": [256], "dtype": "float32"}, {"name": "StatefulPartitionedCall/ISL_BiLSTM_Attn_1/bidirectional_1_2/backward_lstm_1_1/while/body/_172/ISL_BiLSTM_Attn_1/bidirectional_1_2/backward_lstm_1_1/while/add_1/y", "shape": [], "dtype": "int32"}, {"name": "StatefulPartitionedCall/ISL_BiLSTM_Attn_1/bidirectional_1_2/backward_lstm_1_1/while/body/_172/ISL_BiLSTM_Attn_1/bidirectional_1_2/backward_lstm_1_1/while/lstm_cell_1/split/split_dim", "shape": [], "dtype": "int32"}, {"name": "StatefulPartitionedCall/ISL_BiLSTM_Attn_1/bidirectional_1_2/backward_lstm_1_1/while/body/_172/ISL_BiLSTM_Attn_1/bidirectional_1_2/backward_lstm_1_1/while/add/y", "shape": [], "dtype": "int32"}, {"name": "StatefulPartitionedCall/ISL_BiLSTM_Attn_1/bidirectional_1_2/backward_lstm_1_1/while/body/_172/ISL_BiLSTM_Attn_1/bidirectional_1_2/backward_lstm_1_1/while/TensorArrayV2Read/TensorListGetItem/element_shape", "shape": [2], "dtype": "int32"}, {"name": "StatefulPartitionedCall/ISL_BiLSTM_Attn_1/bidirectional_1_2/backward_lstm_1_1/while/body/_172/ISL_BiLSTM_Attn_1/bidirectional_1_2/backward_lstm_1_1/while/lstm_cell_1/Cast/ReadVariableOp", "shape": [256, 256], "dtype": "float32"}, {"name": "StatefulPartitionedCall/ISL_BiLSTM_Attn_1/bidirectional_1_2/backward_lstm_1_1/while/body/_172/ISL_BiLSTM_Attn_1/bidirectional_1_2/backward_lstm_1_1/while/lstm_cell_1/Cast_1/ReadVariableOp", "shape": [64, 256], "dtype": "float32"}, {"name": "StatefulPartitionedCall/ISL_BiLSTM_Attn_1/bidirectional_1_2/backward_lstm_1_1/while/body/_172/ISL_BiLSTM_Attn_1/bidirectional_1_2/backward_lstm_1_1/while/lstm_cell_1/add_1/ReadVariableOp", "shape": [256], "dtype": "float32"}]}]}